task4/task3_experiment_2_c_target_q2.pt (torch, 281951 bytes, 6 tensors)

q.0.weight f4 [256, 5]
000000 d4 ba 0f 3e 0c 36 72 3f 71 5c f3 bd 22 a4 6c bf
       0.14036113 0.9461372 -0.11882866 -0.92437947
000010 6e 18 c5 bc df f4 b4 3c 52 90 e1 3c b3 43 bf 3c
       -0.0240595 0.02208942 0.027534638 0.023347711
000020 02 43 e8 bb 40 a8 80 3d 57 13 00 bf 67 8e 84 3e
       -0.007088066 0.06282091 -0.5002951 0.25889894
000030 59 49 6f 3e 16 ec a3 bd 5c 3a d1 3e 67 60 28 3d
       0.23367824 -0.08004014 0.40864837 0.04110756
000040 67 65 94 bb 83 d9 0b 3d e3 88 51 bc 36 15 58 be
       -0.0045286897 0.034142982 -0.012788984 -0.21101841
000050 08 5f 86 bc ae a0 e8 3b c8 e0 33 bc fb 11 ef 3b
       -0.016402736 0.0070992326 -0.010978885 0.0072958446
000060 3a 0e 60 be fe 1c 65 3c 38 08 28 be e8 98 ad bd
       -0.21880427 0.013983963 -0.16409385 -0.0847643
000070 c8 e1 52 bd 80 e2 76 3e cf 57 9e 3e eb fc b4 3e
       -0.051484853 0.2410984 0.30926368 0.3534921
000080 22 40 d5 3e af f5 b6 3e 84 6e 38 be 78 5a c4 3d
       0.41650492 0.35734317 -0.18010908 0.09587568
000090 07 2c 5d be 21 83 2d 3e b5 01 06 be 88 87 00 3d
       -0.21598826 0.16944553 -0.13086589 0.031379253
0000a0 0b 75 2d bf 4e e2 82 3e 31 a5 2d 3f 1c ed 73 be
       -0.6775672 0.25563282 0.6783019 -0.23820919
0000b0 58 d2 32 3e 3e cc c8 3c bf 40 31 bd 96 96 49 3d
       0.17463052 0.024511453 -0.043274637 0.049215876
0000c0 f7 3d 8b bd cc 4a 62 3e 32 a9 5f 3e 3e 08 90 3f
       -0.06798928 0.22098845 0.21841887 1.1252515
0000d0 fd 85 95 3e 5e 5c 03 be 4c e7 33 be e1 3a 4f be
       0.29203787 -0.12828204 -0.17568702 -0.20237304
0000e0 bd c9 31 bf 01 b3 7a bc 4c 8a 16 be b0 70 55 3e
       -0.69448453 -0.015301467 -0.14701194 0.20843768
0000f0 76 61 2a 3e c3 16 94 bd d0 b0 28 be c4 a3 8f be
       0.16638741 -0.07230904 -0.16473699 -0.2805463
000100 e8 87 94 3d 00 15 92 3e 67 e5 3b 3e 6e 9f 89 be
       0.072524846 0.28531647 0.18349229 -0.26879448
000110 8b 6c 23 be ac 18 30 3e 12 0c e7 bc fe 84 cd 3b
       -0.15959375 0.17196912 -0.028203998 0.0062719574
000120 f8 36 88 bc c7 e6 37 3c b5 00 92 be 7f e2 33 bc
       -0.016627774 0.011224455 -0.28516164 -0.010979294
000130 0c c9 df bd 98 68 1a be 62 20 d3 bd 10 ee 99 3d
       -0.109270185 -0.15078962 -0.10308911 0.0751611
000140 67 86 91 bb 8b 3c b2 bd ff a8 b3 bc 54 69 1f bd
       -0.004441071 -0.08702954 -0.02193117 -0.038918808
000150 44 d6 8b 3e 2e 39 f8 bd af be ed bc e3 0a 07 3e
       0.2731191 -0.12120281 -0.02902159 0.13187747
000160 ce 53 05 be 1f bd 36 3e 90 86 89 3d 72 15 8b 3d
       -0.1302025 0.17845581 0.06715119 0.067912
000170 58 15 0d 3e 70 2a 4c bd f8 4b c6 bd 3a b7 52 3d
       0.13777673 -0.04984516 -0.09682459 0.05144427
000180 2b 78 1f bc aa 20 5b bb ca c2 cd bc 87 9c c0 be
       -0.00973324 -0.0033436217 -0.025117297 -0.3761942
000190 a4 8a 9c 3d 4a f0 de 3e 86 76 6a 3e df b0 8a be
       0.07643631 0.435427 0.22896776 -0.27088067
0001a0 50 5e af 3c 79 4d 60 3e 26 f6 1e 3e 5b ed a9 bd
       0.021407276 0.21904553 0.15523586 -0.08297225
0001b0 c7 9b e4 bd 95 44 ba be 76 33 f5 bd 71 e0 ca bc
       -0.11162525 -0.3638045 -0.11972706 -0.024765225
0001c0 71 84 7b be 66 6e 6b bc 4a f8 ca 3e 70 e3 a9 bd
       -0.24562241 -0.014369583 0.39642555 -0.082953334
0001d0 52 d0 e3 bd d7 a5 75 3d 63 23 8c bd 96 ec 9b 3e
       -0.11123718 0.05997261 -0.06842687 0.30453938
0001e0 c1 2f 0a be da ba 1c bf c6 9b de 3d ae 1c 28 bf
       -0.13494779 -0.6122261 0.10869555 -0.6566876
0001f0 ca 21 4e be cd c6 59 3d 94 a7 c6 3c 9d ee e7 3c
       -0.20130077 0.053168107 0.02424983 0.028312022
000200 c8 c3 dc 3c c2 93 9f be db 91 1f 3e b9 8a 91 3e
       0.026948825 -0.31167418 0.15582983 0.2842615
000210 34 d4 09 bf b7 2e b4 3e 28 f9 72 3e 6a dd 42 bc
       -0.5383942 0.3519189 0.23727858 -0.01189361
000220 36 cd cf bc 63 b4 28 bb 5a fd da bc a4 f6 80 be
       -0.025366407 -0.0025742284 -0.026732136 -0.25188172
000230 7e 07 b5 be bc 70 97 be 56 2f 22 be 54 e0 c7 bd
       -0.3535728 -0.29578197 -0.1583837 -0.09759584
000240 a0 3d 39 3d f8 8a 03 3b 5b 45 27 bc dc 9d 08 39
       0.045224786 0.0020071846 -0.010209407 0.00013028778
000250 50 fd 2f bc 42 90 c9 bd b8 21 c8 bc 0a b0 68 bf
       -0.010741547 -0.09841968 -0.02443014 -0.90893614
000260 8f 11 e5 bd 9c 63 80 be b6 0d aa 3e 19 f5 41 3d
       -0.1118499 -0.25075996 0.33213586 0.047352884
000270 3a 13 3c 3d 67 0a 98 be b3 f0 26 bd 58 e1 c4 3e
       0.045916773 -0.29695436 -0.040756892 0.38453174
000280 7a 60 64 3d 1f f7 47 b8 fa 90 63 3d 62 ce 72 bd
       0.05575607 -4.7675447e-05 0.055558182 -0.059278853
000290 e6 7f e0 3d 8e a0 9f bd a4 d7 21 be 02 4a 38 be
       0.10961895 -0.07794295 -0.15804917 -0.17996982
0002a0 9e 3a 61 be 40 ed 58 3e dd b2 91 be 3f 40 e0 be
       -0.21995017 0.21184254 -0.28456774 -0.43799016
0002b0 e0 91 0f 3f 26 10 3c 3e d8 d0 30 3e b5 59 a7 3e
       0.5608196 0.18365535 0.17267168 0.3268563
0002c0 04 47 82 3e 74 40 98 be c7 33 6e be 0e 0a 68 be
       0.25444806 -0.29736674 -0.23261939 -0.22660086
0002d0 c8 b2 c7 3d 4d eb 46 3e cc ba fe 3d a8 50 3e 3d
       0.09750897 0.19425698 0.124379724 0.04646364
0002e0 1b ee ab be eb b6 0c 3e 2b 67 08 3e 3b a9 f9 3c
       -0.33580098 0.13741653 0.13320605 0.030476203
0002f0 32 8f 86 3e b0 27 7a 3e 00 c2 48 bc d4 b1 3b 3e
       0.26281124 0.24429202 -0.012253284 0.18329555
000300 ea bd 6e 3e b6 35 a3 3e 22 80 60 be 73 3b b2 3c
       0.23314634 0.31876916 -0.21923879 0.021756863
000310 2e dd 79 3c 4f 48 35 3c 9f 20 08 3d 60 65 c5 be
       0.015250487 0.011064603 0.033234235 -0.38553905
000320 05 df cd 3e 00 9e 66 3e fa 36 d1 3d 94 1f 3e be
       0.40209213 0.2252121 0.10215564 -0.18566734
000330 48 bd 97 bd 37 9c ba 3b 92 c2 c9 39 56 0a cd ba
       -0.074091494 0.005694892 0.00038482674 -0.0015643339
000340 9b df 1a ba 04 6b 0c 3e 16 a5 aa 3e 50 54 cf be
       -0.00059079536 0.13712698 0.33329076 -0.40494013
000350 c2 a5 61 be 1d bf b0 3c 60 21 b9 3e 3b 62 8c bb
       -0.22035888 0.021575505 0.36158276 -0.004284171
000360 73 db 14 3e 4e 34 44 3e 03 5b 0f 3e f3 22 93 be
       0.14536838 0.19160578 0.13999562 -0.28737602
000370 fa 75 54 be de b1 45 3e 0c d4 80 be e0 6b 87 3d
       -0.2074813 0.19306132 -0.2516178 0.066123724
000380 64 f2 54 3e 20 4d ee be b5 e3 17 bd 6d f5 8f 3e
       0.2079559 -0.46543217 -0.037082393 0.28116933
000390 b3 07 9b 3e 68 48 56 be d4 11 04 bd 2f 33 13 3d
       0.30279312 -0.20926058 -0.032243565 0.035937484
0003a0 40 2e a3 be e2 c8 39 3f 78 c9 c1 3e 58 87 54 bd
       -0.31871223 0.7257215 0.3784902 -0.051886886
0003b0 df af 9a bc 88 4d 9a be d0 82 ca 3d 30 89 70 bd
       -0.01888269 -0.30137277 0.09888232 -0.058724582
0003c0 82 19 84 bc 6f 7b 5a 3c 8f 30 ba bc 08 da b1 bb
       -0.016125444 0.013335093 -0.022728233 -0.0054276027
0003d0 d0 29 41 bd c3 46 3b 39 4b 39 aa 3b 74 f3 85 bb
       -0.047159016 0.0001786007 0.005194818 -0.0040878598
0003e0 cc 7e a3 ba 56 ed 05 be 8c ce 5f be bc 92 43 3d
       -0.0012473701 -0.13078818 -0.21856135 0.04774736
0003f0 44 4f 3e 3f 50 ec 40 3e e7 bb bd 3e cb 50 ae 3f
       0.743397 0.18840146 0.3705742 1.3618406

q.0.bias f4 [256]
000000 1e f2 03 ba 4f d2 fd bc ee 60 4c 3f a3 1f da bc
       -0.00050333317 -0.030984072 0.798354 -0.026626414
000010 80 4b 57 bc 90 c2 db be cc d3 bc be 0d dc d6 3d
       -0.013140559 -0.42921877 -0.36880338 0.1049119
000020 92 10 54 ba cf 29 4c bd d8 e3 28 3f ad 26 25 3f
       -0.00080896274 -0.04984456 0.6597266 0.6451214
000030 d7 01 00 3c 85 a5 a8 3a c8 07 97 bc 80 40 94 be
       0.007812939 0.0012866711 -0.018436328 -0.2895546
000040 8b 57 62 bd dc d8 36 be 21 45 a2 3e 9c 53 1a bd
       -0.05525927 -0.17856163 0.31693366 -0.037677392
000050 7b ef e6 be 24 1f 77 3e 64 bd 15 3c 64 57 2c 3d
       -0.45104584 0.24132973 0.0091393925 0.04207553
000060 41 5f 03 be 99 be 9c 3c ad e2 01 3f 30 50 a0 bc
       -0.12829305 0.019133853 0.50736505 -0.019569486
000070 60 73 d6 be 68 a6 0f bc ca e9 d4 3e 82 fe e8 3d
       -0.418849 -0.008767702 0.41584617 0.113766685
000080 eb d2 6d bd bc 17 f8 3c fc 2b 2e 3e 08 04 29 ba
       -0.058062475 0.030284755 0.17008966 -0.0006447439
000090 59 71 e3 3e ab f4 40 be 4a 44 dc be 07 7b d4 bc
       0.44422415 -0.18843333 -0.4302085 -0.02593757
0000a0 fb 2d ae 3e eb d4 83 bb 71 f8 cd 3e 6c 27 35 be
       0.34019455 -0.0040231845 0.40228608 -0.1769082
0000b0 fc 6b cf be cc 68 dd 3c 30 52 bc 3e 28 1e 80 be
       -0.40512073 0.02702751 0.36781454 -0.25023007
0000c0 ac 40 bb bc d8 e7 b0 bb bf b9 1e 3f 3b 14 82 3f
       -0.022857986 -0.0053987317 0.62002176 1.0162424
0000d0 98 c4 61 3f 69 4b f2 3d ba 7b 22 bb 68 46 90 bd
       0.88190603 0.118307896 -0.0024792985 -0.07044679
0000e0 6a 3f 2f 3e a1 7f ac b7 9c 16 b9 bb 2e 58 8b be
       0.17114034 -2.056343e-05 -0.005648447 -0.27215713
0000f0 26 4a a9 be d0 b0 8b be 03 d1 f5 bc 33 75 b8 be
       -0.33064383 -0.27283335 -0.030006891 -0.36026916
000100 1e 7b 61 3e 0f 00 4a bb b5 5a 84 bd e6 27 6f be
       0.22019622 -0.0030822789 -0.064626135 -0.23355064
000110 c0 b9 3e 3f 73 69 c5 bb ab 67 2d 3f 71 87 81 be
       0.7450218 -0.0060245334 0.6773631 -0.25298646
000120 16 f8 d3 be cd 9c 9a 3e aa 20 7b 3e 0b d4 2c be
       -0.41400212 0.30197755 0.24524179 -0.16877763
000130 25 81 f4 3e 73 10 49 bd 08 3e 14 bd 20 47 07 bc
       0.4775478 -0.049087953 -0.03619197 -0.008256704
000140 ab ce 57 bc 07 60 51 bd ac 24 9e be e4 ee 09 bc
       -0.013171832 -0.05111697 -0.30887353 -0.008418772
000150 c9 cc 31 3f f2 6d c1 3e 3a 10 cf 3e 92 7d 53 3c
       0.694531 0.37779194 0.40442067 0.012908356
000160 4f e8 71 bc 54 53 f0 3e db e3 f8 ba 71 a9 3e be
       -0.014764859 0.46938574 -0.0018988805 -0.18619324
000170 3c 0c ba bc 5a c0 db be c1 bc 62 3f b6 58 b3 3e
       -0.022710912 -0.4292019 0.88569266 0.3502862
000180 67 2a 0b 3f 34 28 e3 be 68 e6 1a bc 74 13 14 bc
       0.54361576 -0.4436661 -0.009454347 -0.009037841
000190 0b 17 64 bd 57 1d d8 be 54 50 1f bc d4 10 a0 be
       -0.055686038 -0.42209885 -0.009723742 -0.3126284
0001a0 6c 2c b5 bb 4e 8e 91 bd c7 65 45 be 7e ce 9d be
       -0.005528977 -0.071072206 -0.19277106 -0.30821604
0001b0 7d 14 9a 3f 04 c8 b8 bc 29 a7 e2 3a a0 43 12 bc
       1.2037503 -0.022556312 0.0017292249 -0.008927256
0001c0 14 fa a2 be e1 f6 1c 3e 7b 71 44 bd 60 bd c7 3e
       -0.3183142 0.15328552 -0.047959786 0.3901167
0001d0 5d 37 c2 be 60 39 11 bc d5 d8 03 3e 17 4c 2b 3f
       -0.37932864 -0.008863777 0.12875684 0.6691298
0001e0 af db cf 3d e8 93 10 be 6b c3 43 bd 63 cb eb bb
       0.10149323 -0.14118922 -0.047793787 -0.0071958764
0001f0 e2 79 9a be 48 29 46 3c 67 00 f4 bc 43 8b fa 3d
       -0.30171114 0.012094803 -0.029785348 0.12233593
000200 ec 27 99 3e cb 3c 82 be ec d4 14 3f 54 f1 ad bb
       0.2991327 -0.25437006 0.58137393 -0.0053083096
000210 b3 ae d1 bd f3 bb fd 3e ee 0b b8 3d ec b9 4d 3f
       -0.10238399 0.49557456 0.089866504 0.8036182
000220 7b 7e f5 3d cb 66 ff 3e e3 d6 49 bc b4 1e b2 bc
       0.11987015 0.49883112 -0.012319299 -0.021743156
000230 07 25 df bc a7 8c cd bc b7 49 e2 bb fc ca 9f bb
       -0.027239336 -0.025091482 -0.00690576 -0.0048764925
000240 f2 de 7a bb 24 f6 0d bd d8 f0 d1 be a4 cd 3d bc
       -0.0038279858 -0.034658566 -0.41004062 -0.011584673
000250 c3 83 7b bc 99 8e 81 3d 17 26 64 be e0 dd 19 bd
       -0.015351239 0.063260265 -0.22280155 -0.037565112
000260 c9 81 6a 3d ec b5 8d be 34 2f 1a bd 71 24 24 3f
       0.05725268 -0.27677858 -0.037642673 0.64118105
000270 74 d5 bf be 17 f7 6d be 5c c4 87 be 62 75 cd 3e
       -0.3746754 -0.23238789 -0.26516998 0.40128618
000280 40 66 8e bd be c4 29 3f 90 7c 39 bd 3c 2e d9 bc
       -0.069530964 0.6631583 -0.045284808 -0.026511304
000290 1d 83 e8 3c 93 23 83 bc 9c ee 3d bc 77 97 68 bc
       0.028382832 -0.016008174 -0.011592533 -0.014196268
0002a0 46 39 51 3f a5 2b 71 3e 8f 75 1a 3e b6 98 82 3e
       0.8172802 0.23551805 0.15083908 0.25507134
0002b0 de 5a be bd 18 82 15 be 64 02 a1 bb a7 5a 2b 3e
       -0.09294675 -0.14600408 -0.004913615 0.167338
0002c0 17 bf 01 bd 88 1e 69 3d e7 bd 95 3f 51 55 8a 3c
       -0.031676378 0.056913882 1.1698579 0.016886385
0002d0 f2 b9 3c 39 62 40 88 be 97 e5 c5 bd 8d 83 af be
       0.00017998347 -0.2661162 -0.096629314 -0.34280053
0002e0 ad 8f 82 be 20 6f b8 3d 6c 3f 22 bc b4 a8 07 bc
       -0.2550024 0.090055704 -0.009902816 -0.008279968
0002f0 60 f8 14 3f 8c 6d 1f bd 8b 56 45 bc 17 4b d1 bc
       0.5819149 -0.03892283 -0.012044559 -0.025548501
000300 86 41 12 3f 5c 42 3b bd 70 30 0a bc 44 c2 bf 3d
       0.5713123 -0.045717582 -0.0084344 0.09363225
000310 c3 8b e4 bc a5 50 c5 3e 88 a0 a7 bc 59 74 7b 3d
       -0.027898675 0.3853809 -0.02046229 0.061390255
000320 48 89 b3 bc 5f af ca bd 50 67 a3 be ae d5 c1 3e
       -0.021916047 -0.09896731 -0.3191476 0.37858337
000330 0c 16 a3 be bd 6b c3 be 13 26 43 bd 5f 1d 81 bd
       -0.31852758 -0.38168135 -0.047643732 -0.0630443
000340 4c 86 a3 be 6f 04 80 be 74 b1 92 3e 48 61 2e bc
       -0.31938398 -0.25003383 0.2865101 -0.010643311
000350 3c 9d 12 bc 2e 0d 8f 3d f0 bb 08 bc 8e 84 ee 3c
       -0.00894862 0.06984936 -0.008345589 0.029115941
000360 24 d4 3e be 6f f2 bc be 82 49 e8 3e 0c 75 bd bc
       -0.18635613 -0.36903712 0.45368582 -0.023127101
000370 8b 8d de bc dc d6 9b 3d 60 e8 07 be 33 03 d0 bb
       -0.027167102 0.076093405 -0.13272238 -0.0063480376
000380 19 b5 eb 3d bb 25 77 3b b8 85 12 bc cf 92 4c bb
       0.11509151 0.0037711698 -0.008943014 -0.0031215434
000390 bd 4a 00 3e 1b b5 32 3c 1e 5f 07 3f 09 c7 62 3e
       0.1252851 0.010907437 0.5287951 0.22146238
0003a0 bb 09 96 bb d0 34 23 3d f7 67 cf bc 57 38 cc bc
       -0.0045787967 0.039845288 -0.025318129 -0.024929209
0003b0 88 6a ce bb be af b0 be 57 10 65 bc 0d 38 6b 3e
       -0.0062993206 -0.3450908 -0.0139809465 0.229706
0003c0 e3 d0 a7 3e 7e d3 cf be 33 21 47 3f 88 6b 0c bc
       0.32776555 -0.40591043 0.77785033 -0.008570559
0003d0 25 8c 01 3f b0 17 0d 3e 10 5f 59 bd e3 6b bd be
       0.5060447 0.13778567 -0.053069174 -0.36996374
0003e0 24 d4 61 bb 24 1a 3a be 61 40 59 3e 53 7c 98 be
       -0.003445872 -0.18174034 0.21215965 -0.29782352
0003f0 54 d5 21 bd 87 2c b9 3d 4d bb 0e 3e 70 26 c0 3d
       -0.039510086 0.09041696 0.13938637 0.09382331

q.2.weight f4 [256, 256]
000000 94 56 8b 3b c6 ef e5 3d f4 7f 8e bd d1 74 85 3d
       0.0042522643 0.11227374 -0.06957999 0.065164216
000010 43 84 c6 3d 40 5c 08 3d 70 68 e9 bc 3b d1 9f 3c
       0.09693196 0.0332911 -0.028492182 0.019508949
000020 22 1b 5c 3d bb ab 82 3d d8 2b 0b be 67 69 e5 bc
       0.053736813 0.06380411 -0.13590944 -0.028004361
000030 63 29 80 be 53 d9 63 b9 20 14 ba bc b0 a6 0c bd
       -0.25031576 -0.00021729367 -0.022714674 -0.034338653
000040 24 b1 2a be 83 35 32 3b 38 8e 11 bd 0e 76 fe 3d
       -0.16669136 0.002719254 -0.03553602 0.12424861
000050 f0 d0 0c 3c 6c 7c a6 be 8b 3d a7 3c 04 04 be bb
       0.008594736 -0.325168 0.020415088 -0.0057988185
000060 5c 9f 0e be 04 48 1d be e6 3e f9 3d b6 1a cb 3d
       -0.13927978 -0.15359503 0.121702 0.09917204
000070 f8 a8 e9 3c 49 06 86 bc bb 07 d0 bb 9d 7f 86 be
       0.028522953 -0.016360419 -0.006348578 -0.26269236
000080 93 c8 07 3c 0f 4f b7 3d 03 69 15 3d 7b 6a 64 bc
       0.008287567 0.08950626 0.0364771 -0.013941403
000090 f3 87 f9 bd e8 f0 1a bc f0 b9 89 bc 9c 8b a3 3d
       -0.121841334 -0.009456851 -0.016812295 0.07985613
0000a0 70 06 b9 bd b3 76 f5 bd 4b c0 b9 3d 52 ed c5 bc
       -0.09034431 -0.11985531 0.0906988 -0.024161015
0000b0 0e ff 10 bd 9a e6 45 3e 5f 51 30 3e 54 1e 96 3c
       -0.03539949 0.19326249 0.1721854 0.018325008
0000c0 1f 97 7f bd 1a 7c 67 3d b8 c0 b1 bd a6 94 4a be
       -0.06239998 0.056514837 -0.08679336 -0.19783267
0000d0 67 ab da bd e8 de 2e be f2 fc 85 3d 4b cb 4c bd
       -0.10677224 -0.1707722 0.06542386 -0.049998563
0000e0 98 ef 89 bd a3 d5 b0 be 64 15 1d be 90 9f ec bb
       -0.06735152 -0.34537992 -0.15340191 -0.00722117
0000f0 38 78 81 bc c6 3f 52 3d a7 22 08 3d b0 b8 00 3d
       -0.015804395 0.05133035 0.033236172 0.03142613
000100 3f 0f 3d 3e 1f 85 e9 bc b3 fe 79 3d 54 55 90 bd
       0.18462847 -0.02850586 0.061033916 -0.07047525
000110 63 4c 6d bd 72 80 e5 bd b3 06 89 3e a8 5a 5f bd
       -0.057934176 -0.112061396 0.26762924 -0.054529816
000120 9c 89 88 3c c2 b8 f3 3c 63 f7 49 be 88 4d b9 3c
       0.01666718 0.029751185 -0.19723277 0.022619978
000130 4c ca a0 be 04 09 8c be e3 b3 d8 bc 0c 82 21 be
       -0.3140434 -0.27350628 -0.026452964 -0.15772265
000140 23 25 11 be 52 94 71 3d be 8d 7a bb a8 d7 aa bc
       -0.14174323 0.05897934 -0.0038231458 -0.020854786
000150 6f 29 43 be 22 6a d3 bd 70 59 13 bc ab 83 48 bc
       -0.19058774 -0.103229776 -0.0089934915 -0.012238423
000160 6c b4 2a bc 2c 44 21 be 9b d3 5d be b4 a1 93 bd
       -0.0104189925 -0.15748662 -0.21662752 -0.07208577
000170 fb 75 ae 3d a0 65 26 bd 27 e5 db bd 87 02 25 3e
       0.08518597 -0.04062426 -0.10737067 0.16114245
000180 c7 62 e6 bd 4e 6d 0a bd d2 6c 41 3d c4 74 3a be
       -0.11249309 -0.033795647 0.04722292 -0.18208605
000190 28 a5 84 3c be 17 69 bb 8b 3d 7c 3d af 2a 20 3d
       0.016192034 -0.003556713 0.06158213 0.039103206
0001a0 7e dd 79 3c d8 08 db bd 5e 5a 72 3d 5e 4a 6e 3b
       0.015250562 -0.10695046 0.059168212 0.0036360244
0001b0 53 3e 1d 3b 67 15 8a bc a6 85 54 3d 13 b9 1e 3e
       0.0023993447 -0.016855909 0.05188527 0.15500288
0001c0 60 38 09 3c 82 a0 d3 3d db 5b 5e bd fb 54 89 3c
       0.008375257 0.10333349 -0.05428682 0.016764155
0001d0 b0 2c 53 3d 17 9b cc bd 72 be f7 3d 0e f4 69 3b
       0.05155629 -0.099905185 0.120968714 0.0035698446
0001e0 42 3e f3 3d 8f 55 6a 3e 3f a7 93 3d 57 15 95 bd
       0.11877109 0.228842 0.07209634 -0.07279461
0001f0 80 7c cb 3b eb 16 8c 3e 40 cc aa 3e 3b 62 dc bb
       0.00620991 0.27361235 0.33358955 -0.006725577
000200 fa ef fc 3c 07 37 07 bc 7c 31 16 be f4 cd 38 be
       0.030876148 -0.008252866 -0.14667314 -0.18047315
000210 2f d0 18 be 5f 25 e1 bd 22 4b 77 3d c8 01 13 bd
       -0.14923166 -0.10993456 0.060374387 -0.03589037
000220 8f 46 3d bd 2a f3 dd 3d 3f 1e 24 3d 37 5a f7 bd
       -0.046209868 0.108373955 0.040067907 -0.12077754
000230 0c f0 ab 3d ab 24 91 bc 96 47 5c 3d e7 fb 25 3c
       0.08395395 -0.01771768 0.053779207 0.010130859
000240 14 c3 3c bc 0a 45 ed 3d 22 28 4a bd 7c 21 84 be
       -0.01152112 0.11585434 -0.04935468 -0.25806797
000250 5b 04 9d 3d fb 78 c4 3d 96 10 f0 bd 13 07 62 bd
       0.07666846 0.09593388 -0.117219135 -0.055182528
000260 b7 0e 5c bc 32 43 10 3d 46 3c e7 3c 1c c1 36 bd
       -0.013431243 0.035220332 0.028226983 -0.044617757
000270 c0 9d 8f ba 13 76 a0 3d 4e 51 54 3d c8 44 20 be
       -0.0010957047 0.07835021 0.05183535 -0.15651238
000280 9b 68 7d bd b7 2b 97 3d 7b 05 8b bd 04 dd 04 3e
       -0.061867338 0.07381385 -0.06788155 0.12974936
000290 eb 7e 76 bc bc b1 84 3d 2c 5f 9f 3d 9e 42 ca 3d
       -0.015044908 0.06479213 0.077818245 0.098759875
0002a0 02 6f 78 3e 6b 67 6d bd d7 e9 f9 bc e7 36 54 be
       0.24261096 -0.057959955 -0.030507011 -0.20724069
0002b0 a3 61 bb 3d be 44 f8 3d da 44 f5 3d 5a 88 52 3e
       0.09149482 0.121224865 0.11976023 0.20559826
0002c0 bb 9a 58 be 3a 4e 5c 3e 57 db 9c 3e af 87 bb 3d
       -0.21152775 0.21514216 0.30636093 0.09156739
0002d0 4c 47 35 3c 52 3b 19 bd d7 7c 14 3d 40 6b cc ba
       0.011064362 -0.037410088 0.03625187 -0.0015595928
0002e0 be cb c1 3d 4a 1f d8 3d bc f0 81 bd 7d c5 83 be
       0.09462689 0.10552843 -0.063447446 -0.2573661
0002f0 24 df 3d be fb 90 3b 38 8f ed 27 3c d7 b5 ab 3d
       -0.18542153 4.4719298e-05 0.0102495095 0.083842926
000300 80 06 bd bb 67 c1 d8 bb 27 54 82 bc 0b 1e 44 be
       -0.005768597 -0.006614852 -0.015909268 -0.19152085
000310 2e 98 cb 3d 00 7e 18 be 97 79 a5 3d 07 21 de bd
       0.09941135 -0.14891815 0.08079832 -0.10846143
000320 d0 c1 13 3e e0 d8 23 be ea 63 74 3d f7 e5 7b be
       0.14429402 -0.160007 0.059665598 -0.24599443
000330 ba cf 58 bd 3e 7e 2f 3d a0 5f 04 3c 34 e4 8f 3e
       -0.05293248 0.042845003 0.008079439 0.28103793
000340 1f e9 41 3d c8 e1 4d bd d3 0d e9 bc 87 bc 8b 3e
       0.047341462 -0.05026415 -0.028448975 0.27292272
000350 a0 c3 bc 3d ba e8 64 be 8b 68 1a 3e 9f 52 58 bc
       0.09217 -0.22354403 0.15078942 -0.013203292
000360 68 af 24 be 06 0f 1b 3d 6e 0a 5d 3d 7b 47 01 be
       -0.16082537 0.037856124 0.053965025 -0.12624924
000370 87 ae 9e bd 3e b8 7a 3d c2 33 58 3d 1b 41 16 3d
       -0.07748132 0.061210863 0.052783735 0.036683183
000380 30 ab bd bb 96 39 56 3c a7 73 aa 3d e2 3f 00 3e
       -0.0057882294 0.013075253 0.0832284 0.1252437
000390 58 b1 23 bd 0c f7 05 3e 06 a3 e3 3d 20 e2 be bc
       -0.03996405 0.13082522 0.11115079 -0.023301184
0003a0 12 1d 02 3e 53 22 52 bd 3c 84 0d bd 9c f8 82 3d
       0.12706402 -0.051302265 -0.034549937 0.06395075
0003b0 c4 cc a3 bd 24 94 16 3d 6a 9b d2 bd 13 2c c7 bd
       -0.0799804 0.03676237 -0.10283549 -0.09725203
0003c0 c0 c9 87 bd f6 41 7f bd d4 1b 29 be d7 d9 e6 3d
       -0.06630278 -0.062318765 -0.16514522 0.112720184
0003d0 67 f2 b1 3c d8 84 07 be 0a 86 4f bd 24 2e 0f bd
       0.021722032 -0.1323427 -0.05066494 -0.034956113
0003e0 bc 82 9b ba 67 7c 91 3d 5f 18 c1 bd b4 7a dc 3c
       -0.0011864523 0.07103806 -0.094284765 0.026913978
0003f0 4e 51 d4 3d 07 fa d2 bb d0 ff b9 bd dc 5f 32 bc
       0.1036707 -0.006438497 -0.090819955 -0.0108871125

q.2.bias f4 [256]
000000 30 c1 98 be 24 c1 b8 bc 0f 06 67 bf d3 7c 77 bf
       -0.2983489 -0.022553034 -0.9024362 -0.9667484
000010 b8 81 87 bf 4c 75 2f bd af 7c 64 bc e1 49 bc c0
       -1.0586462 -0.042836472 -0.0139457425 -5.8840184
000020 83 3c 30 c0 24 85 10 c0 4b f5 f2 bc 6c 8a 98 bf
       -2.7536933 -2.2581263 -0.02965798 -1.1917243
000030 33 5d 68 40 8c 79 93 bf ea 90 28 bc 13 99 61 bd
       3.6306884 -1.1521468 -0.010288456 -0.055077624
000040 07 5d d4 bb f8 4b a5 bc e7 33 0c c0 7b 4b 8b 3c
       -0.0064808163 -0.020177826 -2.1906679 0.017003765
000050 dd db 88 c0 17 3e e3 bf 10 6e 12 c0 87 6a 12 3e
       -4.276839 -1.7753323 -2.2879677 0.1429845
000060 24 94 ae bd 76 b2 cd 40 14 68 8b bf e2 5e 58 41
       -0.08524349 6.428035 -1.0891137 13.523165
000070 a8 ba 1f be 9b 3c 5e bc e7 ca 6a bd bb 12 8e 3d
       -0.15598547 -0.013564254 -0.05732241 0.06937166
000080 80 64 cd bf 2b 75 59 bc c0 7c 89 c0 4c af 13 c0
       -1.6046295 -0.013272564 -4.2964783 -2.3075743
000090 06 91 57 c0 e4 06 ae c0 1c e4 93 bf c8 26 aa bf
       -3.3682265 -5.438341 -1.1553988 -1.3293085
0000a0 9c 32 2c c0 cc 1a 94 be f7 77 e7 bd 50 89 12 bc
       -2.690589 -0.28926694 -0.11302178 -0.008943871
0000b0 30 bc 89 bc ec fd 90 bd 7b a0 5b bc 23 52 48 c0
       -0.016813368 -0.07079682 -0.013404961 -3.1300132
0000c0 c8 98 21 bc 58 c8 2f bf ac 59 58 bd 2b 43 4f bf
       -0.009863086 -0.68665075 -0.052819893 -0.80961865
0000d0 df 6b 54 bf 94 bd 08 bd a0 10 8e bc 7b c2 03 c0
       -0.829771 -0.03338392 -0.017341912 -2.0587451
0000e0 28 ad 11 c0 80 27 97 bf f0 db 86 bf 63 cc f9 bc
       -2.2761936 -1.180893 -1.053587 -0.030492967
0000f0 24 75 87 bf 99 a5 9a c0 e7 45 5e bf 37 e0 da bf
       -1.0582623 -4.8327146 -0.8682541 -1.7099675
000100 6b be f4 c0 14 3d 09 bd cc ff 3d c0 f9 3e 84 bf
       -7.6482444 -0.033505514 -2.9687376 -1.0331718
000110 53 0e e6 bd d0 a1 a4 bf 0b 84 6a bd 00 55 9e 3a
       -0.11233201 -1.2861881 -0.057254832 0.0012079775
000120 2b a6 6e ba cf 80 6d bf 5c d5 ad bd d8 71 9f bf
       -0.00091037404 -0.9277467 -0.08487961 -1.2456617
000130 1a 3d c7 bf 50 56 18 be 0c 34 95 bf 56 77 f6 3b
       -1.5565522 -0.14876676 -1.1656508 0.00752155
000140 1f d1 d9 bc b7 fb 6e bc 90 6e 10 bd 10 87 27 c0
       -0.026588975 -0.014586381 -0.03526169 -2.6176186
000150 f4 b7 3f be d8 be 31 bd 7a e9 d3 40 d6 38 c9 40
       -0.18722516 -0.043394893 6.6222506 6.288188
000160 54 75 36 bc 78 ea 06 bd d4 fd 14 bd 75 5d 1b c1
       -0.011136372 -0.03293845 -0.036374882 -9.710317
000170 53 2a 77 bd 97 4f 54 bb 3b 47 b6 40 cf 21 54 bf
       -0.060343098 -0.0032396072 5.696195 -0.8286409
000180 eb 4d e1 c0 0c 74 8c bf c3 60 71 bf 38 b3 14 be
       -7.0407615 -1.0972915 -0.9428827 -0.14521492
000190 6c 29 33 c0 c3 65 1c 3d b2 dc 58 c1 e4 31 21 bc
       -2.7994032 0.038182985 -13.553881 -0.009838555
0001a0 87 83 53 bb 3f 80 62 c0 54 61 36 38 4c 15 35 be
       -0.0032274441 -3.5390775 4.3482825e-05 -0.17683905
0001b0 9b ba dd bf 72 32 e3 3c af f5 22 be 6f d5 64 bd
       -1.7322572 0.027734015 -0.15914033 -0.05586761
0001c0 87 02 26 c1 08 fa 25 bd 3a 24 00 c0 dc 9b 0a c0
       -10.375617 -0.04052165 -2.002211 -2.165763
0001d0 47 2f 24 3c 1a f8 47 41 6b 6a 4c bd 0b cf 4c bf
       0.010021037 12.498072 -0.049906176 -0.8000342
0001e0 27 dc 6e bb 77 28 a8 3a ac 5b 81 be 13 9e 48 bd
       -0.003644714 0.0012829442 -0.25265253 -0.048978876
0001f0 e6 3f 0f 3d b0 2c a8 bf d6 a0 fc bf 4b e7 1c 3c
       0.034973048 -1.3138638 -1.9736583 0.009576629
000200 6b bd 4e bc 2b df 67 bd 5b 9e 5f bf b0 48 0c be
       -0.012618403 -0.056609314 -0.87351006 -0.13699603
000210 46 84 db 3c 23 a5 85 bf b9 2b 82 be d3 33 16 3d
       0.026796471 -1.0441021 -0.25423983 0.036670517
000220 ed ad 85 bf 2e dc 43 3c 13 10 d9 bc 34 89 90 bf
       -1.0443703 0.01195435 -0.026496923 -1.1291871
000230 b0 bc 14 bc ac 67 19 c0 2b 4e e7 bb 25 14 ed c0
       -0.00907819 -2.3969526 -0.007058879 -7.408709
000240 20 b8 83 3b 2f 34 86 bb 6f c4 f5 bd 64 b5 ac ba
       0.004019752 -0.0040955762 -0.12000357 -0.0013176617
000250 f8 aa 1d c1 5b de 82 bf 08 99 1f bd 7c 56 8f bd
       -9.85424 -1.0224108 -0.0389643 -0.069989175
000260 87 70 7a bf 0c 61 3d bd 7b 3b 1b 3d d9 8a 85 bf
       -0.97827953 -0.04623513 0.037898522 -1.0432998
000270 6f bd d9 bf 5b ba 83 bf 18 b4 1f c0 7f 23 91 3c
       -1.7010936 -1.0291246 -2.495367 0.017717121
000280 ac b3 13 bd f8 14 af bf 4b f8 d1 bf ce 0f 6b 3d
       -0.03606002 -1.3678274 -1.6403898 0.05738812
000290 58 42 15 bd 8b d5 eb be 1f f9 27 be 7b e8 59 bd
       -0.036440223 -0.46061358 -0.16403626 -0.053200226
0002a0 d8 48 a0 bf b4 89 88 bf af 96 cf bf db 5b 40 be
       -1.252223 -1.0667024 -1.621786 -0.1878504
0002b0 e3 f7 81 bd d2 c4 7f 3b 88 b7 9f bf b8 01 8a bf
       -0.06346109 0.0039027226 -1.2477884 -1.0781775
0002c0 26 d3 4a bf 5f 5b 49 bd da 63 d9 c0 07 12 00 be
       -0.79228437 -0.049159404 -6.793439 -0.12506877
0002d0 78 54 8b bf 57 bf ef bd d4 de 5b bf b7 6b 85 be
       -1.0885153 -0.11706417 -0.85886884 -0.26058742
0002e0 83 2e e6 3e 13 2d da bd d4 f4 13 bc 97 35 da ba
       0.4495736 -0.106531285 -0.00903054 -0.0016648051
0002f0 67 f2 e4 c0 20 9d 7f c1 0a 44 3f c1 0e c3 b6 be
       -7.15459 -15.975861 -11.954111 -0.3569569
000300 61 c5 0f c0 c8 89 97 bf e3 59 08 3c 8f d3 6e be
       -2.246422 -1.1838923 0.008322212 -0.2332289
000310 d7 49 6a bd 21 a1 01 bd ec 7c 0f be b8 bc 8d bc
       -0.057199325 -0.031647805 -0.14012498 -0.017301902
000320 4b 62 db bf 4b 0f 80 bd c8 7e 0c bd 0c fd 28 bc
       -1.7139372 -0.06252917 -0.034300596 -0.010314237
000330 39 30 00 c0 60 78 f2 bf 89 c1 01 c0 e1 61 63 c1
       -2.0029433 -1.8942986 -2.0274374 -14.211396
000340 30 6a 2e bd c3 49 cc bd 90 6a 94 bc 1b a1 82 bf
       -0.042581737 -0.099750064 -0.01811722 -1.0205415
000350 94 e5 9c bd d8 4a 0f bd 6b 93 d5 bd 0b 08 c1 bd
       -0.07660976 -0.034983486 -0.10428508 -0.09425362
000360 6c bc 2c be f8 ea 88 bc b0 51 ba bc b4 fe 86 bf
       -0.16868752 -0.016713604 -0.02274403 -1.0546479
000370 33 30 46 bd 6c b7 b6 bf 78 88 89 bd 23 49 4c bd
       -0.04838581 -1.4274726 -0.067154825 -0.049874436
000380 bd 86 82 bf 5a b4 86 bf a4 d3 04 3d 90 67 17 bd
       -1.0197369 -1.0523789 0.0324284 -0.036964
000390 af ff fc bf 97 44 86 bf 34 71 04 3c 47 15 dc bb
       -1.9765528 -1.0489682 0.00808363 -0.0067164036
0003a0 00 fe 95 bb 83 b2 83 c0 7f 2f 19 c0 28 f3 8c bf
       -0.0045773983 -4.115541 -2.393524 -1.1011705
0003b0 ef 41 46 c0 b8 13 39 bc 40 1e 1f bf 58 be 96 bf
       -3.0977743 -0.011296205 -0.6215553 -1.1776838
0003c0 f0 7e 9d c0 60 87 93 bf ba 26 de 3c 6d 74 80 bf
       -4.9217453 -1.1525688 0.027118076 -1.003553
0003d0 00 ce 7c c0 87 54 a3 ba ab 38 e6 bf 4c 96 1d bc
       -3.9500732 -0.0012461104 -1.7986044 -0.009618353
0003e0 6e 31 ed 3c 6c d7 a5 bf e6 79 e1 3c 83 cb 4b bd
       0.028954234 -1.2956367 0.027523946 -0.04975463
0003f0 18 c0 89 bf d7 d0 fe bb 23 04 55 bc 27 9b 7d bf
       -1.0761747 -0.0077763605 -0.013001475 -0.9906487

q.4.weight f4 [10, 256]
000000 63 e5 15 bf 06 23 f0 ba 07 36 08 bf e2 36 ec be
       -0.5855314 -0.0018320985 -0.5320744 -0.46135622
000010 f2 33 f3 be 4c c7 28 bd 46 bb 65 3c cf 22 b7 bc
       -0.4750057 -0.04120569 0.0140217 -0.022355465
000020 d4 9f 31 bf fc d9 15 bf cc 36 7f bd e7 ba 11 bf
       -0.69384503 -0.5853574 -0.062308118 -0.56925815
000030 8d 01 c6 3e df 66 de be f0 d7 19 bd 6f 15 0c 3c
       0.38673058 -0.4343786 -0.03755945 0.008550032
000040 c7 bd 10 3d a6 5c 55 3d fa d0 c1 be 66 bb 6d 3c
       0.035337236 0.05209031 -0.3785475 0.014510011
000050 ad f4 0b be a7 91 0c bf d3 e1 1d c0 80 d2 8c bd
       -0.13667555 -0.5490975 -2.4669082 -0.06876087
000060 a1 9d 82 bd b2 b0 00 3f 26 60 00 bf bf f1 87 3f
       -0.063777216 0.50269616 -0.5014671 1.062065
000070 68 6b bb bd f8 04 2d bc a7 61 94 3c 6b c0 50 3c
       -0.091513455 -0.010560267 0.01811297 0.0127411885
000080 00 d8 b6 be 3c dd 98 bd cf 6b 23 bf 64 e8 17 bf
       -0.3571167 -0.07464072 -0.6383638 -0.59338975
000090 b8 f6 32 bf 63 c4 4f bf 27 35 0c bf be f7 ef be
       -0.6990771 -0.8115904 -0.54768604 -0.468687
0000a0 23 05 fc be e5 a1 00 be cf 3b b5 3c 2b 74 a8 3c
       -0.4922267 -0.12561758 0.022123246 0.020563206
0000b0 db 66 3a 3d 8e 01 41 3b 8f bf 69 bd ef 42 45 bf
       0.045508247 0.002945039 -0.05706745 -0.7705526
0000c0 f6 cf 41 3d 9b c0 8c be 0c 58 49 3d 1b a5 16 bf
       0.047317468 -0.27490696 0.049156234 -0.5884568
0000d0 ee f1 ca be 60 e0 32 bd f7 ac f3 bc 42 8d 60 bf
       -0.39637703 -0.043671012 -0.029745562 -0.8771554
0000e0 dc ec 1d bf d6 c9 c9 be ca a4 fa be c0 20 8c 3b
       -0.61689544 -0.394118 -0.4895385 0.004276365
0000f0 16 e4 67 be 01 14 de be 3c 9b 99 be 0e bf c9 be
       -0.22645602 -0.43374637 -0.30001247 -0.39403576
000100 62 dc 0b be 30 4e 36 3d 38 2b 1a bf 16 0a d1 be
       -0.13658288 0.04450816 -0.60222197 -0.40828007
000110 60 69 27 bd 0b 81 bb be 4c 80 b5 bc 53 34 13 3d
       -0.040871978 -0.3662189 -0.022155903 0.035938572
000120 f0 50 43 bc 62 96 06 bf 17 5a 79 bd 87 b4 0e bf
       -0.0119211525 -0.52573216 -0.060876932 -0.5574421
000130 a4 fc a2 be 33 f1 4d bd 17 cb 08 bf ba 69 45 bd
       -0.31833375 -0.050278854 -0.5343489 -0.04819653
000140 c6 a2 4e 3d 73 69 0e 3c 62 4b cb 3b a6 24 db be
       0.0504482 0.008692133 0.0062040547 -0.42801398
000150 d0 a0 6b bd 3c ee 34 bc c0 89 38 3f c2 09 81 3f
       -0.05752641 -0.011043128 0.7208519 1.0081103
000160 93 d4 28 3d 07 a0 20 3d e6 e0 54 3c 5e 45 14 bf
       0.04121835 0.039215114 0.012993073 -0.57918346
000170 00 a5 4d bd df 14 4c bd be ad 55 3e 97 c5 d6 be
       -0.050206184 -0.04982459 0.20867059 -0.41947624
000180 27 e3 3f bf ce 25 06 bf 27 b8 f9 be 8c 7f 88 bd
       -0.7495598 -0.52401435 -0.4877331 -0.06664953
000190 d4 89 15 bf 60 aa 8e bd ee 9b 5e bf dc ae bd bb
       -0.58413434 -0.0696609 -0.8695668 -0.005788667
0001a0 87 4d 16 3c 3f f7 c5 be f8 ba a4 bc 0c 0b 3e be
       0.009173757 -0.38665196 -0.020108685 -0.18558902
0001b0 17 ff 24 be 3e ef 61 3d 3a 2e ca bd 28 88 bc bc
       -0.16112934 0.0551598 -0.09872098 -0.023014143
0001c0 fc e5 54 be f3 12 a1 ba d6 0c ff be 94 dd c7 be
       -0.20790857 -0.0012288973 -0.4981448 -0.39036238
0001d0 b0 95 2d bd ed 53 c1 3f b4 19 0e bc 77 a5 bc be
       -0.04237908 1.5103737 -0.00867312 -0.3684499
0001e0 83 7d 35 3d 42 ad 68 3d 28 e5 38 3e 2e ee 29 bd
       0.04430915 0.056805857 0.18056166 -0.04148691
0001f0 56 d2 f0 bc c7 76 aa be 54 f4 a5 be 97 a4 ed bc
       -0.029397171 -0.33293745 -0.3241297 -0.029009147
000200 4f 94 4d bd be 86 72 bc e6 b5 eb be b3 05 6e bd
       -0.050190266 -0.014802633 -0.46037215 -0.058110904
000210 d0 03 91 3c 44 a5 01 bf 8a be cb bd 22 94 6f 3d
       0.017702013 -0.506428 -0.09948452 0.05849088
000220 67 31 c3 be 4c 89 50 bd e0 15 32 bc fe 2b ef be
       -0.38123628 -0.050912187 -0.010869473 -0.4671325
000230 c0 65 c9 3a 37 6e de be 36 bf 6c bd 95 92 99 bf
       0.0015365407 -0.43443462 -0.05779954 -1.1997858
000240 84 1c ad bb 16 b0 6e bc e8 a4 a7 bd b2 35 eb bc
       -0.0052829403 -0.014568349 -0.0818575 -0.028712127
000250 dc 08 06 be 03 0f 8b be f2 3e 36 3d 6f 92 d2 bd
       -0.13089317 -0.2715989 0.044493623 -0.10281836
000260 5f 5f fc be 4a 51 79 3d bf b0 c3 bb 08 32 06 bf
       -0.49291512 0.06086854 -0.0059719975 -0.5242009
000270 37 be b6 be 7a f7 fc be bc 5d 22 bf 82 8a 50 3d
       -0.35691997 -0.4940756 -0.6342428 0.05091334
000280 96 6a 80 bd 78 46 1e bf da c1 f5 be 22 46 e3 3b
       -0.0627033 -0.61826277 -0.4799946 0.0069358507
000290 94 49 36 bd 93 6e 8c be 0d 30 04 bd 74 b9 1d bd
       -0.044503763 -0.2742811 -0.032272387 -0.03850694
0002a0 e0 d2 0b bf 00 bd 06 bf 68 c2 11 bf c5 9b 83 bd
       -0.54618645 -0.5263214 -0.56937265 -0.06426195
0002b0 5e 8d 4b 3d c0 b0 20 bd 7f ca 14 bf e3 40 f1 be
       0.049695365 -0.039231062 -0.58121485 -0.47119817
0002c0 44 72 08 bf 4c 66 b9 bc d5 15 80 be ea 8b f8 bc
       -0.53299356 -0.022631787 -0.25016657 -0.030340154
0002d0 ff 9a 8a be 8b 01 7c bd 37 99 e5 be e3 71 2c be
       -0.27071378 -0.06152491 -0.44843456 -0.1684032
0002e0 1b 6d 08 3d 5f 18 0f 3d ef 59 82 bd dc f6 89 bd
       0.033307176 0.03493535 -0.0636481 -0.06736538
0002f0 7b 59 fc be 88 9c 96 bf fd a1 6e bf 9a bb f0 be
       -0.49287018 -1.176652 -0.93215925 -0.4701813
000300 0a 1c 5c bd 52 41 ef be 16 1e ef 3c 2a 6a 5f be
       -0.053737678 -0.46729523 0.02918915 -0.21817842
000310 f3 cf 89 bb 87 c6 90 bc 0f a2 03 be c7 b0 68 3c
       -0.0042056977 -0.01767279 -0.12854789 0.014202303
000320 9f 11 e2 be af 98 75 bd 90 6f 5c 3c 4b 19 09 3d
       -0.4415407 -0.059960064 0.013454333 0.033471387
000330 2a b9 56 be 1c 45 1c bf 9e 81 18 bf 40 3b 6a bf
       -0.20969072 -0.6104295 -0.5957278 -0.9149666
000340 73 ee 65 bd 4b f4 e9 bd b7 c3 90 3c 78 59 05 bf
       -0.056135606 -0.11423548 0.01767145 -0.52089643
000350 57 1f 56 bd 83 e4 d0 bb 78 9f 90 bd 30 ca b7 3c
       -0.05227598 -0.006374897 -0.07061666 0.022435278
000360 f8 65 0b be 78 fc 92 bc db 6b a1 3c b7 b3 e1 be
       -0.13613117 -0.017942652 0.01970475 -0.44082424
000370 02 5c 59 3d 72 46 e3 be a8 88 68 bd 7e be 75 3c
       0.05306626 -0.44389683 -0.05677095 0.01499903
000380 47 7e 0c bf 6f 3d f0 be 3b c3 78 bd f4 d3 cf 3c
       -0.54880184 -0.4692187 -0.06073306 0.025369622
000390 0c db ac be d6 9e f9 be 8b a9 db bc f6 32 e6 3b
       -0.3376087 -0.48753995 -0.026814243 0.007025118
0003a0 4a 56 5d 3d 5b 91 bd bf 9f d0 c3 be 63 15 1d bf
       0.05403737 -1.4809984 -0.38245103 -0.6136076
0003b0 57 1b 32 bf 83 3f 2d 3c 7a c6 dd be ff 19 1d bf
       -0.6957297 0.010574224 -0.43315488 -0.6136779
0003c0 9f e3 30 bf 76 73 da be bc a2 4f bd 73 5e f8 be
       -0.6909732 -0.42666215 -0.050692305 -0.4850956
0003d0 16 59 57 bf 08 83 1f bd 6b ef 04 bf db f0 5f bd
       -0.8412031 -0.03894332 -0.5192782 -0.054673057
0003e0 98 14 3f bd 43 88 24 bf ab 0a bf bc 40 27 aa bd
       -0.0466505 -0.6427042 -0.023320517 -0.083082676
0003f0 10 c3 a7 be 4f 0c 26 3c 52 af f9 3c 5f 0c be be
       -0.32766008 0.010134771 0.030479107 -0.37118813

q.4.bias f4 [10]
000000 83 08 f4 40 a5 15 c3 40 02 d4 8c 40 92 5e 45 41
       7.626039 6.096392 4.40088 12.335588
000010 d9 69 aa 40 a2 5a b7 40 10 4e d1 40 43 00 08 41
       5.325421 5.7298136 6.540779 8.500064
000020 cb 5e 8b 41 f3 28 63 41
       17.421286 14.197497
