task4/task3_experiment_2_d_local_pi.pt (torch, 281951 bytes, 6 tensors)

q.0.weight f4 [256, 5]
0	0xbe4b9434	-0.19880754
1	0x3dc5a148	0.096499026
2	0xbe5d8245	-0.21631725
3	0xbdbdd22d	-0.092686035
4	0xbe4f20d8	-0.20227373
5	0xbf052beb	-0.5202014
6	0x3e8d51eb	0.2760156
7	0xbf2c1758	-0.6722312
8	0x3f5b0bb2	0.8556472
9	0x3dfb2358	0.12262601
10	0xbe125de7	-0.14293633
11	0xbf60ad84	-0.87764764
12	0xbea65cdd	-0.32492724
13	0x3f3bf802	0.73425305
14	0x3ebe70bc	0.37195385
15	0xbfa1128e	-1.2583787
16	0xbeb68f6e	-0.35656303
17	0x3e7f805b	0.24951307
18	0xbf10c073	-0.56543654
19	0x3eb04ba0	0.34432697
20	0xbdae8210	-0.08520901
21	0xbea6c2f6	-0.32570618
22	0xbe6c7cfb	-0.23094551
23	0xbec52b0c	-0.38509405
24	0xbe405daa	-0.1878573
25	0xbe24614a	-0.16052738
26	0x3ea8cc3c	0.32968318
27	0xbe08183c	-0.13290495
28	0x3ca5c903	0.020237451
29	0xbe11aece	-0.14226839
30	0x3e56ecf0	0.20988822
31	0xbe3168bc	-0.17325109
32	0xbeaf821c	-0.34278953
33	0xbdd5e2f4	-0.104436785
34	0xbeb0a847	-0.34503385
35	0xbf47af36	-0.78001726
36	0xbd27b0a0	-0.040939927
37	0xbea4dfa8	-0.32201886
38	0x3db2889b	0.08717462
39	0x3edff1b8	0.43739104
40	0xbfa4198d	-1.2820297
41	0x3db08d6b	0.08620723
42	0xbe462c0a	-0.19352737
43	0x3eb6d6b1	0.35710672
44	0xbedd04f8	-0.43167853
45	0x3f91b5c9	1.1383601
46	0xbe8d0e7f	-0.27550122
47	0xbe5a1aa1	-0.2129922
48	0xbd6f73c8	-0.058460027
49	0xbd8eb978	-0.06968969
50	0x3e6812a2	0.22663358
51	0x3a3e9600	0.00072702765
52	0x3eceab37	0.40365002
53	0xbe97129c	-0.29506385
54	0x3e77c11c	0.24194759
55	0xbebbf667	-0.36711428
56	0x3e9e67db	0.3093861
57	0x3e4cc771	0.19997956
58	0xbe8aa99b	-0.27082524
59	0x3d687310	0.056750357
60	0xbdcd85a8	-0.100352585
61	0x3f9f6210	1.2451801
62	0xbc064702	-0.0081956405
63	0x3e99f11b	0.3006676
64	0xbe1152e0	-0.1419177
65	0xbeade69e	-0.3396501
66	0xbce0cb09	-0.027440565
67	0xbedcc5f7	-0.43119785
68	0x3ddcc533	0.107798
69	0x3a617400	0.0008600354
70	0x3f528102	0.822281
71	0x3e2d86e2	0.16945985
72	0xbe8f2d19	-0.27964094
73	0xbd8cbdac	-0.068721145
74	0xbe209586	-0.15682039
75	0x3e5c281e	0.21499678
76	0xbeda0627	-0.4258282
77	0x3e5f08cb	0.21780698
78	0xbf10f7f4	-0.56628346
79	0xbeb940bb	-0.36182198
80	0x3eaf3f36	0.34227914
81	0xbde0df56	-0.10980098
82	0x3e933627	0.28752252
83	0xbe3f40df	-0.1867709
84	0xbdb4d1e8	-0.08829099
85	0xbf892011	-1.0712911
86	0x3e432b47	0.19059478
87	0xbf0cd1bc	-0.5500753
88	0xbe8e747a	-0.2782324
89	0x3ec2ba58	0.38032794
90	0xbe6b12af	-0.22956346
91	0xbcdda770	-0.02705738
92	0xbd8f1864	-0.06987074
93	0x3e991ac6	0.2990324
94	0x3ed10716	0.4082572
95	0xbf716087	-0.94287914
96	0xbe1a2a7d	-0.1505527
97	0x3f11c86f	0.5694646
98	0x3eddd5c9	0.43327168
99	0xbd4fa770	-0.05069679
100	0xbf8e10e6	-1.1098907
101	0x3ee24d4e	0.44199604
102	0x3eb5a59c	0.35477912
103	0xbe1d1409	-0.15339674
104	0xbea38693	-0.3193861
105	0xbebfc66b	-0.37456068
106	0xbe8267c4	-0.25469792
107	0x3f45d274	0.7727425
108	0xbf4fe2cc	-0.8120544
109	0xbe345b68	-0.17612994
110	0xbf724bbb	-0.94646806
111	0x3f779033	0.96704406
112	0xbe2bb9d6	-0.1677011
113	0xbe7be6c7	-0.24599753
114	0xbe148356	-0.14503226
115	0xbece3244	-0.40272725
116	0x3dbe16d1	0.09281696
117	0xbf3adc46	-0.7299236
118	0x3e8ee10a	0.27906066
119	0x3e1d45d8	0.15358675
120	0x3f0f1319	0.55888516
121	0x3e055591	0.13020922
122	0x3eb6d4cf	0.35709235
123	0xbf82e41a	-1.0225861
124	0x3e6cc0bc	0.23120397
125	0xbea4e46b	-0.3220552
126	0xbe2dce4c	-0.16973227
127	0xbf01e54a	-0.5074049
128	0xbece5935	-0.40302435
129	0xbee2dad4	-0.44307578
130	0x3eb33769	0.35003212
131	0x3f1827bf	0.5943565
132	0xbddd6fd9	-0.10812349
133	0xbdb585ba	-0.08863397
134	0x3e43cfa8	0.19122183
135	0xbdbbf218	-0.09177035
136	0xbd825b09	-0.0636502
137	0x3ef59389	0.47964123
138	0x3e303194	0.17206413
139	0x3d5f6dc0	0.054548025
140	0xbe930db2	-0.28721386
141	0xbe26421f	-0.1623616
142	0xbe941138	-0.28919387
143	0xbbc13e13	-0.0058972924
144	0xbea4be7e	-0.32176584
145	0xbe67f446	-0.22651777
146	0xbf75fe4c	-0.9609115
147	0x3f3dbf2a	0.7411982
148	0xbf02db7a	-0.51116145
149	0xbedba1a4	-0.4289676
150	0xbd7380e0	-0.059449077
151	0x3d109b68	0.035304457
152	0x3cf0dcb0	0.029402107
153	0xbdb8f848	-0.09031731
154	0xbeb1d1af	-0.34730288
155	0x3d234d18	0.039868444
156	0xbe9ebce5	-0.3100349
157	0x3ec8d712	0.39226586
158	0xbe4c56f0	-0.19955039
159	0x3eb9edfe	0.36314386
160	0xbef82f31	-0.48473504
161	0xbf7fe28c	-0.9995506
162	0xbdad1d51	-0.08452857
163	0xbe3df871	-0.18551804
164	0x3dca0910	0.0986501
165	0x3e57f2e1	0.21088745
166	0xbf974646	-1.1818321
167	0xbe6d4010	-0.23168969
168	0xbf39fd36	-0.72651994
169	0x3bc10b00	0.005891204
170	0x3e9b5e7a	0.30345517
171	0xbed4ff71	-0.41601136
172	0x3ec9c222	0.39405924
173	0xbeee009c	-0.4648484
174	0x3e66ad98	0.22527158
175	0xbf6dde91	-0.92917734
176	0xbeb5cecf	-0.35509345
177	0x3e8c2419	0.2737129
178	0xbec9ac4f	-0.39389274
179	0x3dfc24b8	0.12311691
180	0x3e710440	0.23536777
181	0x3cdc7ec0	0.026915908
182	0xbd223ab8	-0.03960678
183	0xbd486d38	-0.048932284
184	0x3e9a2b28	0.3011105
185	0x3d88320f	0.06650173
186	0xbe39e451	-0.18153502
187	0xbd54bd4b	-0.051938336
188	0x3f0cc76b	0.5499179
189	0xbc648360	-0.013947338
190	0xbe892024	-0.26782334
191	0x3cb17fdd	0.021667415
192	0x3f53e178	0.82765913
193	0x3d7ffe3c	0.062498316
194	0x3e246800	0.16055298
195	0xbc7e037c	-0.01550376
196	0xbe944cb1	-0.2896476
197	0x3e2efc12	0.17088345
198	0x3f73788e	0.95105827
199	0xbe7bbe17	-0.24584232
200	0xbef16518	-0.4714744
201	0x3d9ce858	0.076615036
202	0xbed38e77	-0.4131963
203	0xbf426365	-0.75932914
204	0xbe8ecc2d	-0.2789015
205	0xbeae172f	-0.34002063
206	0x3f8170e0	1.0112572
207	0x3ed379ac	0.41303766
208	0xbe08a0bf	-0.1334257
209	0xbea66489	-0.32498577
210	0x3ea8027b	0.32814392
211	0x3fb714ba	1.43032
212	0xbeb41816	-0.35174626
213	0xbdb80b5b	-0.08986541
214	0xbe9a6b82	-0.30160147
215	0xbf11274e	-0.567006
216	0xbf46bfd4	-0.77636456
217	0x3f6327b5	0.88732463
218	0x3f1a6ca5	0.6032203
219	0x3ebc0b58	0.36727405
220	0x3eaed7c2	0.34148985
221	0xbddbb828	-0.107284844
222	0x3e8b1e32	0.27171475
223	0x3e956c80	0.2918434
224	0xbe459c34	-0.19297868
225	0xbe47a2eb	-0.19495742
226	0xbde257ec	-0.11051926
227	0x3efbacd7	0.49155304
228	0x3ef52539	0.4787996
229	0x3eaf5424	0.34243882
230	0x3eb8c99e	0.36091322
231	0xbf4a8cab	-0.7912089
232	0x3f6ff980	0.9374008
233	0x3eee7fac	0.4658178
234	0x3e982fbe	0.29723924
235	0x3e1888c2	0.14895919
236	0x3f24a2e1	0.64311033
237	0x3d30112b	0.042985123
238	0x3d8da9d7	0.0691716
239	0xbdc0cfb0	-0.09414613
240	0x3e68d6dd	0.22738214
241	0xbf86bbcb	-1.052606
242	0xbe02917c	-0.1275081
243	0xbe6dffbb	-0.23242085
244	0x3e878f30	0.2647643
245	0x3f0878ad	0.53309137
246	0xbf3e009a	-0.7421967
247	0x3edcc1d2	0.43116623
248	0xbe8f80c9	-0.28027943
249	0x3e9c18a6	0.30487555
250	0x3e32e0e4	0.17468601
251	0xbeca053f	-0.39457127
252	0x3e3cac18	0.18425024
253	0xbe4375ce	-0.19087908
254	0xbe850aa6	-0.25984687
255	0x3edff140	0.43738747

q.0.bias f4 [256]
0	0xbcb11910	-0.021618396
1	0xbdef5ee2	-0.11688019
2	0xbd428349	-0.047488485
3	0xbe4d06ae	-0.2002208
4	0xbeba30bb	-0.36365303
5	0xbc4dc5bc	-0.012559351
6	0xbec7f4b4	-0.3905388
7	0xbd7a1688	-0.061056644
8	0xbde08e69	-0.109646626
9	0xbe552bd3	-0.20817499
10	0xbe9fda39	-0.31221178
11	0x3d346366	0.044040106
12	0xbde3cfcb	-0.11123618
13	0x3d02d3e7	0.031940367
14	0x3c10122b	0.008793394
15	0xbdb4e5f3	-0.08832922
16	0xbdb7f2d5	-0.089818634
17	0xbe13d5b7	-0.14436994
18	0xbe9d0f1a	-0.30675584
19	0xbcfe0db3	-0.031012392
20	0xbd8353cf	-0.064124696
21	0xbe36a780	-0.17837334
22	0xbe28270f	-0.1642115
23	0xbbc8f4b9	-0.006132689
24	0xbe775235	-0.24152453
25	0xbd66d3ab	-0.056354206
26	0xbd15d2b4	-0.036577895
27	0xbca3418e	-0.01992872
28	0xbe795f1d	-0.24352689
29	0xbe65bf4b	-0.22436254
30	0xbea98544	-0.33109486
31	0xbec30ebb	-0.38097176
32	0xbe7fa565	-0.24965437
33	0xbe48f84f	-0.19625972
34	0xbc5310dc	-0.012882438
35	0xbe8bfc08	-0.27340722
36	0xbebe6f9b	-0.37194523
37	0x3c468ce8	0.012118556
38	0x3b831771	0.004000597
39	0xbe41b8c9	-0.18918146
40	0xbd5fb6ed	-0.05461781
41	0xbe844299	-0.2583206
42	0xbec3fbf0	-0.3827815
43	0xbe5b449c	-0.21412891
44	0xbecdf937	-0.40229198
45	0x3d9e7a27	0.077381425
46	0xbe980cde	-0.29697317
47	0xbcb1e8f2	-0.021717522
48	0xbe295fe6	-0.16540489
49	0xbe0e01e9	-0.13867916
50	0xbeb713d8	-0.35757327
51	0xbecda088	-0.40161538
52	0xbcaa6bc8	-0.020803347
53	0xbe12ab42	-0.14323142
54	0xbe754f9d	-0.23956151
55	0xbd63b2a0	-0.055590272
56	0xbe401456	-0.18757758
57	0xbd2c3796	-0.0420452
58	0xbd32d301	-0.04365826
59	0xbdd15e40	-0.10223055
60	0xbdcdb7e9	-0.10044844
61	0xbd7d76a0	-0.061880708
62	0xbd72c1fe	-0.059267037
63	0xbcfee47e	-0.031114813
64	0xbe3cb049	-0.18426622
65	0xbd8d173d	-0.06889198
66	0xbe2e3a6f	-0.17014478
67	0xbcc2c050	-0.023773342
68	0xbd1233c4	-0.0356939
69	0xbe47e74b	-0.19521825
70	0xbcf068e8	-0.029346898
71	0xbe6a5499	-0.22883834
72	0xbcefb1ce	-0.029259589
73	0xbc3d25f5	-0.011544694
74	0xbd208d8e	-0.039197497
75	0xbe1feb07	-0.15617
76	0xbea942ca	-0.3305877
77	0x3cfdd377	0.030984623
78	0xbd25fbe0	-0.04052341
79	0xbe07382a	-0.13205019
80	0xbd3c175a	-0.045920707
81	0xbe2b61ac	-0.16736478
82	0xbdf56cbc	-0.1198363
83	0xbd8a996d	-0.06767545
84	0xbdeec2e5	-0.11658267
85	0xbdbc72b4	-0.092015654
86	0xbe438dd3	-0.1909707
87	0xbde8214d	-0.113344766
88	0xbe3c2411	-0.18373133
89	0xbe1ade26	-0.15123805
90	0xbe3e1f52	-0.18566635
91	0xbdc65e37	-0.09685939
92	0xbe39a396	-0.1812881
93	0xbe5d7720	-0.21627474
94	0x3b34d3bd	0.0027592026
95	0xbe878456	-0.26468152
96	0xbe71ef27	-0.23626386
97	0xbd5b0437	-0.053470816
98	0xbe2789f4	-0.16361219
99	0xbdc53997	-0.09630125
100	0xbb33b338	-0.0027420055
101	0xbe1a54e8	-0.15071452
102	0xbe464680	-0.19362831
103	0x3d63fc51	0.05566055
104	0xbdddbda5	-0.108271874
105	0xbdf52f4d	-0.119719125
106	0xbcf7900e	-0.030220058
107	0xbdb0df0c	-0.08636293
108	0xbda5ef4f	-0.08102285
109	0xbe4b5151	-0.19855238
110	0xbdfbbf87	-0.1229239
111	0xbed9a332	-0.4250732
112	0xbe153247	-0.1456996
113	0x3be0a2df	0.0068553532
114	0xbe52ee09	-0.20598616
115	0xbd43cab7	-0.047800746
116	0xbd1dad9e	-0.038495652
117	0xbdda6c0c	-0.106651396
118	0xbd171e14	-0.03689392
119	0xbcc581de	-0.024109777
120	0xbeb5b57d	-0.35490027
121	0xbc4c987f	-0.01248753
122	0xbe8fb845	-0.28070274
123	0xbee12fbc	-0.4398173
124	0xbd9cd60a	-0.07658012
125	0xbe90c5a5	-0.2827579
126	0xbe3f7a83	-0.18699078
127	0xbda82241	-0.082096584
128	0x3d35880f	0.04431921
129	0xbdf16d6d	-0.117884494
130	0xbe3535c7	-0.17696296
131	0xbe562836	-0.20913777
132	0xbee0aeab	-0.4388326
133	0xb965a404	-0.00021900242
134	0xbc0cf81e	-0.008604078
135	0xbea4d786	-0.3219568
136	0xbeb0a22b	-0.34498724
137	0xbd2c1a81	-0.042017464
138	0x3d0c4a75	0.034250695
139	0xbca31cf8	-0.019911274
140	0xbe143089	-0.1447164
141	0xbd5a8e69	-0.05335847
142	0xbbfa7bb2	-0.00764414
143	0xbdcf8f36	-0.10134737
144	0x3cf3df65	0.029769609
145	0xbd392076	-0.045196973
146	0xbdcb1e40	-0.09917879
147	0xbdd05de7	-0.101741605
148	0xbe533398	-0.2062515
149	0xbc65fefe	-0.014037846
150	0xbcd3644c	-0.025804661
151	0xbdfc40ee	-0.12317072
152	0xbe2df214	-0.16986877
153	0xbbe7e815	-0.007077227
154	0xbeaf80fc	-0.34278095
155	0xbe31ee9c	-0.17376179
156	0xbec71c14	-0.3888861
157	0xbeb8dfd0	-0.36108255
158	0xbc88f2fa	-0.016717423
159	0xbd85c4f0	-0.065317035
160	0xbe69786a	-0.2279984
161	0x3bc8a42d	0.006123087
162	0xbe17391a	-0.14767876
163	0xbe535df3	-0.20641308
164	0xbe61473a	-0.21999827
165	0xbe1ea836	-0.15493855
166	0xbcea6eab	-0.028617224
167	0xbe8456cb	-0.25847468
168	0xbe126bd7	-0.1429895
169	0xbdc71ef5	-0.097227015
170	0xbe0b2e79	-0.13591947
171	0xbe7d7f79	-0.24755658
172	0xbebc18cb	-0.36737666
173	0xbe2e5d3c	-0.17027754
174	0xbd105b28	-0.035243183
175	0xbd2dd0db	-0.04243551
176	0xbbc3470c	-0.005959397
177	0x3a35ff38	0.00069426326
178	0xbdf3bea1	-0.11901594
179	0xbde513af	-0.11185395
180	0xbe878bb8	-0.26473784
181	0xbe2a2cf4	-0.16618711
182	0xbdf1916f	-0.117953174
183	0xbcafd977	-0.021466
184	0xbe284a3e	-0.16434571
185	0xbc452138	-0.012031846
186	0xbc6bf29e	-0.014401106
187	0xbca036db	-0.019557407
188	0xbdd921fa	-0.10602184
189	0xbe810a89	-0.2520335
190	0xbb1f2417	-0.0024282986
191	0xbe0a12a5	-0.13483675
192	0xbd97c6c5	-0.07410959
193	0xbe228486	-0.15870866
194	0xbe2181f9	-0.15772237
195	0xbdcf24c8	-0.10114437
196	0xbe9d4e20	-0.30723667
197	0xbeca0f54	-0.3946482
198	0xbedf2b7e	-0.4358787
199	0xbdb26e29	-0.08712418
200	0xbed3feec	-0.41405427
201	0xbe6f981e	-0.23397872
202	0xbd999936	-0.07499926
203	0xbe3c80b4	-0.18408471
204	0xbee4e650	-0.44706964
205	0xbe827c70	-0.25485563
206	0xbec45716	-0.3834769
207	0xbdc29f97	-0.095030956
208	0xbe30fc16	-0.17283663
209	0xbe824767	-0.254451
210	0x3c5c5d4f	0.013449981
211	0xbe81a8b0	-0.2532401
212	0xbd7656dd	-0.060141433
213	0xbe6a9bcd	-0.22910996
214	0xbea6c520	-0.3257227
215	0xbe466a19	-0.1937641
216	0xbe4c01d8	-0.19922578
217	0xbdd9332c	-0.106054634
218	0xbe4b39a4	-0.19846207
219	0xbc6db9a6	-0.014509594
220	0x3c0bdddf	0.008536785
221	0xbe3d5e57	-0.18493019
222	0xbe85d63f	-0.2614002
223	0xbe4bcfca	-0.19903484
224	0xbdbab955	-0.091173805
225	0xbd24ff98	-0.040282816
226	0xbd8d927c	-0.06912705
227	0xbd292bad	-0.041301418
228	0xbccfdaad	-0.025372827
229	0xbddba586	-0.107249305
230	0xbd0b4abb	-0.034006815
231	0xbe159c7d	-0.14610477
232	0xbd68ee82	-0.056868084
233	0xbeb85f0e	-0.3601002
234	0xbd3f53aa	-0.046710648
235	0xbe083089	-0.13299765
236	0xbdc851fe	-0.09781264
237	0xbce7c903	-0.028294092
238	0xbc8df818	-0.017330214
239	0xbe3d23db	-0.18470709
240	0xbe8fe727	-0.28106043
241	0xbecdc313	-0.40187892
242	0xbdb61b48	-0.08891922
243	0xbeb82169	-0.3596299
244	0x3c0c9f28	0.008582868
245	0xbe2b1130	-0.16705775
246	0xbd45377e	-0.048148625
247	0xbd8322cc	-0.06403121
248	0xbde3973a	-0.111128286
249	0xbe1ead7e	-0.1549587
250	0xbdeaaf55	-0.11459223
251	0xbeaafa14	-0.3339392
252	0xbd940887	-0.07228189
253	0xbd939587	-0.072062545
254	0xbedb92f4	-0.42885554
255	0xbed41493	-0.41421947

q.2.weight f4 [256, 256]
0	0xbd2b47d0	-0.041816533
1	0x3cf6e4a9	0.03013833
2	0x3cf61203	0.030037886
3	0xbd76382c	-0.060112163
4	0x3d466144	0.048432603
5	0x3cb25173	0.021767354
6	0x3d607c66	0.054806136
7	0xbd38dbc2	-0.045131452
8	0xbd62f2dc	-0.05540739
9	0xbd7a57ec	-0.061119005
10	0xbd1ad85c	-0.037803993
11	0x3cc6d2f0	0.024270505
12	0x3ba518a0	0.005038336
13	0xbd3eedbd	-0.046613444
14	0x3af8add8	0.0018972708
15	0xbcd20ac2	-0.025639895
16	0xbd9cac06	-0.07649998
17	0x3d4ea422	0.050449498
18	0xbd6ed190	-0.058305323
19	0x3b608ae0	0.0034262463
20	0xbb7ba680	-0.0038398802
21	0x3d442376	0.04788538
22	0x3cc126bc	0.02357804
23	0xbcaebf38	-0.021331415
24	0xbcd1b153	-0.02559725
25	0xbcb9a5eb	-0.022662124
26	0x3c42193a	0.011846835
27	0xbd6ad963	-0.057336222
28	0xbd14249a	-0.03616772
29	0xbd89cb64	-0.06728247
30	0x3d61afea	0.055099405
31	0xbca8b560	-0.020594299
32	0xbcc03804	-0.02346421
33	0xbd99d4c2	-0.075112835
34	0xbd0c1a6c	-0.034204885
35	0x3be57659	0.0070026335
36	0x3c9d81e0	0.019226968
37	0xbc8320e6	-0.016006898
38	0xbccdb0fd	-0.025108809
39	0x3c7d8bd3	0.015475231
40	0xbc442243	-0.011971059
41	0xbd3296e1	-0.04360092
42	0xbd6ef1c8	-0.05833605
43	0x3c54376f	0.0129526695
44	0x3d511934	0.051049426
45	0x3d2b16fa	0.04176996
46	0xbc8f7ad7	-0.01751463
47	0xbca7a845	-0.02046598
48	0xbcf69399	-0.030099677
49	0xbd92cbfb	-0.071678124
50	0x3897dc00	7.241219e-05
51	0x3b96a890	0.004597731
52	0xbcd03d78	-0.025419936
53	0x3d1afb8c	0.03783755
54	0xbd517936	-0.051140986
55	0xbd8e18ca	-0.06938322
56	0xbc46c158	-0.012131058
57	0x3c500160	0.01269564
58	0x3ca61123	0.020271843
59	0xbc630008	-0.013854988
60	0xbc8c8c84	-0.017156847
61	0xbca325bf	-0.01991546
62	0xbca4664a	-0.020068306
63	0xbd93f8f3	-0.07225218
64	0xbd3bdb40	-0.04586339
65	0x3d2c01ca	0.041993894
66	0xbd8fd51f	-0.070230715
67	0xbd856d81	-0.06515027
68	0x3c59c530	0.013291642
69	0xbc9a8d9d	-0.018866355
70	0x3d3ce12d	0.04611318
71	0x3d59a65c	0.05313717
72	0xbc07f89c	-0.008299019
73	0xbd69eb3c	-0.057109103
74	0x3d027916	0.031853758
75	0x3b9566c3	0.0045593693
76	0xbd2f8578	-0.042851895
77	0x3d247e08	0.040159255
78	0xbd5ff885	-0.054680366
79	0xbd1f55f2	-0.038900323
80	0xbd14c696	-0.0363222
81	0x3c4a290a	0.012338886
82	0xbd17d37e	-0.03706693
83	0x3d04edb4	0.032453254
84	0x3cad538e	0.021158006
85	0xbd0b5fa4	-0.034026757
86	0xbd0cf4b4	-0.034413055
87	0xbd47b3e5	-0.048755545
88	0xbcd45e79	-0.025923954
89	0xbd4373b9	-0.047717784
90	0xbcdaa61f	-0.02669054
91	0xbca7b0b5	-0.020470003
92	0x3c9c47ec	0.019077264
93	0xbd74cab8	-0.05976364
94	0xbd7f5b6e	-0.062343054
95	0xbcd1fa84	-0.02563215
96	0x3d4c32ba	0.049853064
97	0x3c31c410	0.010849968
98	0xbb6864e0	-0.0035460517
99	0x3d3f7af3	0.046748113
100	0x3cf6118c	0.030037664
101	0xbd7ad2d7	-0.06123623
102	0x3d10783b	0.03527091
103	0x3c77035e	0.015076486
104	0x3d6c1c8e	0.05764442
105	0xbd0d075a	-0.03443084
106	0x3c8cfce8	0.017210439
107	0x3d2a6997	0.041604605
108	0xbd0e49fd	-0.03473853
109	0xbc9c8668	-0.019107059
110	0x3c59ede8	0.01330135
111	0x3d14a216	0.03628739
112	0x3d064557	0.03278097
113	0xbca4cd94	-0.020117559
114	0xbd7a21f4	-0.061067536
115	0xbc93cdc7	-0.018042458
116	0xbd714506	-0.058903717
117	0xbbec4d9d	-0.0072114007
118	0xbd1673ee	-0.036731653
119	0xbc968dcc	-0.01837816
120	0xbd607478	-0.054798573
121	0xbc946786	-0.01811577
122	0x3d006ab0	0.031351745
123	0xbc2a9ab0	-0.010412857
124	0xbcf0c05d	-0.029388601
125	0xbd0be3d2	-0.034152813
126	0x3cb6cf48	0.022315636
127	0x3d4c8b59	0.04993758
128	0x3d1187dd	0.03552996
129	0xbcf3a361	-0.029740991
130	0xbd7ab171	-0.061204378
131	0xbc951631	-0.018199058
132	0x3be680c0	0.007034391
133	0xbd60255d	-0.054723132
134	0x3d222f82	0.03959609
135	0x3d0f7f0c	0.03503327
136	0x3c05439c	0.008133795
137	0xba2b4066	-0.00065327284
138	0xbc2a529b	-0.010395671
139	0x3d097f8c	0.033568904
140	0xbccf0dce	-0.025275137
141	0xbceb7696	-0.02874307
142	0xbd6f5c92	-0.05843789
143	0xbd4dd796	-0.050254427
144	0xbd812389	-0.06305606
145	0x3ce8788e	0.028377797
146	0xbd51b77b	-0.05120037
147	0xbba379e0	-0.004988894
148	0x3c66e01b	0.014091517
149	0xbccede48	-0.025252476
150	0x3cb08735	0.021548847
151	0xbd15682a	-0.03647629
152	0x3afeecba	0.0019449212
153	0x3cecc010	0.028900176
154	0x3c8b4d2c	0.017004572
155	0xbd1346ed	-0.035956312
156	0xbd001c82	-0.031277187
157	0x3ca93db4	0.020659305
158	0xbd86c479	-0.06580443
159	0xbcdb9d5b	-0.026808431
160	0xbc3d5155	-0.011555036
161	0x3d0a4e6b	0.03376619
162	0x3ce7e22c	0.02830609
163	0x3ae7d30a	0.0017686796
164	0x3c5c5fe0	0.013450593
165	0x3cf11afd	0.029431814
166	0x3ca23913	0.019802606
167	0x3b529e00	0.0032137632
168	0x3c08d2ac	0.008351009
169	0x3cf8340e	0.03029826
170	0x3c2549da	0.010088408
171	0x3d6295fa	0.05531881
172	0x3d231208	0.039812118
173	0x3bc25207	0.0059301886
174	0x3cc6ff38	0.02429162
175	0xbd7d6e63	-0.06187285
176	0xbd21e608	-0.039526016
177	0xbc26d477	-0.0101824915
178	0xbd6f4e32	-0.058424182
179	0x3a33348c	0.0006836138
180	0x3c62c270	0.013840303
181	0xbd869c1c	-0.06572744
182	0xbd5946f0	-0.053046167
183	0xbba34c44	-0.004983457
184	0xbd6ba494	-0.05753
185	0x3d5b44c0	0.053532362
186	0x3cef4d24	0.029211588
187	0xbc948048	-0.018127576
188	0xbcf6e355	-0.030137697
189	0xbd7ec974	-0.06220384
190	0x3c335c2f	0.010947271
191	0x3be5eeb3	0.0070169806
192	0xbd282146	-0.041047357
193	0xbd17a56d	-0.037022997
194	0x3b741bdc	0.003724805
195	0x3d3dfeef	0.0463857
196	0xbd2e68ce	-0.04258042
197	0xbc7fdda0	-0.015616804
198	0x3c3a4b10	0.011370435
199	0xbb43cbe1	-0.002987616
200	0xbd73cffc	-0.05952452
201	0x3cc08bec	0.02350422
202	0xbc6e42ea	-0.014542321
203	0x3b624816	0.003452783
204	0xbd6d50f4	-0.05793853
205	0x3d3d49a2	0.0462128
206	0xbd7fc0b8	-0.06243965
207	0x3c4a2131	0.012337015
208	0xbc6738c0	-0.014112651
209	0xbd480311	-0.04883105
210	0x3ce31ca2	0.027723614
211	0x3cfc6b20	0.0308128
212	0x3cfb5321	0.030679287
213	0x3bd38845	0.0064554536
214	0x3c5dae78	0.013530366
215	0xbbdf989a	-0.0068236114
216	0xbd24352d	-0.040089775
217	0x3d33066f	0.043707307
218	0xbd2078d9	-0.03917775
219	0xbd47d89b	-0.048790555
220	0x3c9c00f7	0.019043429
221	0x3d4c24d8	0.049839824
222	0xbd2cf78c	-0.042228267
223	0xbd66d5b2	-0.05635614
224	0x3d208594	0.03918989
225	0xb99c05fa	-0.00029759092
226	0x3b1bfefe	0.002380311
227	0xbd518d13	-0.05115993
228	0xbcd42966	-0.025898647
229	0xbd1df027	-0.038559105
230	0xbce03720	-0.027370036
231	0x3d53bfa4	0.051696435
232	0xbc5194de	-0.01279184
233	0x3d3fb7fe	0.046806328
234	0xbd0e951b	-0.034810167
235	0xbc4b3340	-0.012402356
236	0xbb27ef80	-0.002562493
237	0xbc8d1ed7	-0.01722662
238	0xbd868827	-0.06568938
239	0xbce59317	-0.02802424
240	0x3c0cb16f	0.008587225
241	0xbcc4a804	-0.024005897
242	0xbd48dabf	-0.049036738
243	0xbce68a88	-0.028142229
244	0xbcc585a9	-0.024111586
245	0x3d123cb0	0.035702407
246	0x3b524dc0	0.00320898
247	0xbadfab0c	-0.0017064526
248	0xbbab50f0	-0.0052281544
249	0xbae5ff18	-0.0017547337
250	0x3d792a0e	0.060831122
251	0x3d4166de	0.047217242
252	0xbd4c3800	-0.049858093
253	0x3d378796	0.04480704
254	0xbd79d9cc	-0.060998723
255	0x3cf97c2c	0.030454718

q.2.bias f4 [256]
0	0xbd8629aa	-0.065509155
1	0x3de9a92c	0.1140922
2	0x3e960652	0.29301697
3	0xbda8c6fa	-0.08241077
4	0x3dd0c588	0.10193926
5	0x3ed56a15	0.41682497
6	0xbdfe85e9	-0.12427885
7	0x3e3a3f29	0.18188156
8	0xbebc6043	-0.36792192
9	0xbdb1240e	-0.08649455
10	0x3ed0e828	0.4080212
11	0xbeaba0ac	-0.3352102
12	0xbdb26903	-0.08711436
13	0x3d6fb805	0.058525104
14	0x3c8a4172	0.01687691
15	0x3ee6b107	0.45056936
16	0x3ee1a40a	0.44070464
17	0x3ea92442	0.33035475
18	0xbccbefe6	-0.024894666
19	0xbd95298b	-0.07283314
20	0x3b72d187	0.0037051158
21	0xbdfd67e9	-0.12373335
22	0x3d61fe57	0.055174198
23	0xbc990728	-0.01868017
24	0x3e04db84	0.12974364
25	0xbed94d7c	-0.42441928
26	0x3e1444d5	0.14479382
27	0x3eb3ab07	0.3509142
28	0xbd448e41	-0.047987226
29	0x3d10399b	0.035211187
30	0xbd97ac17	-0.074058704
31	0x3e450ea8	0.19243872
32	0x3884ba56	6.328958e-05
33	0x3ed9b95e	0.42524236
34	0x3f04f7bf	0.5194053
35	0x3eea8a03	0.4580842
36	0x3e497f1f	0.19677399
37	0xbed2bbd3	-0.41158924
38	0x3e4cebef	0.20011877
39	0xbc6984ab	-0.014252822
40	0xbeb887cc	-0.36041105
41	0xbd066516	-0.032811247
42	0xbc9191d4	-0.017769732
43	0xbd2c18c3	-0.042015802
44	0x3eaac19d	0.3335084
45	0x3dd87908	0.1056996
46	0x3dd307e6	0.10304241
47	0x3eac3a21	0.336381
48	0x3eacc55b	0.3374432
49	0x3e9e1e8e	0.30882686
50	0xbcf5a71d	-0.029986912
51	0x3ea185fc	0.31547534
52	0x3e1611c1	0.1465521
53	0xbd4ecd33	-0.050488662
54	0xbca21f2a	-0.01979025
55	0xbd97bae0	-0.074086905
56	0x3e5b3b59	0.21409358
57	0x3dae7513	0.08518424
58	0xbe6a924a	-0.22907367
59	0x3e724d13	0.23662214
60	0xbef867c1	-0.48516658
61	0xbd915f35	-0.070982374
62	0xbcf49eb6	-0.029860836
63	0xba33bfe3	-0.00068569015
64	0xbd51f3af	-0.051257785
65	0x3e8d7072	0.2762485
66	0xbdcb710f	-0.099336736
67	0xbf1067ee	-0.56408584
68	0xbe5b0692	-0.21389225
69	0xbdc19b6b	-0.09453472
70	0xbcdbb698	-0.026820466
71	0xbed32621	-0.41240028
72	0x3e023663	0.1271606
73	0x3e3a8730	0.18215632
74	0xbd1068a4	-0.035256043
75	0xbc8993cd	-0.01679411
76	0xbcd645b9	-0.026156293
77	0x3e1c14fe	0.15242383
78	0x3ed8c5e9	0.42338493
79	0xbdb44a24	-0.08803204
80	0xbde83d71	-0.11339844
81	0x3e006476	0.12538323
82	0x3eb84e17	0.35997078
83	0x3daaac2b	0.0833362
84	0xbd6ebd98	-0.05828628
85	0x3e926a3c	0.28596675
86	0x3dba6521	0.0910132
87	0x3e2952f3	0.16535549
88	0xbd7260f6	-0.0591745
89	0xbdd6f82b	-0.10496553
90	0x3edddf06	0.43334216
91	0xbd660bab	-0.05616347
92	0x3f0280a6	0.5097755
93	0x3e8013db	0.2501515
94	0x3e7c8650	0.24660611
95	0xbd4a0682	-0.049322613
96	0x3e65a626	0.22426662
97	0x3e8c3142	0.2738133
98	0x3e77596c	0.24155205
99	0xbd9ebb95	-0.07750622
100	0xbdb60948	-0.08888489
101	0xbda1957a	-0.078898385
102	0x3eb3feb6	0.35155267
103	0xbe10d539	-0.14143838
104	0xbca1755b	-0.01970928
105	0x3e77516c	0.24152154
106	0x3dbca361	0.092108496
107	0x3eb13cba	0.34616643
108	0xbccf3258	-0.02529256
109	0xbc494fff	-0.012287139
110	0x3d8cee2c	0.06881365
111	0xbd251005	-0.04029848
112	0xbc721251	-0.014774875
113	0x3ea8388b	0.3285564
114	0xbc9ceee3	-0.019156879
115	0xbd7fc860	-0.062446952
116	0x3d2d63c2	0.042331465
117	0x3e9eecfd	0.31040183
118	0x3eb6095e	0.35554022
119	0x3e5ddd3e	0.21666428
120	0x3edeea3a	0.43538076
121	0xbd04026a	-0.032228865
122	0x3e6d628d	0.23182125
123	0x3e920209	0.28517178
124	0x3e0060e3	0.1253696
125	0xbd6e592f	-0.05819052
126	0xbd2e286b	-0.042519014
127	0x3e3bac69	0.18327488
128	0x3eaf8a6e	0.342853
129	0x3f037e1b	0.51364297
130	0x3e9d730e	0.30751842
131	0xbda3e416	-0.08002488
132	0x3e564e76	0.20928368
133	0x3ec70f78	0.3887899
134	0xbd84580e	-0.064621076
135	0xbd8fb002	-0.07015993
136	0x3e3b97db	0.18319647
137	0xbeb6c608	-0.3569796
138	0x3e17f676	0.14840111
139	0x3dd17ff6	0.10229485
140	0xbd6e419b	-0.058168035
141	0x3edce409	0.43142727
142	0x3efe13b1	0.49624398
143	0xbd9c21a9	-0.07623608
144	0x3de3680b	0.11103829
145	0x3e955950	0.29169703
146	0x39175c86	0.0001443495
147	0x3ebafdbd	0.36521712
148	0x3db1cf9b	0.08682176
149	0xbc4fd6ce	-0.012685491
150	0xbab43212	-0.0013747832
151	0x3d33a03f	0.043853994
152	0xbc75c48d	-0.015000475
153	0x3e1817b8	0.14852798
154	0x3edc121d	0.4298257
155	0xbd6b5a94	-0.05745943
156	0x3dac304e	0.08407651
157	0xbd910145	-0.0708032
158	0xbd27a454	-0.0409282
159	0x3eb0c7cf	0.34527442
160	0x3e095e23	0.13414817
161	0xbe2687bd	-0.16262718
162	0x3e8e0b25	0.27742878
163	0xbde7f0af	-0.113252036
164	0x3e528ae5	0.20560797
165	0xbbb9ecf1	-0.0056739976
166	0xbcfd2683	-0.030902153
167	0x3e270e4c	0.16314048
168	0x3ef72ae4	0.4827491
169	0x3ece6dd6	0.40318173
170	0x3d1e9d75	0.03872438
171	0xbae2d582	-0.0017306062
172	0xbd8a3ecc	-0.06750259
173	0xbdb9e19e	-0.09076236
174	0x3e631651	0.22176482
175	0xbd91d66a	-0.07120974
176	0x3d9963fa	0.07489772
177	0x3e318d9a	0.17339173
178	0xbce0f8d2	-0.027462397
179	0xbd7db88c	-0.061943576
180	0x3d537e82	0.05163432
181	0x3ea0c51d	0.31400385
182	0xbc23626a	-0.009972194
183	0x3e1f95d2	0.15584496
184	0x3e9dc162	0.30811602
185	0x3e8d4489	0.2759135
186	0x3e63ecae	0.22258255
187	0x3e444ba6	0.19169483
188	0x3eecb243	0.46229753
189	0x3e6e15c0	0.23250484
190	0x3e97e0d9	0.29663733
191	0x3e8aa981	0.27082446
192	0x3efb81b7	0.49122402
193	0xbe483330	-0.19550776
194	0x3c002f1e	0.007823734
195	0xbd00e076	-0.031464063
196	0x3d2fe285	0.042940635
197	0x3e8ff0d0	0.28113413
198	0x3e0388cf	0.12845157
199	0xbda75b77	-0.081717424
200	0xbd9bf44b	-0.076149546
201	0xbdff8617	-0.124767475
202	0x3ddc6d03	0.1076298
203	0x3e10b7bd	0.1413259
204	0x3eb91892	0.36151558
205	0x3f0d7dbe	0.5526999
206	0x3ba52980	0.0050403476
207	0xbd53f72f	-0.051749405
208	0xbc90abcb	-0.017660042
209	0x3c972ea4	0.018454857
210	0x3eded122	0.4351893
211	0x3ea35a26	0.31904715
212	0xbea9db8d	-0.33175316
213	0xbd151992	-0.03640134
214	0xbe24dcec	-0.160999
215	0x3e61c9ca	0.22049633
216	0x3e5610fb	0.20904915
217	0xbe476850	-0.19473386
218	0x3d815621	0.06315256
219	0xbe3fd288	-0.18732655
220	0xbd7a7ef4	-0.06115623
221	0xbd820850	-0.06349242
222	0xbca58dc9	-0.02020921
223	0x3e2d50fb	0.16925423
224	0xbea4b09a	-0.32165986
225	0x3b908ef7	0.004411574
226	0x3ebe5377	0.37173054
227	0xbd58f8c7	-0.052971628
228	0x3d512f35	0.05107041
229	0x3e340699	0.17580642
230	0x3bd30adc	0.0064405035
231	0xbe8cbdb6	-0.27488488
232	0xbd9c1702	-0.07621576
233	0x3e991ebd	0.29906264
234	0x3b09f6a0	0.002105154
235	0x3e8bae11	0.2728124
236	0x3e1016fc	0.14071268
237	0xbe89c57d	-0.26908484
238	0x3e980e99	0.29698637
239	0xbd84ef2f	-0.06490933
240	0x3efb7fb0	0.49120855
241	0xbe1f55cd	-0.15560074
242	0xbedd7a1c	-0.43257225
243	0x3e7703ce	0.24122545
244	0x3ee913fe	0.45523065
245	0x3efd9b9b	0.4953278
246	0xbd74d71e	-0.059775464
247	0xbd0dc25c	-0.034609184
248	0xbdc7ebc2	-0.09761764
249	0xbd61f798	-0.055167764
250	0x3e44c2f3	0.19214992
251	0xbd12b83c	-0.03582023
252	0xbe1c633b	-0.15272228
253	0x3e20a509	0.15687956
254	0xbd721460	-0.059101462
255	0xbed3f9a0	-0.41401386

q.4.weight f4 [10, 256]
0	0xbd25b3f8	-0.040454835
1	0x3e21f826	0.15817317
2	0x3f0e9bdc	0.5570657
3	0x3ed226de	0.41045278
4	0x3ea92597	0.3303649
5	0x3f2b557f	0.6692733
6	0x3d1831a7	0.037156727
7	0x3eeb2a36	0.45930642
8	0x3e8ac6ec	0.2710489
9	0x3b06100b	0.002045634
10	0xc002beec	-2.042903
11	0x3ee570fe	0.4481277
12	0x3eb0e9b6	0.34553307
13	0xbcb0f3fd	-0.021600718
14	0x3e5173ec	0.20454377
15	0xbf6a8846	-0.91614187
16	0x3ec04925	0.37555805
17	0xbec644a3	-0.3872424
18	0xbc965d51	-0.018355044
19	0xbd3d2ae7	-0.046183493
20	0xbd8e820d	-0.06958399
21	0x3f03d3b8	0.5149493
22	0x3e2183d4	0.15772945
23	0xbb94d229	-0.0045416546
24	0xbeac1dcf	-0.33616492
25	0x3e8cd491	0.27505925
26	0x3d94bb78	0.07262319
27	0x3f5d0b2d	0.8634518
28	0xbc142ccd	-0.009043884
29	0xbda08601	-0.07838059
30	0xbb222d97	-0.0024746412
31	0x3e267acc	0.16257781
32	0x3c572ef1	0.01313375
33	0xbedc02f1	-0.42970994
34	0xbe0630c3	-0.13104539
35	0xbedad397	-0.42739555
36	0x3c7bb442	0.015362801
37	0x3e09ea38	0.13468254
38	0x3e36528d	0.17804928
39	0x3db8c7b6	0.09022467
40	0x3e587f36	0.21142277
41	0xba6660c8	-0.0008788225
42	0x3e0f3f45	0.13988979
43	0x3ca3d003	0.019996649
44	0xc02cbb11	-2.6989176
45	0x3e84763c	0.25871456
46	0x3e9d8b91	0.30770543
47	0xbf55eccd	-0.83564454
48	0xbe128a02	-0.14310458
49	0xbefc7aac	-0.4931234
50	0x3d06f253	0.032945942
51	0xbf67db34	-0.9056885
52	0xbe8cb82f	-0.2748427
53	0xbd0b3910	-0.033989966
54	0x3c94a070	0.018142909
55	0xbca8baa1	-0.020596804
56	0x3ef6c2ce	0.481955
57	0x3e66126c	0.22467965
58	0xbdce960c	-0.10087213
59	0xbe62cf44	-0.22149378
60	0x3f0cf77c	0.5506513
61	0x3e1c89dc	0.15286964
62	0xbd22ea26	-0.039774083
63	0xbb2f300a	-0.0026731514
64	0x3baf07d2	0.0053415084
65	0xbe012171	-0.12610413
66	0x3ef3ab3b	0.47591576
67	0x3f07ab09	0.52995354
68	0x3f058feb	0.52172726
69	0x3e9b1d97	0.30296013
70	0xbd8b6e45	-0.068081416
71	0x3e17611a	0.14783135
72	0x3ee6b045	0.45056358
73	0x3e9ec15a	0.3100689
74	0x3bd4529a	0.0064795734
75	0x3d4d66e2	0.050146945
76	0x3ca465bc	0.020068042
77	0x3ea78092	0.3271528
78	0xbe4d55e3	-0.20052294
79	0x3eed9629	0.46403626
80	0xbdb3c099	-0.087769695
81	0xbf133818	-0.5750747
82	0xbea31078	-0.31848502
83	0xbe0500dc	-0.12988609
84	0x3d0c7915	0.03429516
85	0x3f6e7b49	0.9315687
86	0x3f164bb1	0.58709246
87	0xbe15ebff	-0.14640807
88	0xbc6c4b89	-0.014422306
89	0x3d1b3e7a	0.03790138
90	0xbeaa4893	-0.33258495
91	0xbd73b105	-0.05949499
92	0xbf19a360	-0.60014915
93	0x3f288baa	0.6583811
94	0x3e683992	0.22678211
95	0x3de4b79b	0.111678325
96	0x3ee8e123	0.45484266
97	0x3e840911	0.25788167
98	0x3e39a695	0.18129952
99	0x3d000c31	0.031261627
100	0x3d233e2b	0.03985421
101	0x3e9f2bb5	0.31088033
102	0xbf4baad4	-0.7955754
103	0x3e357c9f	0.1772332
104	0xbc8403c9	-0.016115086
105	0x3f38bf32	0.7216674
106	0x3e0dfcab	0.13865916
107	0x3ef10d5a	0.470805
108	0x3bb821d7	0.0056192684
109	0xbd10bcff	-0.03533649
110	0x3f13cdb6	0.57735765
111	0x3d0fe1d4	0.035127476
112	0xbd6fc509	-0.058537517
113	0x3e51c88a	0.20486656
114	0xbd758aaa	-0.059946693
115	0xbd5a85a6	-0.053350113
116	0xbee551e8	-0.44789052
117	0x3f1c2e71	0.61008364
118	0x3ef70478	0.48245597
119	0x3e7d7953	0.24753313
120	0xbe76e12b	-0.24109332
121	0x3d17329c	0.0369135
122	0xbf53417e	-0.8252181
123	0xbe393088	-0.1808492
124	0xbd935244	-0.07193425
125	0x3d10907f	0.035294052
126	0x3d5036e0	0.050833583
127	0xbf951869	-1.1648074
128	0xbf0b105d	-0.54321843
129	0xbeea1c7c	-0.45724857
130	0x3e207afe	0.15671918
131	0x3d4fe1a1	0.050752286
132	0x3ed2921f	0.41127107
133	0x3e0408f7	0.12894045
134	0x3ce6952f	0.028147308
135	0x3d787365	0.060656924
136	0x3dc876f8	0.097883165
137	0xbf3bad1b	-0.73311013
138	0xbd049def	-0.03237718
139	0xbc7bb685	-0.01536334
140	0xbc18ff1a	-0.009338165
141	0xbf464cfb	-0.7746121
142	0xbeb2f367	-0.34951326
143	0x3d0efcc0	0.03490901
144	0x3eb014c4	0.34390843
145	0xbe89bf6f	-0.26903865
146	0xbcaba13d	-0.020950908
147	0x3e3d0aa0	0.18461084
148	0x3f391d05	0.72309905
149	0x3e9bfe39	0.30467394
150	0xbc44021f	-0.011963396
151	0x3e350e01	0.17681123
152	0x3d33ce3c	0.043897852
153	0xbefeb1df	-0.4974508
154	0xbee7e15f	-0.45289132
155	0x3e981afc	0.29708087
156	0x3f14a15d	0.5805872
157	0xbb8d814f	-0.0043183933
158	0xbcddf7ea	-0.027095754
159	0xbd567637	-0.052358832
160	0xbe3f1089	-0.18658651
161	0x3e09df5f	0.13464116
162	0xbf66956c	-0.9007175
163	0x3e177138	0.14789283
164	0x3ef3bded	0.4760584
165	0xbd573039	-0.052536223
166	0xbd654c84	-0.055981174
167	0x3e84bb53	0.25924167
168	0xbef2c5b2	-0.47416455
169	0xbf5662d3	-0.83744544
170	0x3e8f9909	0.28046444
171	0x3c4903dd	0.0122689875
172	0x3d1cb701	0.038260464
173	0x3e33d0b0	0.17560077
174	0x3f25c252	0.64749634
175	0xbd508f88	-0.050918132
176	0x3dd31649	0.10306985
177	0x3f2a01c4	0.66408944
178	0xbc102344	-0.0087974705
179	0x3f93d279	1.1548606
180	0x3d1b7ec4	0.03796269
181	0x3e420d8e	0.18950483
182	0xbc0bdb6b	-0.0085362
183	0x3f3db8f8	0.74110365
184	0x3f43bb26	0.7645744
185	0x3e3cc5a8	0.18434775
186	0x3dd2747b	0.10276123
187	0x3f84b68e	1.0368211
188	0xbf10e84b	-0.5660445
189	0x3e81f783	0.2538415
190	0x3ea786a9	0.32719925
191	0xbf2d6446	-0.6773113
192	0xbdfbe388	-0.122992575
193	0x3ea1d968	0.3161118
194	0x3f2d9431	0.6780425
195	0xbd374d66	-0.044751547
196	0xbd88b3fe	-0.06674956
197	0x3e6438a3	0.2228723
198	0x3f6b730c	0.9197242
199	0xbe9b1fef	-0.302978
200	0xbc3fea2b	-0.011713545
201	0x3d7b359b	0.06133042
202	0xbf3de388	-0.7417531
203	0x3ef832a7	0.48476145
204	0xbeab9da2	-0.33518702
205	0xbf12dd71	-0.5736914
206	0x3ee19a5e	0.44063085
207	0xbd3d264c	-0.0461791
208	0x3d76987b	0.06020401
209	0xbf16c621	-0.5889607
210	0x3e92d0ab	0.28674826
211	0x3e67b077	0.2262591
212	0x3f027d10	0.5097208
213	0x3ea13457	0.31485245
214	0xbebf5182	-0.37366873
215	0xbe924508	-0.28568292
216	0x3f1e25d1	0.61776453
217	0x3f2bc980	0.6710434
218	0x3e4984c1	0.19679548
219	0x3f14c090	0.5810633
220	0x3eb1360e	0.34611553
221	0xbcfc1374	-0.030770995
222	0xbd1d86f2	-0.038458772
223	0x3ed8f15d	0.42371646
224	0x3f73c243	0.95218295
225	0xbde93623	-0.11387279
226	0x3effeba8	0.4998448
227	0xbdd217d2	-0.102584496
228	0x3e4b6756	0.19863638
229	0x3e09690f	0.13418983
230	0xbcbe12de	-0.023202356
231	0x3f1c5042	0.61059964
232	0x3cece63d	0.02891838
233	0xbe17b2ef	-0.14814351
234	0x3efd8c96	0.4952132
235	0xbd84f9d5	-0.06492964
236	0xbe4a702e	-0.19769356
237	0x3e581055	0.2109998
238	0x3f2ebc05	0.68255645
239	0xbc734786	-0.0148485955
240	0xc025b94a	-2.5894341
241	0x3ef42f33	0.4769226
242	0x3ebb40cd	0.36572877
243	0x3f3877b4	0.7205765
244	0xbfaf05d6	-1.3673656
245	0xbf2a0d71	-0.6642676
246	0x3ebc377d	0.36761084
247	0x3d03f6d6	0.032217823
248	0x3da11d9e	0.07866977
249	0x3e3ef473	0.18647937
250	0x3e191c9c	0.1495232
251	0x3edf7caa	0.436498
252	0x3e1c09c0	0.15238094
253	0x3e919e8b	0.2844127
254	0xbb7daf7a	-0.0038709329
255	0x3ecb6ff5	0.39733854

q.4.bias f4 [10]
0	0x3d74605d	0.05966221
1	0xbe15372f	-0.14571832
2	0x3d8995b6	0.06718008
3	0xbe7e4a93	-0.24833135
4	0xbc71ccd8	-0.014758311
5	0xbe1623e9	-0.14662136
6	0xbdaf48b6	-0.085587904
7	0xbe122dae	-0.14275238
8	0x3e99bbc1	0.30026057
9	0x3f6fb127	0.9362969
