task4/task3_experiment_2_d_local_q2.pt (torch, 281951 bytes, 6 tensors)

q.0.weight f4 [256, 5]
0	0xbbf2e36c	-0.0074123647
1	0xba10695a	-0.00055088627
2	0xb9fb9849	-0.00047987912
3	0xbc10520f	-0.008808627
4	0x3db04338	0.08606571
5	0xba150606	-0.00056847965
6	0xbb4d8a32	-0.0031362888
7	0x3b259975	0.002526847
8	0x3b9aabaf	0.0047201733
9	0xbd2c3c68	-0.042049795
10	0xbc0776a6	-0.008268034
11	0x3b4b8913	0.0031057044
12	0x3c8f21a2	0.017472092
13	0xbaaaf877	-0.0013044019
14	0xbe11ea94	-0.1424964
15	0x3e03fd50	0.128896
16	0xbe5b2061	-0.2139907
17	0x3d1d553c	0.038411364
18	0x3b42b988	0.0029712636
19	0x3d90c1d0	0.07068217
20	0x3b720581	0.003692955
21	0x3d210660	0.03931272
22	0x3bae2aba	0.005315152
23	0xbcdfac2b	-0.027303776
24	0x3e9a13ec	0.30093324
25	0x3b09024d	0.0020905912
26	0x3c7f040c	0.01556493
27	0x3bb6a465	0.0055737966
28	0x3bc71bba	0.0060763033
29	0xbe85f0ea	-0.26160365
30	0xbb3650c1	-0.002781913
31	0xbb4b8330	-0.0031053536
32	0xbbaf3d4b	-0.005347883
33	0x3a315548	0.0006764722
34	0x3e7821e4	0.24231678
35	0xbe36cedc	-0.17852348
36	0x3d950aa0	0.07277417
37	0x3d165808	0.036705047
38	0x3e90f2a0	0.28310108
39	0x3dcc23f0	0.09967792
40	0xbfc4fac2	-1.5389025
41	0x3ec03569	0.3754075
42	0x3dc298eb	0.09501823
43	0x3d26dfe4	0.040740862
44	0x3df23eb0	0.11828363
45	0x3f646a75	0.8922494
46	0x3f1411a9	0.5783945
47	0x3d0e0b3e	0.03467869
48	0xbd46431f	-0.048403855
49	0x3cc95ee0	0.024581373
50	0x3d32c230	0.043642223
51	0x3e8774b0	0.26456213
52	0x3dadeb78	0.08492178
53	0xbcc19800	-0.02363205
54	0xbe65e6b1	-0.22451283
55	0xbdcbcdb6	-0.099513456
56	0x3eb08c15	0.34481874
57	0x3d85079a	0.064955905
58	0xbe24cb2c	-0.16093129
59	0x3ea50aa0	0.3223467
60	0x3c941b90	0.01807955
61	0xbe675f54	-0.22594959
62	0xbdca224c	-0.09869823
63	0xbebb34e9	-0.36563805
64	0xbe222120	-0.15832949
65	0x3a94fba1	0.0011366495
66	0xba21270c	-0.0006147481
67	0x3b043129	0.0020170903
68	0xbb265245	-0.0025378626
69	0xbe8b730a	-0.27236205
70	0xbcc82eca	-0.024436373
71	0xbda89903	-0.0823231
72	0xbd691216	-0.056902014
73	0xbda75f1c	-0.081724375
74	0x3eb76e08	0.35826135
75	0x3fdbb376	1.7164142
76	0xc0097e79	-2.1483443
77	0xbfc06778	-1.5031576
78	0x3f31c65f	0.69443315
79	0xbcedb440	-0.029016614
80	0xbf90e50a	-1.1319897
81	0xbf56d8b4	-0.8392441
82	0xc02110c3	-2.516648
83	0xbf7b8d02	-0.98262036
84	0xbe6dda3a	-0.23227778
85	0x3bb8a6c3	0.005635114
86	0x3b307dda	0.0026930482
87	0xbc32bdbb	-0.010909493
88	0xbba62e7f	-0.0050714607
89	0xbd921964	-0.07133749
90	0x3bd2e541	0.0064360206
91	0xbccf99c0	-0.025341868
92	0xbc23bfad	-0.00999443
93	0xbb0bd2ac	-0.0021335287
94	0x3e206e7c	0.15667146
95	0x3bc09c9d	0.0058780448
96	0x3cb3f8ea	0.021969277
97	0xbb19e350	-0.0023481436
98	0x3c9a4131	0.018829914
99	0x3eb566a6	0.35429877
100	0x402cf58d	2.7024872
101	0x3f9c6d8c	1.2220931
102	0xbe436f66	-0.19085464
103	0x3e818b03	0.2530137
104	0x3eb346be	0.3501491
105	0xbc8a441d	-0.016878182
106	0xbc112702	-0.008859398
107	0x3b738d61	0.0037163126
108	0xbbf448bb	-0.007454959
109	0xbd6b42e0	-0.057436824
110	0xbc0c6089	-0.008567938
111	0xbd26369d	-0.040579427
112	0xbad3c71c	-0.0016157362
113	0xbd083e74	-0.033262685
114	0x3eaf60de	0.3425359
115	0xbd143f5f	-0.036193248
116	0xbcef9aa0	-0.029248536
117	0x3b6a6dae	0.003577094
118	0xbac7ac89	-0.0015233915
119	0x3e0311d0	0.12799764
120	0xb8c3fd47	-9.345501e-05
121	0x379d5498	1.875525e-05
122	0xbacbf9df	-0.0015562138
123	0xb9feaf66	-0.00048577337
124	0xbd93bc14	-0.072136074
125	0xbeef445b	-0.4673184
126	0xbf3189d9	-0.69350964
127	0x3da2c026	0.07946806
128	0xbc0f5433	-0.008748102
129	0x3e1be3d0	0.15223622
130	0x3c63db45	0.013907258
131	0xbe3fdc92	-0.18736485
132	0xbc8bceed	-0.017066443
133	0xbd88cb0f	-0.06679355
134	0xbeb12340	-0.34597206
135	0x3e2a4508	0.16627896
136	0x3d75cf90	0.0600124
137	0x3ea01a78	0.31270194
138	0x3ebb18d6	0.36542386
139	0xbe1fb1da	-0.15595189
140	0x3c9363a5	0.01799185
141	0xbc14fbc2	-0.009093227
142	0x3c2c1238	0.010502391
143	0x3b901ee6	0.0043982146
144	0xbdef8490	-0.11695206
145	0xbb0fbc22	-0.0021932204
146	0x3bfcc578	0.00771397
147	0x3a265818	0.00063455245
148	0x3baa399a	0.005194855
149	0xbb964700	-0.0045861006
150	0xbe86cf85	-0.263302
151	0xbdaf04d7	-0.08545845
152	0x3cd874e2	0.026422922
153	0x3c9e31d7	0.019310875
154	0x3ea861dc	0.3288716
155	0xbd222db6	-0.039594375
156	0x3d163a59	0.03667674
157	0x3d23f441	0.04002786
158	0xbc9c6250	-0.019089848
159	0x3ebfd686	0.37468356
160	0x3f43b114	0.76442075
161	0xbf25cc04	-0.6476443
162	0x3fb9b783	1.4509128
163	0xbeb6e2ad	-0.35719815
164	0xbe8221ab	-0.25416312
165	0x3ffcec89	1.9759685
166	0xc008024b	-2.12514
167	0x3efcb8c7	0.49359724
168	0xbff0f11e	-1.8823583
169	0x3e1b12a0	0.15143824
170	0xbdce32df	-0.10068297
171	0x3d2a7599	0.041616056
172	0x3c704f8e	0.014667405
173	0xbd054b11	-0.032542292
174	0xbed571c8	-0.4168837
175	0x3e70cea0	0.23516321
176	0xbe6d7137	-0.2318772
177	0xbe51e34d	-0.20496865
178	0xbe7cd5c1	-0.24690916
179	0xbe8ccc6c	-0.27499712
180	0xba9835cf	-0.0011612716
181	0x3ab45ce7	0.0013760597
182	0xba1f5b43	-0.00060789677
183	0x3aa11dd5	0.0012292216
184	0x3ea42d44	0.32065785
185	0x3ba97465	0.005171346
186	0x3bbea080	0.005817473
187	0x3b730776	0.0037083304
188	0x3a83019c	0.0009994986
189	0xbeb57378	-0.35439658
190	0xbcb64260	-0.022248447
191	0xbe149c18	-0.1451267
192	0x3e3de224	0.18543297
193	0x3ea28860	0.3174467
194	0x3ca53cd0	0.0201706
195	0xbc272e65	-0.010203932
196	0x3caaa38e	0.020829942
197	0xbc061360	-0.00818333
198	0x3b394b1f	0.0028273535
199	0xbe7b97d4	-0.24569637
200	0x3bea7dc1	0.0071561043
201	0xbbe05f0d	-0.0068472684
202	0x3b0e3908	0.0021701474
203	0x391bfc1f	0.00014875874
204	0xbea51116	-0.32239598
205	0xbdac0350	-0.08399069
206	0x3e45e8bc	0.19327062
207	0x3d280dc8	0.041028768
208	0x3eb6362c	0.35588205
209	0xbe91c07e	-0.28467172
210	0x3bc27b3c	0.005935101
211	0xbc92eef3	-0.017936205
212	0x3b468301	0.0030290487
213	0xbbf857b1	-0.007578813
214	0x3ec839dc	0.39106643
215	0xbb41369a	-0.0029482008
216	0xbba69a65	-0.005084323
217	0xbb8530a6	-0.0040646372
218	0x3ab5679a	0.001384008
219	0x3e99fc7a	0.30075437
220	0x3c9b7d46	0.018980633
221	0x3c0ef671	0.008725748
222	0x3c1235d6	0.008923968
223	0x3c89b9e9	0.016812282
224	0x3dbdfe00	0.09276962
225	0xba45024e	-0.0007515297
226	0x38bebbbf	9.0948764e-05
227	0x38e3647f	0.00010842922
228	0xbac0c8ca	-0.0014708277
229	0x3ec70990	0.38874483
230	0x3a76bae1	0.00094120024
231	0xbc56b694	-0.013105053
232	0xbacf7bd6	-0.0015829753
233	0x3b0b122c	0.0021220548
234	0xbe5aa81b	-0.2135319
235	0x3e8f5355	0.27993265
236	0x3ec1dae7	0.37862322
237	0xbc9d3089	-0.019188182
238	0xbe4cb902	-0.1999245
239	0xbdfc5570	-0.123209834
240	0x3e9f6fb6	0.31139916
241	0xbe91e069	-0.28491524
242	0x3bf73540	0.0075441897
243	0xbebf1a06	-0.37324542
244	0x3e8967c2	0.26836973
245	0xbb9ae42f	-0.0047269086
246	0x3b830a86	0.003999057
247	0xbbde67b1	-0.0067872633
248	0x3b6cc633	0.0036128878
249	0x3ebd8a28	0.37019467
250	0x3a69d1d5	0.0008919512
251	0x3b6faa0f	0.0036569869
252	0xba2856be	-0.0006421617
253	0x3b7a0193	0.003814791
254	0xbe1fb52a	-0.15596452
255	0xbe8d192f	-0.27558276

q.0.bias f4 [256]
0	0xbc73858e	-0.014863385
1	0xbbb20682	-0.0054329047
2	0xbc968dae	-0.018378105
3	0x3cc3fa12	0.023922954
4	0xbd6493b2	-0.055804916
5	0xbc1dedf9	-0.009639257
6	0xbbe57e20	-0.0070035607
7	0xbecec6d2	-0.40386063
8	0xbe06f6cb	-0.13180082
9	0x3dd072cb	0.10178145
10	0xbecf9f8c	-0.40551412
11	0xbeac34e6	-0.33634108
12	0xbee17105	-0.4403154
13	0xbb0bff0a	-0.0021361732
14	0xbd93f818	-0.072250545
15	0xbdef3b5e	-0.11681245
16	0xbe2d1254	-0.16901523
17	0xbc532f07	-0.01288963
18	0xbcc1bc10	-0.023649246
19	0xbcf0bcc9	-0.029386895
20	0x3ea632e7	0.3246071
21	0x398ddadc	0.0002705668
22	0xbce3ae42	-0.027793054
23	0x3b2e51a1	0.0026598948
24	0xba9922b6	-0.0011683318
25	0x3debfe66	0.11523132
26	0xbe01b338	-0.12666023
27	0xbecd9344	-0.40151417
28	0xbc7592b0	-0.014988586
29	0xbbb14fd0	-0.0054111257
30	0x3d5555ab	0.052083652
31	0x3c7ddc53	0.015494424
32	0xbe43a035	-0.19104083
33	0xbe6e1d8d	-0.2325346
34	0xbc09c76c	-0.008409362
35	0xbeb2c31f	-0.3491449
36	0xba9fc30b	-0.0012188865
37	0xbb97f309	-0.0046371263
38	0xbeb6a5a0	-0.35673237
39	0xbc7df2f4	-0.015499819
40	0xbc19b734	-0.009382058
41	0xbeac6243	-0.33668718
42	0xbc5122f3	-0.01276468
43	0xbbdff35e	-0.0068344316
44	0xbc99208c	-0.018692277
45	0xba9ef6a8	-0.0012127953
46	0xbc5725f2	-0.013131605
47	0xbee5d5cc	-0.44889677
48	0xbecfe65a	-0.40605432
49	0xbbae6c61	-0.0053229784
50	0xbba912b3	-0.0051597
51	0xbed949c9	-0.42439106
52	0x3eb42527	0.35184595
53	0xbc37d6d4	-0.011220653
54	0x3d2a1afb	0.041529637
55	0xbc08d08b	-0.008350502
56	0x3dea2c10	0.114341855
57	0xbe33b126	-0.17548046
58	0xbb804bb3	-0.003915274
59	0xbe559a3f	-0.20859621
60	0xba8bbb0d	-0.0010660604
61	0x3bf0795d	0.0073386864
62	0xb97ff6c1	-0.00024410618
63	0x3c127815	0.008939763
64	0xbee10c37	-0.43954632
65	0xb8ad2176	-8.2555154e-05
66	0xbddadd05	-0.106866874
67	0x3ce34dab	0.027746996
68	0xbb6cfa71	-0.0036160017
69	0xbb19416a	-0.0023384937
70	0xbc1b336b	-0.009472708
71	0xbec7454e	-0.38920063
72	0xbb6d4c4b	-0.0036208804
73	0xbebe163e	-0.37126344
74	0xbb746760	-0.0037293062
75	0xbbfc7831	-0.0077047576
76	0x3d0d86c9	0.03455237
77	0xbce0008a	-0.027344007
78	0xbd2d9c53	-0.04238541
79	0xbe205a59	-0.15659465
80	0xbc30ac21	-0.010783226
81	0xba903c2b	-0.001100426
82	0xbedd33eb	-0.43203673
83	0xbad882c4	-0.0016518463
84	0xbea1c786	-0.31597537
85	0xbe8a5102	-0.2701493
86	0xbbb9dfdd	-0.0056724385
87	0xbc490be0	-0.012270898
88	0x3e209ae4	0.15684086
89	0xbb0d5af2	-0.00215691
90	0xbd25c5db	-0.040471893
91	0x3d6f6840	0.05844903
92	0xbea86bbc	-0.32894695
93	0xbaef613c	-0.0018263231
94	0xbc117ff3	-0.008880603
95	0xbece86c8	-0.40337205
96	0xba97a244	-0.0011568745
97	0xbec9795c	-0.39350402
98	0xbd9f7035	-0.07785074
99	0xbece9564	-0.4034835
100	0xbc3a0ff4	-0.011356343
101	0xbd536461	-0.0516094
102	0xbbcc7ae4	-0.0062402356
103	0xbbf5ddff	-0.0075032706
104	0xbc47790f	-0.012174859
105	0xbbc78b23	-0.0060895844
106	0xbc56315a	-0.01307329
107	0xbb49c561	-0.0030787813
108	0xbbd3fef1	-0.0064696004
109	0x3c06927a	0.008213634
110	0xbc101812	-0.008794801
111	0xbb48fd64	-0.003066861
112	0xbc9b6341	-0.018968226
113	0xbcac9bae	-0.021070328
114	0xbeaeb6b8	-0.34123778
115	0xbb319204	-0.0027095089
116	0xbee22297	-0.44167015
117	0xba4ed0e4	-0.00078894035
118	0x3e275d23	0.16344123
119	0x3e8a8c55	0.2706019
120	0xbb6637ed	-0.003512855
121	0xbd45d64a	-0.048300065
122	0x3db4561b	0.08805486
123	0xbc340173	-0.010986674
124	0xba871294	-0.0010305219
125	0xbe1f0c32	-0.15531996
126	0x3a4f45e6	0.0007906839
127	0xbb8f5cbe	-0.0043750694
128	0x3c8c3042	0.017112855
129	0x3db12d39	0.08651204
130	0xbe949fa8	-0.29028058
131	0xbb99daeb	-0.0046952865
132	0x3e0c6da2	0.13713697
133	0xbec4c9a6	-0.38435096
134	0xbd6ef72c	-0.05834119
135	0xbdfdae0f	-0.12386715
136	0xbae79d60	-0.0017670803
137	0xbe800739	-0.2500551
138	0x3b8a42cd	0.004219389
139	0xbe36b896	-0.17843851
140	0xbaae32b3	-0.0013290256
141	0xbcbf6aae	-0.023366299
142	0xbbc4181d	-0.00598432
143	0xbbf36b56	-0.007428567
144	0xbc3e88d7	-0.011629305
145	0xbcc79211	-0.024361642
146	0x3ecbe8e9	0.39826134
147	0xbba55ecd	-0.0050467015
148	0xbd385139	-0.044999335
149	0xbb45e0f5	-0.00301939
150	0x3dfff786	0.12498383
151	0xbd96146a	-0.073281124
152	0xbd575c13	-0.052578043
153	0x39f16578	0.00046042702
154	0xbba9d8ad	-0.0051833005
155	0x3be5de80	0.0070150495
156	0x3c60c21e	0.013718156
157	0x3d8f6aec	0.070028156
158	0xbee2be3a	-0.44285756
159	0xbd819ea3	-0.06329086
160	0xbc1bdd10	-0.009513155
161	0xbed3d431	-0.41372827
162	0xbb377469	-0.002799297
163	0xbbb216bf	-0.0054348405
164	0xbeda28f8	-0.42609382
165	0xbe89dba2	-0.2692538
166	0xbe888c97	-0.26669762
167	0xbf1448b7	-0.57923454
168	0x3d3c9be7	0.046047118
169	0xbba2d41b	-0.0049691326
170	0x3cd2d61f	0.025736867
171	0xbe2634b7	-0.16231047
172	0xbb85458a	-0.0040671276
173	0xbecabfad	-0.39599362
174	0xbce1291e	-0.027485427
175	0xbdb0fb15	-0.0864164
176	0xbeb20380	-0.34768295
177	0xbeb66e23	-0.35630903
178	0xbe7895cc	-0.24275893
179	0xbd9e7ea6	-0.07739
180	0x3db9cab2	0.09071864
181	0xbc6a1667	-0.014287568
182	0xbc6ef819	-0.014585518
183	0xbda86041	-0.08221484
184	0xbe2645c6	-0.16237554
185	0x3e4f2577	0.20229135
186	0xbb21adce	-0.0024670246
187	0xbe60f0b3	-0.2196682
188	0x3e6d7842	0.23190406
189	0xbb22fe60	-0.0024870858
190	0xbe78fe1a	-0.24315682
191	0xbb66637c	-0.0035154512
192	0xbb522aa8	-0.0032068882
193	0xbbc3e296	-0.005977939
194	0x3d1ffda1	0.03906024
195	0xbb8ecd88	-0.0043579973
196	0xbbbfa4ce	-0.0058485037
197	0xbaf3c01d	-0.0018596683
198	0xbe1ddf50	-0.15417218
199	0xbc3812f6	-0.011234989
200	0xbdb706b9	-0.08936829
201	0xbcbc162c	-0.022959791
202	0xbaffab3d	-0.0019505989
203	0x3dfd3e50	0.12365401
204	0x3e1b8205	0.15186317
205	0xbb85ead4	-0.0040868316
206	0xba4bf547	-0.00077803846
207	0xbebf69e6	-0.37385482
208	0xbdc4cc4c	-0.09609279
209	0x3dc16192	0.09442438
210	0xbb53cf77	-0.0032319704
211	0xbd824b1a	-0.06361981
212	0x3c61ae49	0.013774463
213	0xbc7d5ad4	-0.01546355
214	0xbb1aa138	-0.002359463
215	0x3d8f419b	0.06994935
216	0xbb902794	-0.0043992493
217	0xbd34fefd	-0.04418849
218	0xbc994061	-0.018707456
219	0xbf0e9a2e	-0.5570401
220	0x3e2c945f	0.16853474
221	0xbe63c318	-0.22242391
222	0xbcebd576	-0.02878831
223	0xbb3d7d75	-0.002891389
224	0xbb9368fb	-0.0044985986
225	0xbbbbac6f	-0.005727343
226	0x3d846fa4	0.06466606
227	0xbc046297	-0.008080146
228	0xbc2859db	-0.010275329
229	0xbb1dabd3	-0.0024058714
230	0xbec71bac	-0.388883
231	0xbd78a47e	-0.060703747
232	0x3dd2f121	0.10299898
233	0xbd125aee	-0.03573125
234	0xbc5af243	-0.013363424
235	0xbba34cd4	-0.004983524
236	0xbdbda6ca	-0.09260328
237	0xbc44ef0d	-0.012019885
238	0xbc80210b	-0.015640756
239	0xbbf0b43b	-0.007345704
240	0xba8e1247	-0.0010839187
241	0xbb6aa67e	-0.0035804803
242	0xbb3c91a8	-0.0028773341
243	0x3dc28687	0.09498315
244	0xbbc1ecb9	-0.005918112
245	0x3e07a584	0.13246733
246	0x3d19679a	0.037452318
247	0xbda37f71	-0.07983292
248	0xbec3dd89	-0.38254955
249	0xbb4a53ce	-0.0030872705
250	0xbd4b2c3b	-0.04960273
251	0x3d129801	0.035789493
252	0xbaf8414f	-0.0018940362
253	0x3e1dbe10	0.15404534
254	0xbb39cf9a	-0.00283525
255	0xbc72d687	-0.014821655

q.2.weight f4 [256, 256]
0	0x3bfa130b	0.0076316646
1	0x3e0a4692	0.13503483
2	0xbe0d3088	-0.13788044
3	0xbe8ae40b	-0.27127108
4	0x3e64b6a4	0.22335297
5	0x3e3b5efe	0.18297955
6	0x3d8673bb	0.065650426
7	0x3d57f49a	0.052723505
8	0xbf144d45	-0.57930404
9	0xbebb9bf8	-0.36642432
10	0xbd7914c2	-0.06081081
11	0x3d40a0d5	0.04702838
12	0xbb925ef0	-0.004466884
13	0x3e876755	0.26446024
14	0x3d5c990f	0.053856906
15	0x3ceaba67	0.028653337
16	0x3d78451b	0.06061278
17	0x3da09696	0.07841222
18	0x3e39a8eb	0.18130843
19	0x3ddd4c4a	0.108055666
20	0xbe3f96d5	-0.18709882
21	0x3dbbd6dc	0.091718405
22	0x3e7b722f	0.24555276
23	0xbca9b13e	-0.020714398
24	0xbca76eb9	-0.020438539
25	0xbc9de6a6	-0.01927502
26	0x3e70f3b2	0.23530462
27	0xbd4669a2	-0.048440583
28	0xbdc8a941	-0.097979076
29	0x3d052920	0.032509923
30	0xbdba0224	-0.090824395
31	0x3e0b04a0	0.13575983
32	0x3d47eb2c	0.04880826
33	0x3dc80024	0.09765652
34	0x3de12435	0.10993234
35	0xbd003634	-0.031301692
36	0x3d37dbab	0.044887226
37	0x3db51751	0.08842338
38	0xbd4daa68	-0.05021134
39	0x3e4ecf93	0.20196371
40	0x3ebca6dc	0.36846054
41	0x3c124620	0.008927852
42	0xbd17008a	-0.03686575
43	0x3d399ab2	0.045313545
44	0x3e5a0b98	0.21293485
45	0x3dcc8c08	0.09987646
46	0x3c14a913	0.009073514
47	0xbd2960e4	-0.041352168
48	0xbd5abf90	-0.053405344
49	0x3e2a691f	0.16641663
50	0xbe02bc43	-0.12767129
51	0xbd7f9ae0	-0.06240356
52	0xbe94e8b7	-0.29083797
53	0x3d6e2880	0.058144093
54	0x3d4e3a13	0.050348353
55	0x3cca852e	0.024721708
56	0xbeb52c89	-0.3538554
57	0xbc0b62ee	-0.008507473
58	0xbcf77229	-0.030205803
59	0x3d8db1df	0.06918692
60	0x3e37d315	0.17951615
61	0xbd852575	-0.06501285
62	0x3c4f723e	0.012661515
63	0xbee936f2	-0.45549732
64	0xbd39e0a4	-0.04538025
65	0x3db26cda	0.08712168
66	0x3c52e3c2	0.0128716845
67	0x3defeb67	0.11714821
68	0x3e2d2774	0.16909581
69	0xbe79ad6c	-0.24382561
70	0x3dabd63d	0.08390472
71	0xbca6ae84	-0.020346887
72	0xbe18fda7	-0.1494051
73	0xbb863260	-0.0040953606
74	0x3e2335f6	0.15938553
75	0x3e2a696e	0.1664178
76	0x3d5595e3	0.052144896
77	0x3ec1f939	0.37885454
78	0xbceab9d6	-0.028653067
79	0x3db3237d	0.08747003
80	0xbe82f11c	-0.25574577
81	0x3e82fa9b	0.25581822
82	0xbce4a310	-0.027909786
83	0x3e029ca4	0.12755066
84	0xbd7a3522	-0.061085828
85	0xbd653d64	-0.05596675
86	0x3e590b4b	0.21195714
87	0xbc1f0fd8	-0.009708367
88	0x3c8e61f4	0.017380692
89	0xbe7d465a	-0.24733868
90	0x3e0f1626	0.13973293
91	0x3da6c4d5	0.081430115
92	0x3c4b9ba0	0.012427241
93	0xbc81e363	-0.015855497
94	0x3d84f24b	0.06491526
95	0x3d097462	0.033558257
96	0xbe221816	-0.158295
97	0xbd6ee318	-0.058322042
98	0x3cd24ade	0.025670465
99	0xbc8e7bb4	-0.01739297
100	0xbe6ff54a	-0.23433414
101	0x3d175f34	0.036956027
102	0xbd638ff7	-0.055557217
103	0x3e037727	0.12838422
104	0x3d4183f2	0.047244973
105	0x3e3de13d	0.18542953
106	0x3dda7259	0.10666341
107	0xbe902636	-0.28154153
108	0x3a75fe0b	0.00093838637
109	0x3cccc3be	0.02499568
110	0x3cbaf864	0.02282352
111	0x3daa766a	0.08323367
112	0x3e36c7d2	0.17849663
113	0xbe01a4cc	-0.12660521
114	0xbf00264b	-0.5005843
115	0xbe9aa7ba	-0.3020609
116	0x3d48a26c	0.048983023
117	0x3d3dc3f5	0.046329457
118	0xbe6b3b07	-0.22971736
119	0xbe9741d2	-0.29542404
120	0x3e3217a8	0.17391837
121	0xbec8e3b7	-0.39236233
122	0xbc93e7a2	-0.018054787
123	0xbce729b7	-0.028218133
124	0xbc3036b5	-0.010755231
125	0x3dc70b31	0.097189315
126	0x3d285772	0.04109902
127	0x3d9c52e7	0.07633
128	0xbce62f61	-0.028098764
129	0x3d9a224b	0.07526072
130	0xbd077d6c	-0.033078596
131	0xbdd6d743	-0.10490277
132	0xbc25fcd9	-0.010131084
133	0x3b5b6700	0.003347814
134	0x3c188221	0.009308369
135	0x3b90cdfc	0.0044190865
136	0x3d774e93	0.06037767
137	0xbecdd08b	-0.40198168
138	0x3de8f122	0.113741174
139	0x3dcc1ab9	0.099660344
140	0xbeb84ff4	-0.359985
141	0x3e1ffe4b	0.15624349
142	0x3d849a18	0.064747036
143	0x3e2b9211	0.16754939
144	0x3e0dcb26	0.13847026
145	0x3de776a4	0.11301926
146	0xbe8882d8	-0.26662326
147	0xbe72715e	-0.23676059
148	0xbd877c32	-0.06615485
149	0xbe4c8ebe	-0.19976327
150	0xbd4b9c36	-0.04970952
151	0xbeb889a2	-0.36042506
152	0x3ea043b7	0.31301662
153	0x3ddc65ee	0.10761629
154	0x3d09e541	0.0336659
155	0xbe68fb94	-0.2275222
156	0x3c762737	0.015023998
157	0xbdee8ef8	-0.11648363
158	0x3c8adf60	0.016952217
159	0xbed36fee	-0.41296333
160	0x3cbe49b4	0.023228504
161	0x3ce0656c	0.027392112
162	0x3e242449	0.16029467
163	0x3c7e585b	0.015523995
164	0xbbf21e90	-0.0073888972
165	0x3c6ac610	0.014329448
166	0xbd77b98e	-0.060479693
167	0xbe696b07	-0.22794734
168	0xbef3d314	-0.47621977
169	0x3e04d186	0.12970552
170	0x3d93cd4b	0.07216891
171	0xbe71794e	-0.2358143
172	0x3eb22cbd	0.34799758
173	0xbf184bdb	-0.59490746
174	0x3e7209bd	0.23636527
175	0x3e1794f7	0.1480292
176	0xbd30ee24	-0.04319586
177	0x3c65d018	0.014026664
178	0xbc5e0c00	-0.013552666
179	0xbe44ac10	-0.19206262
180	0xbc351f57	-0.011054835
181	0x3ee44f59	0.44591787
182	0xbe9f0f61	-0.3106642
183	0x3d7cd38f	0.061725195
184	0x3e13ea16	0.14444765
185	0xbe78de57	-0.24303566
186	0xbe3c7381	-0.18403436
187	0x3e34dc30	0.1766212
188	0xbc4f5732	-0.012655066
189	0xbc763796	-0.015027901
190	0xbc69cd80	-0.014270186
191	0xbdc84f34	-0.09780732
192	0x3d177c3f	0.036983725
193	0xbdf16c69	-0.11788256
194	0xbe635e3a	-0.22203913
195	0x3db6aeb2	0.08920039
196	0xbe044479	-0.12916745
197	0x3c5125f3	0.012765395
198	0xbd10673c	-0.035254702
199	0x3e33f68d	0.1757452
200	0xbba73b38	-0.005103495
201	0x3e30ebe1	0.1727748
202	0xbd86b90b	-0.06578263
203	0xbe862b61	-0.2620497
204	0xbe8c86e6	-0.2744667
205	0xbe97e61d	-0.2966775
206	0x3e29006e	0.1650407
207	0x3d74d126	0.059769772
208	0x3d8261b2	0.0636629
209	0x3cbd926a	0.023141105
210	0x3d3d3f0d	0.046202708
211	0xbcc85e0f	-0.024458913
212	0x3ba6b585	0.005087557
213	0xbe55b789	-0.20870794
214	0x3d7ecf43	0.06220938
215	0xbd25a5fd	-0.040441502
216	0x3d208478	0.039188832
217	0x3d9055e2	0.07047631
218	0x3e1b0c62	0.15141442
219	0xbec0db46	-0.37667292
220	0xbd3c9edc	-0.046049938
221	0x3c7fe4c0	0.015618503
222	0x3e179248	0.14801896
223	0x3e044004	0.12915045
224	0xbeb9f1fb	-0.3631743
225	0x3dabf06f	0.083954684
226	0xbe95e422	-0.29275614
227	0xbe150510	-0.14552712
228	0x3dbc3861	0.09190441
229	0xbd7bf93e	-0.061516993
230	0xbc8cb918	-0.017178103
231	0x3e0708b6	0.13186917
232	0xbe65ab2b	-0.22428577
233	0x3e5193cf	0.20466541
234	0x3e3706de	0.17873713
235	0xbeac6484	-0.33670437
236	0x3e4315c7	0.19051276
237	0x3e837ac2	0.25679594
238	0xbe024900	-0.1272316
239	0xbdcac215	-0.099002995
240	0x3d84d244	0.064854175
241	0x3d56a202	0.052400596
242	0x3c48ff6d	0.0122679295
243	0xbdacc432	-0.08435859
244	0x3e7af180	0.24506187
245	0x3db6bacb	0.08922347
246	0xbefc4601	-0.4927216
247	0x3e3b9264	0.18317562
248	0x3c53d7c1	0.012929858
249	0xbe872eea	-0.2640298
250	0x3b784c33	0.0037887215
251	0xbce1eed4	-0.027579702
252	0x3ce1a5f1	0.027544947
253	0xbe2d57aa	-0.16927972
254	0xbe849202	-0.25892645
255	0x3e1a443b	0.1506509

q.2.bias f4 [256]
0	0x3e3f5ec4	0.18688494
1	0x40766890	3.850132
2	0x3d0d8188	0.03454736
3	0x3ebcbc31	0.3686233
4	0x3ff786c8	1.9338007
5	0x3bdad662	0.0066783885
6	0xbd3e4e39	-0.046461318
7	0x3ef886c5	0.4854032
8	0x3fe0c98f	1.7561511
9	0x3f736573	0.95076674
10	0xbbae3710	-0.0053166226
11	0xbd8385ad	-0.06421981
12	0x405cfa25	3.4527676
13	0xbd3fa5c3	-0.046788942
14	0x3cb0f5c4	0.021601565
15	0x3f563c35	0.8368562
16	0xbf07a627	-0.52987903
17	0x3d7ebd88	0.06219247
18	0x3f4d965b	0.8030755
19	0x3f47924b	0.779576
20	0x3f17aeba	0.59250987
21	0x3f9e18a7	1.2351273
22	0x3d6140c1	0.054993395
23	0x3e827255	0.25477853
24	0xbf25070f	-0.64463896
25	0x3f56af64	0.83861375
26	0x3f0ce59f	0.55037874
27	0x3f7fbb60	0.99895287
28	0x3eea50c2	0.45764738
29	0x3c120575	0.008912434
30	0x3eca7fc0	0.3955059
31	0xbd9c045e	-0.076180205
32	0x3cacfdd3	0.021117127
33	0x3f90f5cd	1.1325012
34	0x3c5d4d38	0.01350718
35	0xbecb03b9	-0.39651278
36	0x3d00383a	0.03130362
37	0x3efda974	0.49543345
38	0x4033acd7	2.8074243
39	0x3fb73ce6	1.431546
40	0x3fccba1d	1.5994297
41	0xbe456e68	-0.19280398
42	0x40190429	2.390879
43	0xbd8db5fc	-0.069194764
44	0xba7b6c7e	-0.0009591057
45	0x3f17e09c	0.593271
46	0x3f614a83	0.8800432
47	0x3e9516a9	0.2911885
48	0xbed50eda	-0.41612893
49	0xbceee260	-0.029160678
50	0x3e59fb6c	0.21287316
51	0xbb5ee672	-0.0034011868
52	0xbd85a1fb	-0.06525036
53	0x3fcaaaa3	1.5833324
54	0x3eb390c6	0.3507139
55	0xbe428dcc	-0.18999404
56	0xbe734a09	-0.23758711
57	0x3f81d4d5	1.0143076
58	0xbf11fc37	-0.57025474
59	0xbedc50c6	-0.43030375
60	0x3e69f147	0.22845946
61	0x3f693761	0.91100127
62	0x3cdca938	0.026936159
63	0xbd0e6919	-0.034768198
64	0x3fd8905b	1.6919054
65	0x3f133b0d	0.5751198
66	0xbd91a750	-0.071119905
67	0xbf1bd3e3	-0.6087019
68	0x3f43c6ca	0.76475203
69	0xbd8939da	-0.067004874
70	0x3cc66ecc	0.024222754
71	0xbd177811	-0.03697974
72	0x4006fb47	2.1090868
73	0xbd844ab4	-0.06459561
74	0x3df4e45b	0.11957618
75	0x4004913b	2.0713642
76	0xbcdb7356	-0.026788395
77	0xbd0e3041	-0.034713987
78	0xbef900c4	-0.48633397
79	0x3fb2c897	1.3967465
80	0x3f863e5a	1.0487778
81	0x3ff7983e	1.9343336
82	0x3ef6577f	0.4811363
83	0x3b957cee	0.004562012
84	0x3f8b4a1e	1.0881994
85	0xbd80997d	-0.062792756
86	0x3e542d11	0.20720316
87	0xbe78eb6a	-0.24308553
88	0x3f2fc778	0.6866374
89	0xbd30b766	-0.043143652
90	0x4044b04a	3.0732598
91	0xbb2fbe09	-0.002681615
92	0x3e011b93	0.12608175
93	0xbeb7db77	-0.35909626
94	0x406b25e2	3.6741872
95	0xbe9b78cc	-0.30365598
96	0x3fd3207e	1.6494291
97	0x3f22d79c	0.63610244
98	0x3febd222	1.8423502
99	0xbece2056	-0.40259045
100	0xbd43b1af	-0.047776874
101	0xbda0e04b	-0.078552805
102	0x3f5c9094	0.8615811
103	0x3c1f6c24	0.009730373
104	0x3d5ea657	0.054357853
105	0x3f5ff3e2	0.8748151
106	0xbd088fc4	-0.03334023
107	0xbdbcf03c	-0.092255086
108	0xbd4a967b	-0.049459916
109	0xbe8fd90a	-0.28095275
110	0xbcbe88e9	-0.023258643
111	0xbd9544c4	-0.072885066
112	0x3fca4582	1.5802462
113	0x3feb6193	1.8389152
114	0x3ff27fac	1.8945212
115	0xbed0001a	-0.40625077
116	0x3ebeb87b	0.37250122
117	0xbd924009	-0.0714112
118	0x3f41f9a5	0.7577155
119	0xbd17d2d9	-0.037066314
120	0x3d59dff3	0.05319209
121	0x3e061508	0.1309396
122	0x3f333298	0.69999075
123	0x3f59e897	0.8512053
124	0xbd58627b	-0.052828293
125	0x3fa23dc2	1.2675097
126	0xbd74ab70	-0.059733808
127	0x3c7681ea	0.015045622
128	0x4036b43f	2.8547513
129	0xbbf16b1e	-0.0073675057
130	0x3fe42139	1.7822639
131	0x40616453	3.5217483
132	0xbf2babfd	-0.6705931
133	0x3e584ffe	0.21124265
134	0x3ebea8c8	0.37238145
135	0x3f153256	0.5827993
136	0xbd66a1ec	-0.056306764
137	0x3cb56882	0.02214456
138	0xbefc58fe	-0.49286646
139	0x4045bb0f	3.0895422
140	0xbc435ab6	-0.011923483
141	0xbe363576	-0.17793831
142	0x3f367b31	0.71281725
143	0xbd79bf23	-0.060973298
144	0xbf0ac566	-0.54207456
145	0x3f092285	0.535683
146	0xbea6ea84	-0.32600796
147	0xbd84ac60	-0.064781904
148	0xbcfefac6	-0.031125437
149	0x3f1a2db7	0.60226005
150	0xbd7cc9c9	-0.061715875
151	0x3e4641c1	0.1936102
152	0xbd6b7da5	-0.05749287
153	0xbc82cdc6	-0.015967261
154	0xbee6541b	-0.44986042
155	0xbd91dee4	-0.07122591
156	0x3ee294ea	0.44254237
157	0x3ee61688	0.44939065
158	0x4023541d	2.5520089
159	0xbebbf558	-0.3671062
160	0x3eea664e	0.45781177
161	0x3ede936d	0.43471852
162	0x3fd1fcb8	1.6405249
163	0x3f55a8b6	0.8346056
164	0x3c87edff	0.016592978
165	0xbd71f213	-0.05906875
166	0xbe588897	-0.21145855
167	0xbd30b21e	-0.043138616
168	0x3faaffd8	1.3359327
169	0xbede1e47	-0.43382475
170	0x3ec311ee	0.38099617
171	0x3dcc5a2c	0.099781364
172	0xbed014a1	-0.4064074
173	0x3e0b3b0e	0.13596746
174	0x3f42b5a3	0.76058406
175	0xbd88fb2f	-0.066885345
176	0x3ef85991	0.48505834
177	0x3f01b4f6	0.5066675
178	0xbd9c3af9	-0.07628436
179	0x3ed537bf	0.41644093
180	0x3ab3c03e	0.0013713909
181	0x3f1c556b	0.6106784
182	0x3f57f176	0.84352815
183	0xbca99185	-0.020699272
184	0xbc61c8de	-0.013780801
185	0x3f82d0a5	1.0219923
186	0x3fdbea4c	1.7180877
187	0x4015de63	2.3416984
188	0x3fdd0ab0	1.7268887
189	0x3de8cda8	0.11367351
190	0xbd45f1fc	-0.048326477
191	0x3f7b03dd	0.9805277
192	0x3f467f34	0.77537847
193	0xbd0a5520	-0.033772588
194	0xbba17dac	-0.0049283113
195	0xbf1d2d1c	-0.61396956
196	0xbeaede5c	-0.34154022
197	0xbd45f720	-0.04833138
198	0x3e85a301	0.26100925
199	0x3ed0b949	0.4076636
200	0xbd90739a	-0.07053299
201	0xbd5e05f6	-0.054204904
202	0x3bd488d4	0.0064860377
203	0xbe1d9a0d	-0.15390797
204	0xbe5b3d3e	-0.21410081
205	0xbc9276b9	-0.017878877
206	0xbd6ace9f	-0.057325955
207	0x3f0efe97	0.55857223
208	0x3f9590cc	1.1684813
209	0xbc32d36c	-0.010914665
210	0x3dd149b7	0.10219138
211	0x3f4f4bf1	0.8097525
212	0xbf36a28c	-0.71341777
213	0xbf24fb79	-0.64446217
214	0x3dbfadf6	0.09359352
215	0x3fa52c1e	1.2904088
216	0xbd71b4f6	-0.05901047
217	0xbef91483	-0.48648462
218	0x3bcccbbc	0.006249873
219	0xbd66ae1d	-0.05631839
220	0x3b41df7c	0.002958267
221	0x3cd93581	0.02651477
222	0x3f8c6724	1.0968976
223	0x3c457ccd	0.012053681
224	0x4031e194	2.7793932
225	0x3f35c24c	0.709996
226	0xbd0dc22c	-0.034609005
227	0xbc56695a	-0.013086641
228	0x4021b01b	2.5263736
229	0x3ee46826	0.4461071
230	0x3f16d5d0	0.5892
231	0x3e14dfee	0.14538547
232	0xbd5db257	-0.054125156
233	0xbd44a2fb	-0.048006993
234	0x3e9c2cc8	0.30502915
235	0xbd3621b2	-0.044465728
236	0xbd75bed5	-0.059996445
237	0x3f03a45f	0.51422685
238	0x3e467531	0.19380642
239	0x3fe0a4b5	1.7550265
240	0xbd5d79cb	-0.05407123
241	0x3c473806	0.012159353
242	0xbe318c18	-0.17338598
243	0x3f4974d5	0.78693897
244	0xbd825e93	-0.06365695
245	0x3f9e8e70	1.2387218
246	0x3f20e4e3	0.62849253
247	0x3ee0e04d	0.43921128
248	0x3f5b427d	0.8564833
249	0x3be2d748	0.006922636
250	0x3f8c5b62	1.0965388
251	0xbf06d73b	-0.52672166
252	0xbdf777ee	-0.12083422
253	0xbcddd1ab	-0.027077517
254	0x3fb20ecf	1.3910769
255	0xbeb8b48e	-0.36075252

q.4.weight f4 [10, 256]
0	0xbe752f09	-0.23943724
1	0x3ed14154	0.40870154
2	0x3d40ec17	0.047100153
3	0xbfc31da4	-1.5243421
4	0xbf470876	-0.77747285
5	0x3d4421ac	0.047883675
6	0x3acaf697	0.0015484866
7	0xbdde39ff	-0.108509056
8	0xbfc7a608	-1.5597544
9	0xbf4b4d4c	-0.7941482
10	0xbc7b1540	-0.015324891
11	0x3c8a1ed7	0.016860409
12	0xbec6addd	-0.38804522
13	0x3d245740	0.04012227
14	0xbc966524	-0.018358774
15	0xbf900277	-1.1250752
16	0xbe9dcfc0	-0.30822563
17	0x3cd26430	0.025682539
18	0xbf648d45	-0.8927806
19	0xbfa7b8e4	-1.3103299
20	0xbe3f1852	-0.18661621
21	0xbdd76e7f	-0.10519122
22	0x3bd043c8	0.0063557364
23	0xbce71fd9	-0.028213428
24	0xbf7d6f05	-0.9899753
25	0xbf885e56	-1.0653789
26	0x3c831afe	0.016004082
27	0xbebd4400	-0.36965942
28	0xbe5a61b7	-0.21326338
29	0xbce0d93e	-0.02744734
30	0xbf41102a	-0.7541529
31	0x3c570771	0.013124333
32	0x3d20863c	0.039190516
33	0xbf972355	-1.1807657
34	0xbd5c1df9	-0.05373952
35	0xbe75a653	-0.23989229
36	0x3affc0e3	0.0019512441
37	0xbfa15b19	-1.2605926
38	0xbf569da3	-0.83834285
39	0xbf35f9be	-0.710842
40	0xbe4c2d99	-0.19939269
41	0xbde00011	-0.10937513
42	0xbd54fd5c	-0.051999435
43	0xbd77856f	-0.060429987
44	0x3ce5acc5	0.028036484
45	0xbc7e4cd9	-0.015521252
46	0xbfb2df34	-1.3974366
47	0xbfd34c5e	-1.650768
48	0xbe40214a	-0.18762699
49	0x3d27badc	0.040949687
50	0x3c1b28ca	0.009470174
51	0xbd7bd7ba	-0.06148503
52	0xbc93cc5c	-0.018041782
53	0xbf84c7de	-1.0373495
54	0xbee95238	-0.4557054
55	0xbdd93e30	-0.106075644
56	0xbdd286ff	-0.10279655
57	0x3e4ba0c3	0.19885544
58	0xbeb58f65	-0.35460964
59	0xbf022868	-0.50842905
60	0xbf84867c	-1.0353541
61	0xbfc6c9f3	-1.553038
62	0x3cfeab7f	0.031087635
63	0x3d0963f9	0.033542607
64	0xbfa115e5	-1.2584807
65	0x3c974335	0.018464664
66	0xbd70bd1a	-0.05877409
67	0xbe9da874	-0.30792582
68	0xbf9a4b01	-1.2054139
69	0xbd5dab88	-0.054118663
70	0x3d170cfa	0.03687761
71	0x3d1848e5	0.037178893
72	0xbf735cdd	-0.95063573
73	0x3aa4c27e	0.001257017
74	0xbf893559	-1.0719405
75	0xbf6e474b	-0.93077534
76	0x3b868b22	0.0041059414
77	0x3c529450	0.012852743
78	0xbed4345a	-0.4144619
79	0xbf5c3cf7	-0.86030525
80	0xbebe4702	-0.3716355
81	0xbf5e7a68	-0.8690553
82	0xbde67dac	-0.11254439
83	0x3d1aad71	0.037763063
84	0x3d276329	0.04086605
85	0x3d4a8102	0.049439438
86	0xbfb28625	-1.3947188
87	0xbc810c4f	-0.01575294
88	0xbf92e5c8	-1.1476374
89	0xbcbb2750	-0.022845894
90	0xbf182de2	-0.5944501
91	0xbcfc0eac	-0.030768715
92	0x3d0dab7e	0.034587376
93	0xbe6fc63a	-0.23415461
94	0x3ee189af	0.44050357
95	0xbd33626a	-0.043795027
96	0xbf23ae7d	-0.63938123
97	0x3d2c0d81	0.042005066
98	0xbe58a96e	-0.21158382
99	0xbe9422c7	-0.28932783
100	0xbd13ec81	-0.03611422
101	0xbdf5e115	-0.120058216
102	0xbf626eb8	-0.88450193
103	0xbc41a720	-0.011819631
104	0xbe84be4d	-0.25926438
105	0xbf8d03f3	-1.101683
106	0x3cadfe6d	0.021239484
107	0xbd5c842b	-0.053836983
108	0x3bfc5390	0.007700391
109	0xbe6342f8	-0.22193515
110	0xbd8c7f69	-0.06860239
111	0x3d3ba01a	0.04580698
112	0xbf935207	-1.1509408
113	0xbf940a29	-1.1565601
114	0xbf42daf7	-0.76115364
115	0xbf01528c	-0.5051658
116	0xbeab7b75	-0.33492628
117	0x3d58c8c1	0.05292583
118	0xbed882a9	-0.42287186
119	0x3cf16018	0.029464766
120	0xbe574a31	-0.21024396
121	0xbff6d497	-1.9283627
122	0xbf1e575c	-0.6185205
123	0xbf022bb4	-0.50847936
124	0xba095c80	-0.0005239919
125	0xbeca2699	-0.39482573
126	0xbd2d9ab7	-0.042383876
127	0x3d2ebc58	0.042660087
128	0xbf1d2f97	-0.6140074
129	0xbd8c6cde	-0.06856702
130	0xbf7e6a0f	-0.9938058
131	0x3e8a0655	0.26957956
132	0xbf72e169	-0.948752
133	0xbc88cf2d	-0.016700352
134	0xbd8ddbca	-0.06926687
135	0xbf82edec	-1.0228858
136	0xbc8bb679	-0.017054783
137	0xbcb1b6fd	-0.0216937
138	0xbe99f970	-0.30073118
139	0xbde323b7	-0.110907964
140	0x3c4abb78	0.012373798
141	0x3c095661	0.008382411
142	0x3dcff6b6	0.10154478
143	0x3d4db566	0.050221823
144	0xbfbdf457	-1.4840192
145	0xbfa15b4a	-1.2605984
146	0xbe39c598	-0.18141782
147	0x3bf99b4e	0.0076173907
148	0xbd1e261c	-0.038610563
149	0xbfa46a16	-1.2844875
150	0x3cf04998	0.029331967
151	0xbdee4d79	-0.116358705
152	0xbd61d5a0	-0.05513537
153	0x3bcaa604	0.0061843414
154	0xbe8cbca3	-0.27487668
155	0xbb74a0e0	-0.0037327334
156	0xbf9b67b3	-1.2141021
157	0xbf8fa1ce	-1.1221254
158	0xbf297580	-0.66194916
159	0xbe43baf2	-0.19114283
160	0xbf960714	-1.172091
161	0xbde0d93a	-0.10978933
162	0xbf8406a7	-1.031453
163	0xbfb0393f	-1.376747
164	0xbd93ff6a	-0.07226451
165	0x3cbdee4f	0.023184923
166	0xbc871597	-0.016489787
167	0x3ca6066e	0.020266738
168	0xbf28dc9a	-0.6596161
169	0xbeb094ea	-0.34488612
170	0xbf99c95e	-1.2014577
171	0xbbe31121	-0.006929532
172	0xbea3e3e4	-0.32009804
173	0xbd0815ec	-0.03322403
174	0xbf48bd4d	-0.7841385
175	0xba545861	-0.00081003277
176	0xbd668e53	-0.056288075
177	0xbd2d2649	-0.04227284
178	0x3d276cca	0.040875234
179	0x3d13d54d	0.03609209
180	0x3d2487c2	0.04016853
181	0xbf70f85b	-0.9412896
182	0xbf96fdb4	-1.1796174
183	0x3d62f796	0.055411898
184	0xbd52d6b3	-0.051474284
185	0xbfbdf5b1	-1.4840604
186	0xbfbddb1d	-1.4832493
187	0xbf8d5e73	-1.1044449
188	0x3dd3d55b	0.10343429
189	0xbd5bd134	-0.05366631
190	0x3c3a61b5	0.011375834
191	0xbf9b157b	-1.211593
192	0xbe07a871	-0.13247849
193	0xbcf0579b	-0.029338649
194	0xbc7dbe70	-0.015487298
195	0xbe99ec62	-0.30063158
196	0xbd85f0f1	-0.065400966
197	0x3cdd79e3	0.02703566
198	0xbdacb17a	-0.084322885
199	0xbe56ef6c	-0.2098977
200	0x3d4eebda	0.050517894
201	0x3d1b311e	0.03788864
202	0xbc11221f	-0.008858233
203	0xbdd8ec53	-0.1059195
204	0xbe4361e3	-0.1908031
205	0xbb04c9cf	-0.002026189
206	0xbc0a703b	-0.008449609
207	0x3d7d15a4	0.061788216
208	0xbf32f55b	-0.6990563
209	0xbd0f6b98	-0.03501472
210	0xbf887429	-1.0660449
211	0xbe265801	-0.16244508
212	0xbf6893a9	-0.9085031
213	0xbed5d518	-0.4176414
214	0xbd007d27	-0.031369355
215	0xbe3ba2c5	-0.1832381
216	0xbd627e74	-0.055296376
217	0xbe8a08ee	-0.26959938
218	0xbc9c56ca	-0.019084353
219	0xbd5c9b30	-0.053858936
220	0xbc9857c1	-0.018596532
221	0x3d4873b6	0.048938476
222	0xbfaf7301	-1.3706971
223	0x3d2595fc	0.04042624
224	0xbecb3a48	-0.39692903
225	0xbfb7fc4b	-1.4373869
226	0x3b561440	0.0032665879
227	0x3d1982d2	0.037478276
228	0xbf7a7200	-0.978302
229	0xbf701acf	-0.93790907
230	0xbfd4b505	-1.6617743
231	0xbe44e34f	-0.19227336
232	0x3c2b0d73	0.010440218
233	0xbd0114f7	-0.031514134
234	0xbf990317	-1.1954068
235	0xbb605f85	-0.0034236622
236	0x3d32e5da	0.043676235
237	0xbe59f673	-0.21285419
238	0xbc652f16	-0.013988277
239	0xbf67d168	-0.90553904
240	0xbd12ea04	-0.035867706
241	0x3cb93560	0.022608459
242	0xbefa1b78	-0.48849082
243	0xbf4c861c	-0.79892135
244	0x3d5b4934	0.05353661
245	0xbe6c0060	-0.23047018
246	0xbf9d85e2	-1.2306483
247	0x3e18df62	0.14928964
248	0xbf64f582	-0.89437115
249	0xbd9cc040	-0.07653856
250	0xbeb2e5b8	-0.34940886
251	0xbe71ba61	-0.23606254
252	0xbd8dd592	-0.06925501
253	0x3bcc9a15	0.006243954
254	0xbf11e386	-0.569878
255	0xbe1179bb	-0.14206593

q.4.bias f4 [10]
0	0x403b5889	2.9272788
1	0x40c953e6	6.2914915
2	0x410931c4	8.57465
3	0x40bb517e	5.853698
4	0x4018b783	2.3862007
5	0x40a0799a	5.014844
6	0x41835c30	16.420013
7	0x3f7cd67c	0.9876478
8	0x413265f9	11.149896
9	0x409ef2dd	4.9671464
