task4/task3_experiment_2_b_local_q1.pt (torch, 281951 bytes, 6 tensors)

q.0.weight f4 [256, 5]
000000 8c 2b 8c bd b8 6b c0 3e 12 c6 a6 be f0 83 cd 3d
       -0.068442434 0.37582183 -0.3257299 0.10034931
000010 80 80 b0 3d f0 e6 5b b9 46 f6 0d 3b cd be 33 bb
       0.086182594 -0.00020971498 0.0021661683 -0.0027426959
000020 10 d9 08 3b 8c 30 8e 3e 14 23 31 be 99 91 07 be
       0.0020881332 0.27771413 -0.17298537 -0.13239135
000030 74 34 fa bd 78 9d 31 bd b2 c1 86 3e 61 d1 20 3c
       -0.12217036 -0.043363065 0.26319653 0.009815545
000040 45 8c 85 38 65 9a a4 3c 80 b8 16 bb 90 63 a5 3d
       6.3680614e-05 0.020093152 -0.0022998154 0.08075631
000050 21 1e 2b b9 88 b2 82 3a 0f f6 bf ba be bf 3a 3a
       -0.00016319055 0.0009971419 -0.0014645475 0.0007123909
000060 0a 93 ba 3e e9 2d 39 38 cc 60 c5 ba 14 1e 93 b9
       0.36440307 4.4150194e-05 -0.0015058755 -0.00028060435
000070 25 95 3a ba 36 ee 1f be 48 88 ca 3d d2 9c 05 3e
       -0.0007117561 -0.15618214 0.09889275 0.13048103
000080 84 32 66 be 38 b7 26 bd c8 48 49 3e c1 e8 c3 3a
       -0.22480208 -0.040702075 0.1965667 0.0014946685
000090 b6 f5 14 b9 97 5e 89 3b 9b 8c ae 37 7e 82 d2 3e
       -0.00014205914 0.004192184 2.080789e-05 0.41115183
0000a0 65 65 fa 3d 12 db 8d 3c d0 79 a4 bd 1b 77 0c 3c
       0.12226371 0.017316375 -0.080310464 0.008573319
0000b0 26 01 a2 3e 9f c7 cc 3c 28 df 37 3d a7 d1 15 3d
       0.316415 0.02499753 0.044890553 0.036576893
0000c0 80 de 36 3d 20 68 d4 3c bd f6 25 bb 5c 88 55 bd
       0.044645786 0.025928557 -0.002532407 -0.052131996
0000d0 af 14 a2 3c 7e 0c 98 bd 66 24 b9 3e 74 8e 16 3e
       0.019785253 -0.07424258 0.36160582 0.14702779
0000e0 80 e6 96 be bd 82 68 be 1f d4 7d bd 84 5e e3 3e
       -0.29472733 -0.22706123 -0.061969873 0.44408047
0000f0 f0 e1 6f 3f 5a 45 d3 be 83 d5 b3 be ac 35 cf 3e
       0.9370413 -0.4126385 -0.35123834 0.40470636
000100 c4 91 c8 bd e8 1f 9d 3c d8 a8 ee bd a5 c6 9d 3d
       -0.097934276 0.019180253 -0.11653298 0.07703904
000110 57 b5 bb bd 44 6c cf 3e 4c ef 8a bd 3d 88 5c be
       -0.09165447 0.40512288 -0.067839235 -0.21536346
000120 1c 5a 84 bd 9f 54 50 be 78 3c 2a 3d d4 35 36 3e
       -0.064624995 -0.2034478 0.041561574 0.17793971
000130 2a 89 34 be c0 50 79 3d 80 56 42 bb 80 7a 95 bd
       -0.17630449 0.060868025 -0.0029653609 -0.07298756
000140 3d 20 76 bc 16 9d 03 bd 5a d3 bc bc 8b 5c 35 bd
       -0.015022335 -0.03213223 -0.023049999 -0.04427771
000150 8e d0 ce be 70 f6 ec bd ca 7f 63 be 0c 07 dd bd
       -0.4039349 -0.11570442 -0.22216716 -0.1079236
000160 40 86 51 be b0 07 9a 3e cf fe e0 bc 8d 5d af bc
       -0.20461369 0.3008399 -0.027465252 -0.021406913
000170 c2 4b 37 bd 11 78 1e bd b7 b3 94 be 9f 95 08 be
       -0.044749983 -0.038688723 -0.29043362 -0.13338326
000180 bc 37 cc bc 09 66 0a bf f4 a2 84 bc 30 9b db 3d
       -0.02492892 -0.54061943 -0.016190983 0.10722959
000190 d3 65 23 ba e7 18 c3 ba 12 ea cf ba 06 fc 4e bb
       -0.00062331295 -0.0014884741 -0.0015862605 -0.0031583323
0001a0 14 26 93 be c2 c0 01 bb e5 e4 e1 ba 0e 27 40 bb
       -0.2873999 -0.001979873 -0.0017234354 -0.0029320153
0001b0 8f a5 8b ba 1c f2 c9 be 84 b6 90 bf c2 00 b6 be
       -0.0010654199 -0.39442527 -1.1305699 -0.35547453
0001c0 04 51 98 3e ca 08 38 3e 1a 1d 25 be 80 0d 10 bb
       0.2974931 0.17972103 -0.16124383 -0.0021980703
0001d0 8b 6d fc b9 f3 df a2 3b 54 be 95 3a 68 31 c1 be
       -0.000481468 0.0049705445 0.001142452 -0.37733006
0001e0 e9 23 41 3a cb 85 24 3a 8a ea fb ba db fd 55 bb
       0.0007367717 0.000627604 -0.0019219678 -0.003265253
0001f0 40 a0 9a 3d 99 6f 00 3b 62 09 56 b9 ab f6 d2 3a
       0.075500965 0.0019597767 -0.00020412126 0.0016095241
000200 80 53 8f b9 60 3f 32 bd f1 cb aa 39 1d 3e 28 3b
       -0.00027337298 -0.04351747 0.00032576875 0.0025671788
000210 ab 56 85 ba c6 66 f0 3a 10 a1 c6 3d da f1 04 3f
       -0.0010172924 0.0018341176 0.09698689 0.51931536
000220 76 b8 4b be 4c 0e 27 be 4f 0e 2a 3d ae 7f 97 3e
       -0.19894585 -0.16314048 0.041517552 0.295896
000230 90 b5 d3 bd 35 78 9c bd 26 66 52 be 93 b6 2e bd
       -0.10337365 -0.07640115 -0.20546779 -0.042654585
000240 b6 2f 90 3e 7c 70 12 ba 25 8f 8b 3a f1 70 02 bb
       0.281614 -0.00055862195 0.0010647519 -0.0019903744
000250 0a 3e da b9 14 8c 85 bd be 38 bf ba 63 fd 1d 3b
       -0.00041626423 -0.065208584 -0.0014589054 0.002410733
000260 c9 71 c7 ba e3 64 3b 3a 5d 2c ab be 9e 0a c7 ba
       -0.0015216406 0.0007148517 -0.33432284 -0.0015185659
000270 6c b4 16 3b 2b 91 9c 39 2b bf e6 3a cd 3f e2 be
       0.0022995723 0.00029862797 0.001760458 -0.441893
000280 c8 57 3f 3a 90 95 a2 ba bf 50 13 3b 36 94 00 bb
       0.0007299152 -0.0012404192 0.0022478548 -0.001961959
000290 9f b8 b7 be a5 b4 29 be 02 59 66 be d5 22 a2 be
       -0.35883042 -0.16572817 -0.22494891 -0.316672
0002a0 b8 ff ac be 92 87 af 3e 67 d9 9f bd 61 34 4d bd
       -0.33788848 0.3428312 -0.07805138 -0.05009878
0002b0 fb 03 47 3d 88 7b 86 3d 9a 37 8c 3e dc a9 7a 3d
       0.04858778 0.065665305 0.2738617 0.061197147
0002c0 d0 01 1a bb a5 4d 9e 3d 36 14 15 bc 63 23 b4 be
       -0.0023499615 0.07729653 -0.009099057 -0.35183248
0002d0 d9 61 a8 3d 43 19 f9 3b ac f5 41 3d cd 87 38 3e
       0.08221788 0.0076018884 0.04735343 0.18020554
0002e0 8c 1d 7a 3e 82 65 f6 3a 84 bc 84 39 3a c9 69 3a
       0.24425334 0.0018798562 0.00025317457 0.000891823
0002f0 c4 fa 5e 3a 40 9e 38 bd 5d cf 98 bb 4e 4b 88 3b
       0.0008505995 -0.045072794 -0.0046633915 0.0041593676
000300 45 0c 0e 3b bc 85 19 3a 50 1c 91 3d 8a 40 26 3d
       0.0021674794 0.0005856415 0.07085478 0.040588893
000310 c2 c8 8f 3b c9 4b e9 3c 91 8d de 3b 30 ea 44 3d
       0.004387946 0.02847852 0.0067917784 0.0480749
000320 64 de 51 be 1a d4 0c bf ed 50 89 bf 98 08 eb be
       -0.20494992 -0.5501114 -1.0727822 -0.45904994
000330 5c cc 10 3e 9f ef 90 bd 94 b4 64 be 42 bf d8 3d
       0.14140457 -0.07076954 -0.2233451 0.105833545
000340 f0 a9 25 bf 6a 13 93 be 84 66 85 3b c9 b2 d8 b8
       -0.6471243 -0.2872575 0.0040710587 -0.00010332984
000350 c3 13 0d 3b 20 d0 7a bb 2a a9 68 be c2 52 00 be
       0.0021526671 -0.0038271025 -0.22720781 -0.1253157
000360 d8 e2 3b be a8 19 ab be 61 ca 92 be 30 bc b5 3e
       -0.18348253 -0.33418012 -0.28670028 0.35495138
000370 b1 bd 4d be 54 f9 2e 3f c5 b5 c5 be 47 40 e0 3e
       -0.20091893 0.68349195 -0.38615242 0.4379904
000380 f8 d7 f2 3d f6 29 53 3e aa 2b 2b 3c 04 9a 1f 3d
       0.11857599 0.20621476 0.010447422 0.03896524
000390 44 7b 60 3e 90 53 81 be 42 d4 67 bb ca 3e 45 bb
       0.21922022 -0.25259066 -0.0035374318 -0.003009724
0003a0 f3 c9 be ba 48 ca 16 bb 04 ae 28 3e 65 3e f6 bc
       -0.0014556035 -0.0023008753 0.16472632 -0.030059049
0003b0 6f e1 57 be d8 16 94 bd 04 e5 5e be 5c 7d 59 3e
       -0.2108209 -0.072309196 -0.2176705 0.21239227
0003c0 65 13 7a bd 41 69 07 3d ae b8 3c 3d b1 39 20 3e
       -0.061053652 0.033059362 0.04607456 0.15647008
0003d0 8c 44 5c be b4 74 a0 be cf e7 11 bf 59 e4 7b bd
       -0.21510524 -0.31339037 -0.56994337 -0.061497066
0003e0 49 b0 fd bd 9a cd 8d 3e 8a df 23 3b 8c 0b 14 ba
       -0.12387139 0.27695924 0.0025005066 -0.00056474726
0003f0 fc 2b 39 3b 61 8d 94 ba ca a5 b4 3e 7c e7 b8 3e
       0.0028254976 -0.0011333638 0.35282737 0.3611411

q.0.bias f4 [256]
000000 57 39 dc be 39 7d 21 bb c3 58 3d 3d 3b c6 41 bc
       -0.43012497 -0.002464129 0.046227228 -0.011827047
000010 20 f6 e5 ba d9 7a ba ba 8a 29 49 3d cf e0 11 bb
       -0.0017544664 -0.0014227285 0.04911188 -0.002225924
000020 b6 cf e0 bd 70 ae 4e bd 3a c3 b0 3c d0 39 98 3e
       -0.10977118 -0.050459325 0.021577466 0.29731607
000030 5f 16 5f 3f 76 d8 bb bd 78 a7 13 be 39 ec 9a be
       0.8714351 -0.09172146 -0.14419353 -0.3025835
000040 f7 c9 e4 bc b4 82 2d be ea 45 4b bd 94 c0 24 3d
       -0.027928336 -0.1694439 -0.049627222 0.04022272
000050 62 af 03 bb f3 60 5f bb 55 38 89 3f d1 c0 aa bb
       -0.002009355 -0.0034084886 1.0720316 -0.005210974
000060 81 78 a7 bb a5 af 92 ba ea 77 11 bb 14 89 b4 3e
       -0.0051108007 -0.0011191262 -0.0022196718 0.35260832
000070 cc fc 2b bd 85 d2 ea ba db fd 15 bb 12 f3 44 bb
       -0.041989133 -0.0017915523 -0.0022886905 -0.0030052108
000080 cd fd 23 bb 6f 44 e2 3c 1c fa 0d 3d 6c 4b 32 bd
       -0.0025023103 0.027620522 0.03466235 -0.04352896
000090 09 8f 13 3c 6a 35 cf ba f5 0a bf bb 0b bb e1 bc
       0.00900627 -0.0015808765 -0.0058301636 -0.02755501
0000a0 d8 da 4e 3c 19 35 a8 bd ce 7e 91 bb cc 48 d6 be
       0.012625419 -0.082132526 -0.004440165 -0.41852415
0000b0 66 55 4d bd 5b 63 e8 3d d4 d9 74 bb 71 3a 17 be
       -0.05013027 0.113470756 -0.003736128 -0.14768387
0000c0 5d e0 08 be 44 85 f7 3d 5e 71 0e bb cd ab ca be
       -0.13366838 0.12085965 -0.0021735053 -0.395842
0000d0 e7 9e 05 bd 95 09 2a 3d 22 10 1a bb 64 2f 06 bb
       -0.032622244 0.041513044 -0.002350815 -0.0020475024
0000e0 43 08 27 bc a3 cb ce be dc 3d 39 bb fb 05 30 3f
       -0.010194841 -0.40389737 -0.002826563 0.68759125
0000f0 a0 ad 3e bb 76 9a a3 bd 53 87 5c bd 7d d9 cc bd
       -0.0029095188 -0.079884455 -0.053839993 -0.1000242
000100 1c 85 dd 3c bb d6 ca be e4 55 fc ba 56 cc 5b 3c
       0.02704101 -0.3961695 -0.0019251672 0.013415417
000110 51 22 0c 3f f8 76 dc ba 2e b0 6a 3d e7 ff bd be
       0.5473986 -0.0016820123 0.057296924 -0.371093
000120 23 25 8e 3b 6a 66 e3 be ed ba e8 ba 25 8f 2b bb
       0.004337923 -0.44414073 -0.0017755904 -0.002617785
000130 10 b7 e9 bb 7c 2e b7 bd 42 24 3f bd 02 74 a8 bd
       -0.0071324185 -0.08944413 -0.046665438 -0.08225252
000140 60 ba a0 be 22 9d b3 ba 43 dd ae ba 48 52 02 bd
       -0.31392193 -0.0013703445 -0.0013341088 -0.03181675
000150 f9 44 06 3f a4 d3 bc be 4b 37 89 3e 94 13 0b bb
       0.52448994 -0.3688022 0.26799998 -0.0021221386
000160 8a c0 13 be ee 8a 19 bb 1f b8 a7 bd 60 57 0c bd
       -0.14428917 -0.0023428756 -0.08189415 -0.034263015
000170 c0 62 be be e9 73 d2 be 20 6a 8b bb 8e 70 73 be
       -0.37184715 -0.41104057 -0.0042545944 -0.23773405
000180 8b 69 16 bb 01 cf 44 bd a1 43 b1 be f2 3c 77 bd
       -0.0022951092 -0.048048977 -0.3462191 -0.060360856
000190 a2 93 c5 be ed 8b 8f be 85 35 ea 3c fe 8e dc bd
       -0.38589197 -0.28036442 0.028589973 -0.10769461
0001a0 60 64 9c 3d 44 f7 1d be d1 21 82 3e 73 48 1e bb
       0.076363325 -0.15426356 0.25416425 -0.002415207
0001b0 04 9f e2 3e cc 30 f9 bd 2f 55 06 bb 26 7c 2e bb
       0.44261944 -0.121675104 -0.002049755 -0.0026624291
0001c0 f2 24 c0 be 88 95 2e bb e6 7f b8 be f6 9c 00 3e
       -0.37528187 -0.002663942 -0.3603508 0.12559876
0001d0 0b 52 a0 3d 54 67 17 be 74 7d 28 bb fe d0 02 3e
       0.078281485 -0.1478551 -0.0025709542 0.12775037
0001e0 f4 52 01 bb 7c 8f d9 3e fc 5a c3 3c 2c 59 99 3f
       -0.0019733282 0.42492282 0.023847096 1.1980338
0001f0 36 d1 c3 bd 2d af fe 3c 61 0b d4 ba 6d f1 7f bd
       -0.09561388 0.03108939 -0.0016177708 -0.0624861
000200 32 2a 8b 3d 49 61 be 3e 8e 77 d7 be 63 a8 39 be
       0.067951575 0.37183598 -0.420834 -0.1813064
000210 f1 62 57 bb a3 71 f6 ba 79 1d 94 be 86 b7 86 3d
       -0.003286537 -0.0018802177 -0.28928736 0.06577973
000220 ac 8a 78 bb 67 25 e8 bc cf 73 ce ba b5 2c a7 ba
       -0.0037924452 -0.028338147 -0.0015751066 -0.0012754413
000230 ba 77 75 be f5 07 85 be 3d 05 7b be f7 3c 05 be
       -0.23971453 -0.25982633 -0.24513717 -0.13011537
000240 e6 b9 9c be d0 bb 50 bc 7e b0 00 bb 62 8a 5f bb
       -0.3061058 -0.0127400905 -0.0019636448 -0.0034109582
000250 13 fe 74 3e 00 a8 89 3c 07 b1 ee bd 9e 5f e0 3e
       0.23925047 0.016803741 -0.11654859 0.4382295
000260 ea f4 88 3f bf b1 6f ba 8a 0e 32 3e d8 a7 1a bc
       1.0699742 -0.00091436127 0.17388359 -0.009439431
000270 92 d8 bd 3e 53 01 e7 3d 86 14 77 bb 5d 40 eb bd
       0.37079293 0.112795494 -0.0037701442 -0.11486886
000280 0c f6 ec bd 8b 4b 94 bb b5 94 f4 ba ac e3 0f bd
       -0.11570367 -0.004525607 -0.0018660041 -0.035129234
000290 5e 60 7a bc fa 64 51 bb 49 3a fb ba 05 aa b0 ba
       -0.015281765 -0.0031951056 -0.0019167151 -0.0013478404
0002a0 aa 65 62 3e 61 9d 23 bb 94 94 27 be 46 52 36 bc
       0.22109094 -0.0024965631 -0.16365272 -0.011128014
0002b0 e2 d2 f6 3b c0 23 07 bb f2 53 b8 be e9 92 a9 bd
       0.0075324634 -0.0020620674 -0.36001545 -0.08279974
0002c0 d1 28 d3 be 96 a2 02 bb 70 5e 83 bb c5 34 29 be
       -0.41242078 -0.0019933335 -0.0040090606 -0.16524036
0002d0 e3 15 e6 bd 91 05 84 bc b4 58 7f ba 4f 1a a0 bb
       -0.11234643 -0.016115936 -0.0009740696 -0.0048859487
0002e0 fa 43 34 bc 44 e4 84 be 78 a7 f6 bc 07 92 fd ba
       -0.011002535 -0.25955403 -0.030109152 -0.0019345888
0002f0 18 95 ad be 1a 99 a0 bd 1a 88 89 3f 5a 49 60 bd
       -0.33902812 -0.07841702 1.074466 -0.054757454
000300 fe ab 08 bb 4c 41 c5 be 46 31 76 3e aa 88 e2 ba
       -0.0020854468 -0.3852638 0.24042234 -0.0017283161
000310 f8 d2 2e be 7d 83 1a be 64 19 ab ba d7 00 9f 3e
       -0.17072666 -0.15089221 -0.0013053832 0.31055328
000320 32 5d a1 3d e2 48 47 bb d0 53 e2 be 2b 91 39 3e
       0.07879104 -0.0030408432 -0.4420457 0.18121783
000330 07 55 7c bb 29 c1 22 3e 9e ec ab 3d 8d 8d 8a bd
       -0.0038502829 0.15893997 0.083947405 -0.0676528
000340 0f b9 b1 be 80 ef e4 bb 00 ef 20 be eb d3 b1 ba
       -0.347115 -0.0069865584 -0.15716171 -0.0013567185
000350 b7 b3 8c bd 3e 3e 48 be ea 81 91 bb b5 80 0d bc
       -0.068702154 -0.19554994 -0.004440536 -0.008636643
000360 14 0e b7 3e cd 6d 50 3c 93 db 16 bb f5 e4 21 bb
       0.35752928 0.012721491 -0.002301906 -0.002470312
000370 a7 d4 0f bd 0a ab 79 3d b5 3c 36 bb f4 c5 d7 bd
       -0.03511491 0.06095413 -0.002780718 -0.105358034
000380 5c 80 bf bc c3 73 57 3e de 9d 8a be 7d 25 db 3c
       -0.023376636 0.21040253 -0.27073568 0.026751274
000390 58 ab 42 3e f2 57 40 bc de ec 9e be bb c5 f8 3e
       0.19010675 -0.011739718 -0.3104009 0.48588356
0003a0 3b e6 32 be cb c5 b1 3e 48 a2 d4 ba f8 43 9b 3c
       -0.17470638 0.34721217 -0.001622268 0.018953308
0003b0 fe d7 98 bd e4 b6 16 bb 24 b8 a4 bd 1d 81 cb bd
       -0.07463072 -0.0022997195 -0.080429345 -0.09936736
0003c0 db a1 bb ba b5 7f 71 3e 3f 1b a8 3e 71 22 19 3e
       -0.0014315204 0.23583873 0.32833287 0.14954545
0003d0 51 c2 cc 3d 37 70 82 3f 01 53 d4 bd 34 b4 c9 be
       0.099980004 1.0190495 -0.10367394 -0.39395297
0003e0 37 90 84 be b7 ea 59 bd d5 38 7e 3c 72 26 ef ba
       -0.25891277 -0.053202357 0.0155164795 -0.001824571
0003f0 29 5e 6e bd f2 53 fb 3d d8 38 32 3f b6 b6 b4 3c
       -0.058195267 0.12271871 0.69617987 0.02205978

q.2.weight f4 [256, 256]
000000 a0 19 94 3c 24 ee d9 3c 1c 71 59 3c cd 17 40 3d
       0.018078625 0.026602812 0.013271596 0.0468977
000010 d8 ee 13 bd 65 c4 d8 3c 5f c9 b0 3c 40 94 96 3b
       -0.03611645 0.026460836 0.021580396 0.0045953095
000020 20 12 94 bc f0 86 63 bd bd df 12 bd 3f 46 37 bb
       -0.018075049 -0.05554861 -0.035857905 -0.0027965454
000030 84 fb fb 3b 18 66 67 bd ca e5 77 3c 84 cc 25 bd
       0.007689895 -0.05649385 0.01513047 -0.040478244
000040 9d af 3e 3d 24 7f d3 b9 61 86 6c bd 5c 1b 02 bd
       0.046554197 -0.00040339783 -0.05774534 -0.031764373
000050 c6 c2 61 bd ee d6 89 bd 70 2b 0a 3d db 62 e0 bc
       -0.05511739 -0.06730448 0.03373283 -0.027390888
000060 23 60 7c 3c a7 13 49 3d 70 34 5d 3c 22 9f 33 bd
       0.01540378 0.049091008 0.013501272 -0.043852933
000070 0d 04 1a 3c c3 ae d9 bb eb 8f 2d bc 62 82 c2 bb
       0.00940038 -0.0066431477 -0.010593395 -0.005935953
000080 42 62 3e 3d 54 ed 61 bd 30 4e 85 bc 18 cb 14 bc
       0.046480425 -0.055157974 -0.016272634 -0.009081624
000090 e4 80 ab 3c 43 cf d0 ba 1b ed 4d bd a0 73 97 bc
       0.020935483 -0.001593091 -0.05027495 -0.018487751
0000a0 81 37 53 bc b5 1f bc 3c 0a 5d b6 bc ee 71 4b 3d
       -0.012891651 0.022964338 -0.022261161 0.0496692
0000b0 dc d4 0f 3d 26 c7 07 bd 57 12 76 bd 0c 03 f2 bc
       0.035115108 -0.033148907 -0.060076084 -0.029542468
0000c0 80 34 02 bd 05 4a 21 3d 41 1d 72 3c 90 a4 a1 bc
       -0.03178835 0.03937723 0.0147774825 -0.01973179
0000d0 89 a1 2f bd 80 f1 99 bd 85 63 7b bc 2b 20 75 bd
       -0.04287866 -0.075167656 -0.0153435515 -0.05984513
0000e0 3b 32 f0 3c 7e a8 2a bd aa c4 d2 3c f9 71 9b bd
       0.029320827 -0.041664593 0.025728542 -0.07590098
0000f0 01 98 79 3b 5f 36 ad bc 40 e5 6c 3d 8d e3 b3 ba
       0.0038084986 -0.02114409 0.057835817 -0.0013724432
000100 5a d4 a2 bd 08 00 92 3c 62 5d 26 3c 09 89 a7 bc
       -0.07950659 0.01782228 0.0101541 -0.020451086
000110 fa 47 b1 39 35 65 6e 3d 3a b1 a6 3c a0 df 1b bb
       0.00033813698 0.058201987 0.02034818 -0.0023784414
000120 96 c7 a1 3c c0 44 15 bc 8c fa db 3c d7 1c 86 bd
       0.01974849 -0.00911063 0.026852868 -0.065484695
000130 f9 e8 40 bd 23 f0 a8 bc 29 04 01 3c 3d ca 40 3d
       -0.04709718 -0.020622319 0.007874527 0.04706787
000140 4c d3 77 3d 76 53 7b bd c2 43 29 bd 50 ae 56 bc
       0.060504243 -0.06135889 -0.041324385 -0.013103083
000150 1d a0 30 3a cc d1 0f bd 22 98 fb bb 5c 3a e2 3c
       0.0006737726 -0.035112187 -0.0076780478 0.027615719
000160 53 b4 2f bb c0 1d 57 3d c9 ab b2 bb 2d 90 c7 bc
       -0.0026810362 0.052518606 -0.0054526073 -0.02436074
000170 8e 36 5b bd 78 d7 0b 3c 40 c6 85 bc ba 24 3e 3d
       -0.053518824 0.0085352585 -0.016329885 0.046421744
000180 02 62 62 3d ce 40 d0 bc 0c 5b 71 bd 70 56 55 bd
       0.05526925 -0.025421526 -0.05892472 -0.052084386
000190 78 53 1c 3d 70 18 16 3d db 6d a0 bd 67 8e f2 b8
       0.03816554 0.0366444 -0.07833453 -0.00011565984
0001a0 21 60 7f bd c7 57 2c bd 1c 48 5b bd 2c 4b 6e bd
       -0.062347535 -0.0420759 -0.053535566 -0.05817716
0001b0 63 c2 80 bd 4c 4a 39 bd e9 3a 19 3b ba b8 2f bd
       -0.06287076 -0.04523687 0.002338106 -0.04290078
0001c0 a0 f8 51 3c 92 db 44 3d 28 a3 a3 bc 42 18 9b bd
       0.0128156245 0.04806096 -0.01997526 -0.07572986
0001d0 ae b9 98 bd aa 8d 80 bd fb ac 8c 3c 93 81 eb bc
       -0.074572906 -0.0627702 0.017172327 -0.02874831
0001e0 b2 e3 9c ba 24 b5 f8 3c c3 41 90 bc 38 94 b1 3c
       -0.0011969714 0.030359812 -0.017609483 0.021677122
0001f0 a1 de 8f 3a 36 94 5b bc 4c 32 f8 3c 61 02 49 3d
       0.0010976383 -0.013402035 0.03029742 0.049074534
000200 a4 f5 ff bb 03 5b 04 bd ac 91 cf 3c 01 6d 65 bd
       -0.007811265 -0.032313358 0.025338016 -0.056012157
000210 b8 66 62 bd 67 0b 14 3d c0 b4 92 3a 49 08 ec 3c
       -0.05527374 0.036143687 0.0011192784 0.028812544
000220 e4 fc 0b 3d c3 2b e6 3c fe cf a0 bc c4 85 5e 3d
       0.034176722 0.02809704 -0.019630428 0.054326788
000230 b4 0c 98 bc 02 dd 2c 3d 02 e7 42 3d 12 c3 18 bc
       -0.018560745 0.042202957 0.047583587 -0.009323852
000240 0c eb 77 3d b3 67 7d bd 0b a6 ce 3c fe b3 94 bc
       0.060526893 -0.061866473 0.02522566 -0.018152233
000250 b4 c4 76 bd fb 73 ad 3c 66 ea 45 3d 1e ae 2c bd
       -0.060246184 0.021173468 0.048319243 -0.04215824
000260 51 d4 3e bb d5 07 12 3d a5 09 fd ba ae 62 60 3c
       -0.002911825 0.035652 -0.0019305242 0.013695402
000270 f7 ca 8b bd 82 cd 94 bd 78 f2 7c bd 1b 80 01 bd
       -0.06825822 -0.0726576 -0.061754674 -0.03161631
000280 84 4c c4 bc 15 51 4e 3d 99 4d 98 3c 35 68 48 3c
       -0.023962267 0.050370295 0.018591689 0.012231876
000290 b5 be d7 bc 28 b2 46 bd 2d 87 46 bd f0 d1 ba bc
       -0.026336053 -0.048509747 -0.048468757 -0.022805184
0002a0 e4 9f 2b bd 2e 19 2d 3d 3b 28 7d bd c2 2b a0 bc
       -0.04190053 0.04226034 -0.061805945 -0.019552115
0002b0 ad 5e 11 bd 1b 9e dc 3c 4a d2 31 bd e9 5e 01 bd
       -0.03549068 0.02693086 -0.043413438 -0.031584654
0002c0 84 3d ce 3c 3a 95 39 3d fe 9c 4f bd 3a b7 24 bd
       0.025175817 0.04530833 -0.05068683 -0.0402138
0002d0 17 32 2e bd ec 1b f0 3c 7c f5 a7 bc 13 fe 3c 3d
       -0.04252824 0.02931019 -0.020502798 0.04614074
0002e0 78 4f 0d bd 32 00 49 3d 53 d2 90 bd ab 8b 90 ba
       -0.034499615 0.049072452 -0.07071366 -0.0011027952
0002f0 90 24 8f 3c ec 7b e4 3b b9 ab b3 3c 39 5a 7b bc
       0.017473489 0.0069727805 0.02193247 -0.015341335
000300 d6 39 19 bc c0 64 5d 3b 38 73 dc 3c b4 5b e3 bc
       -0.009352168 0.0033781976 0.02691041 -0.027753688
000310 25 da 76 bd 26 7a 7f bd 80 60 c8 bb 81 91 0a bd
       -0.060266633 -0.06237235 -0.0061150193 -0.03383017
000320 8d 46 7f 3c a9 22 f5 bb 2c a0 14 3d 0b 46 cc bc
       0.015580785 -0.0074809385 0.036285564 -0.024935743
000330 54 f1 5e 3d 46 0f 84 bd 7f 7d 1b bd 65 d2 4d bd
       0.054429367 -0.06448226 -0.03796148 -0.050249476
000340 2c cc 88 bc 20 d2 b7 bc 45 aa 9d bc 28 cd 9c bc
       -0.01669892 -0.022439063 -0.01924623 -0.019140795
000350 c7 3a 88 bd 2a 5a 12 3d fc 32 02 bd a0 2e 5f 3d
       -0.06651836 0.03573052 -0.031786904 0.054487824
000360 33 1d f7 ba 65 c0 5b bc d1 a7 1a 3c 74 04 7b bd
       -0.0018853307 -0.01341257 0.009439425 -0.061283544
000370 b5 60 18 3d b7 14 0c 3d da f1 04 3d 9a 6b f9 bc
       0.037201602 0.034199443 0.03245721 -0.030446816
000380 ae 96 91 bc 0c 62 36 bd 88 6f 85 3c 9b 98 79 bd
       -0.017772045 -0.0445271 0.016288534 -0.06093655
000390 4c 11 8d bd be 8e 9d bd 70 55 99 bb ea 5e 75 bd
       -0.06888065 -0.076932415 -0.0046793744 -0.05990497
0003a0 26 d5 a2 3b f8 92 57 3b 5e ed 05 bd 1c e6 0c 3b
       0.004969257 0.0032893997 -0.032697074 0.002149946
0003b0 da bd 67 bd 3e 22 04 bd 0e ff 37 bd 2d a3 bf 3c
       -0.05657754 -0.03225922 -0.044920973 0.023393238
0003c0 93 73 5b 3d c7 f0 9f 3c 85 fe 60 bd e5 a8 56 bd
       0.053577017 0.019523991 -0.05493023 -0.052407164
0003d0 cb a0 be 3c 7f 0d 54 bd 24 29 48 bc 9c c8 03 bd
       0.023270031 -0.051770683 -0.01221684 -0.032173738
0003e0 4c 6a 0e bd 42 fb 5f bd c7 b2 8d bc 06 0e 0b bd
       -0.03476934 -0.054682977 -0.017297162 -0.03394892
0003f0 ea a7 47 3c fe aa 77 bd 1d 1d 1b 3d ff 96 8f bd
       0.01218603 -0.060465805 0.03786956 -0.07011222

q.2.bias f4 [256]
000000 d4 cc 85 bc dd a2 92 bd e1 35 2b bd 38 4d 6f bd
       -0.016333021 -0.0715997 -0.04179943 -0.05842325
000010 48 b8 80 c0 64 18 b2 3e cb 09 32 c0 d5 d2 07 c0
       -4.0224953 0.34784234 -2.7818477 -2.1222432
000020 e1 23 c1 3c c9 d4 26 3d 73 4a 3b c0 85 86 52 c0
       0.023576679 0.04073027 -2.926419 -3.2894604
000030 84 93 8d c0 e6 cc 1f be 37 77 0a c0 da f8 65 3e
       -4.4242573 -0.15605506 -2.1635263 0.2245821
000040 c4 7b e0 bc 1a 8e 91 bf 36 d0 ec 3c 31 86 1b bd
       -0.027402766 -1.1371491 0.028907876 -0.03796977
000050 88 83 26 c0 b6 a0 14 c0 b8 45 2b bc 9b 09 36 3d
       -2.601778 -2.322309 -0.010453634 0.044442754
000060 f9 1f f9 bf 9f 07 85 bd 14 d5 59 bd c3 da 8e c0
       -1.9462882 -0.06495594 -0.053181723 -4.4642043
000070 e5 9d 06 c0 e1 9d f1 bf c7 78 36 bd b4 fd 96 c0
       -2.103387 -1.8876306 -0.044548776 -4.7184696
000080 2d b7 47 3d 13 3b e8 bf fb 73 d1 3d cf 5f 2f bc
       0.048758674 -1.8143028 0.102272 -0.010703995
000090 0c 5b fb bc ba 61 fb 3d 18 51 0a c0 03 cb dc bc
       -0.030683063 0.12274499 -2.1611996 -0.026952272
0000a0 4b 1c 0e c0 ca 09 42 c0 b7 66 82 3d ae 9a b7 c0
       -2.2204769 -3.0318475 0.063672476 -5.737632
0000b0 73 e1 3c 3c ec d4 30 c0 59 db 0d bd 7c e6 ec bf
       0.011528361 -2.7629957 -0.034633014 -1.8507838
0000c0 a6 49 22 3d 32 3b bc bf a1 28 de bf 33 0a b1 c0
       0.039621018 -1.4705565 -1.7356149 -5.532495
0000d0 c9 e5 1e c0 cd 07 94 3c b5 74 69 bd 86 7a 06 c0
       -2.482775 0.018070126 -0.056996066 -2.1012282
0000e0 75 f7 0c c0 5a 37 19 bf 08 9c 9c bf 50 d7 2e 3f
       -2.2026036 -0.59850085 -1.2235117 0.6829729
0000f0 10 6c 16 bd 81 95 fa bf 39 9f 52 bd f4 8d 23 be
       -0.03672415 -1.9576875 -0.051421378 -0.1597212
000100 f8 72 05 3d ce 6e a4 be 12 d0 23 c0 a0 bb 7b c0
       0.032580346 -0.32115787 -2.5595746 -3.9333267
000110 09 09 18 3d b6 b3 c5 bc b4 af fe 3d 43 6b 3c c0
       0.03711799 -0.024133544 0.124358565 -2.9440467
000120 3c 18 38 c0 ce 35 d4 bf b6 02 a1 c0 f8 fd 8f c0
       -2.8764791 -1.657892 -5.031581 -4.499752
000130 83 ed 28 c0 8c c2 f9 bc 54 b8 22 c0 45 59 a5 be
       -2.6394966 -0.030488275 -2.5425005 -0.3229467
000140 d2 84 92 bd 5d 96 26 be c2 0d ec bd cd c1 a7 bd
       -0.0715424 -0.16268297 -0.115260616 -0.081912614
000150 33 24 ab bd b9 05 44 3d 5c 5a 86 bd d5 79 81 be
       -0.08356514 0.04785702 -0.065602034 -0.25288263
000160 67 d9 1a bd 82 ad b9 3d d9 26 34 c0 ed 0c 13 3c
       -0.037804987 0.09066297 -2.814871 0.00897525
000170 f4 34 ae 3d 11 28 ff be d3 e0 c9 bf a8 54 9a bc
       0.08506194 -0.49835256 -1.5771736 -0.018839195
000180 ac f2 9e bd c3 86 89 3d 5d 44 39 c0 61 91 77 bd
       -0.0776113 0.06715157 -2.8947976 -0.06044138
000190 08 4f 28 c0 36 37 48 be a7 86 a8 bc ae 31 59 c0
       -2.6298237 -0.19552311 -0.02057202 -3.3936572
0001a0 ac 37 83 c0 7b 9f a6 bc 51 ad 06 c0 4c cb eb bf
       -4.100546 -0.020339718 -2.1043284 -1.8421416
0001b0 dd ec 37 c0 4a 62 87 bd 7e 10 2f bd 30 f8 a1 c0
       -2.873832 -0.06610544 -0.042740338 -5.0615463
0001c0 31 a3 ac be 2d cc 92 3c 9a 50 7f be 87 e6 45 c0
       -0.33718255 0.017919624 -0.24933091 -3.0921953
0001d0 25 b9 f6 bc 34 1c 5a bd 5f 85 b2 c0 be 2e ff bf
       -0.03011758 -0.053249553 -5.5787807 -1.993614
0001e0 26 90 e2 bf 3a 25 09 c0 f4 fa 88 3d 66 ea 3d c0
       -1.7700241 -2.1428971 0.066884905 -2.9674315
0001f0 d2 12 31 bb e8 d7 d8 bf 24 f6 55 c0 65 a5 0b be
       -0.0027019274 -1.6940889 -3.3431482 -0.13637312
000200 b3 c8 8f bd f8 9e 35 c0 5b ba 1b bd 41 20 0d be
       -0.07020702 -2.8378277 -0.03801952 -0.13781835
000210 25 27 3b be 43 bb 8b bd ad 5f 29 3b 9e be b5 bd
       -0.18276651 -0.06822827 0.002584438 -0.08874248
000220 bb c1 13 3c 97 31 ac bd a0 54 bf c0 b7 b0 1e c0
       0.009018357 -0.08407896 -5.97908 -2.4795358
000230 ba 69 17 bf bd 45 82 bd 8e 7b 20 bd af b6 18 bf
       -0.591457 -0.06360958 -0.03918033 -0.59653753
000240 69 b0 2b c0 8c a9 6f 3b 29 00 61 bf 64 7d ad c0
       -2.6826422 0.0036569564 -0.8789087 -5.4215565
000250 66 d5 fd bb 5c 1a 24 c0 ab 25 32 bd 98 c9 ba bf
       -0.0077463863 -2.5641088 -0.043492954 -1.4592772
000260 c0 38 85 3d 11 69 08 c0 ab 72 e0 bf ac d5 99 bc
       0.06504965 -2.1314127 -1.7534994 -0.018778645
000270 eb a1 63 c0 33 50 cf bc 90 0f 58 c0 5c b9 7a bd
       -3.5567577 -0.025306797 -3.3759499 -0.06121193
000280 29 aa 04 bc 93 2f b6 3d 10 25 8d 3b a4 2a 84 bc
       -0.00809721 0.08895793 0.0043073967 -0.016133614
000290 ad e2 84 bc e6 0f f0 bf e5 bc 63 be 39 00 8e bd
       -0.016221369 -1.8754852 -0.22240026 -0.06933636
0002a0 05 8c dc bb 69 c7 1b c0 97 61 a4 bb 6e 4c 1b 3e
       -0.006730559 -2.434046 -0.0050165164 0.15165874
0002b0 e5 05 85 c0 01 97 a7 3b 43 68 da bb eb d4 4a c0
       -4.1569695 0.0051144366 -0.006665261 -3.1692455
0002c0 b8 3b 55 bd d0 71 70 bd 91 89 87 c0 4c 89 63 c0
       -0.052058905 -0.05870229 -4.235543 -3.555255
0002d0 fe 2e 6e bd 38 ec 08 be d3 80 bc 3c 1c 4f ca 3c
       -0.058150284 -0.1337136 0.023010647 0.024695925
0002e0 4c aa 99 c0 4b e6 13 c0 bd fd c0 bc 0a 91 71 c0
       -4.802038 -2.310931 -0.023558492 -3.7744775
0002f0 fe 68 14 c0 ce 29 ec bf af 4f 3f c0 85 f2 8d 3e
       -2.3189082 -1.8450258 -2.9892385 0.2772409
000300 58 30 56 3e 55 1e a6 c0 73 87 17 3d 54 f8 0b c0
       0.20916879 -5.1912026 0.03699441 -2.1870317
000310 1c 68 52 c0 6f 65 ee be b8 06 91 bf 09 68 aa c0
       -3.2876043 -0.46561763 -1.1330175 -5.3251996
000320 c2 41 5d bc 3b b8 99 bc 43 46 5b c0 aa fe 73 c0
       -0.013504447 -0.018764606 -3.4261634 -3.8124185
000330 18 ba 94 3c d9 e7 6c c0 7c c7 d5 bf 48 40 95 bd
       0.018155143 -3.7016509 -1.6701503 -0.07287651
000340 15 ca 17 bd 2c 06 05 c0 e0 bd 66 c0 7e 07 fc be
       -0.037057955 -2.0785017 -3.605339 -0.49224466
000350 7a ee 4f c0 2e bc d4 bc 87 a4 dc bf 4f bc 88 c0
       -3.2489305 -0.025968637 -1.723771 -4.272987
000360 e2 ae 8c c0 c0 01 43 bd 08 7a 5b c0 7b f9 9d 3c
       -4.396348 -0.04760909 -3.4293232 0.019284
000370 96 4d e8 3d 22 a4 61 bd 9d bf 16 c0 28 27 71 bd
       0.11342923 -0.05508817 -2.3554451 -0.058875233
000380 29 64 c6 bf f3 2b 68 bd 55 76 80 bd 3a ad 3e bd
       -1.5499316 -0.05668254 -0.0627257 -0.04655192
000390 ea 5e 00 bd b0 c9 3e c0 be 62 9a 3d ff 37 02 c0
       -0.031340517 -2.98106 0.07538365 -2.0346677
0003a0 15 2c f3 bf 5d 1c 53 c0 cd f0 dd bf 5e 80 17 bf
       -1.8997828 -3.2986062 -1.7339112 -0.5918025
0003b0 97 d6 0c bc 92 c2 98 c0 eb e7 5e c0 29 36 d4 bd
       -0.008596084 -4.7737513 -3.4829051 -0.10361893
0003c0 4f d5 3d bd 64 8a 7c bd dd 0c 6d ba 81 41 95 bb
       -0.046346005 -0.061655417 -0.00090427493 -0.004554928
0003d0 95 25 8c bd e9 db 97 bd 72 7f 00 be 2b bc 97 c0
       -0.06843106 -0.074149914 -0.12548617 -4.7417197
0003e0 aa be 79 bd 6c 38 29 c0 e4 b1 e1 bf 6a 5e 5a c0
       -0.060972847 -2.6440687 -1.7632413 -3.4120126
0003f0 38 ad 1b c0 0f 15 0a bd cb 32 0f bd c8 ca a8 bf
       -2.4324474 -0.03371149 -0.03496055 -1.3186884

q.4.weight f4 [10, 256]
000000 bd a3 a8 bc c4 2e 77 bd 0a 34 1d 3d d8 d4 80 bc
       -0.020585889 -0.060347334 0.038379706 -0.015726492
000010 d5 76 4f bc e9 10 14 3f 5f 8d ad bf aa c1 13 bf
       -0.012662609 0.578383 -1.3558768 -0.5771738
000020 4f 6b 90 3d 26 8e 30 bd d3 b3 f9 be 2d 3d 28 bf
       0.070517175 -0.043104313 -0.48770007 -0.65718347
000030 5b ec f0 bf 0e 72 22 be 26 0e dd be b3 ee 29 3d
       -1.882213 -0.15863821 -0.43174857 0.041487407
000040 9c 75 aa bc b8 10 40 bf bc b6 e3 bd b8 f1 66 3b
       -0.020808034 -0.7502551 -0.11118838 0.003523929
000050 fc 5f c2 be 80 b2 17 bf 07 f9 00 bd 13 0d 8a 3b
       -0.37963855 -0.59256744 -0.03148749 0.0042129843
000060 e0 bd 06 bf 03 dd 2d bc 72 10 48 3d 5b a6 8c bf
       -0.52633476 -0.010611775 0.04884381 -1.0988268
000070 99 a8 14 bf 14 92 06 bf b6 cc 53 3c 7b a6 1a bf
       -0.5806976 -0.5256665 0.012927225 -0.6041028
000080 12 27 84 bc 21 b2 22 bf 24 59 0b bc b0 52 98 bc
       -0.016131911 -0.63553053 -0.0085051395 -0.018594116
000090 49 d7 73 3c ad e1 8f bc 65 75 00 bf ae b9 b7 3b
       0.014882871 -0.017563665 -0.5017913 0.0056068515
0000a0 42 d6 f3 be ab 48 97 be a7 e1 98 bb 27 24 92 bf
       -0.47624403 -0.2954763 -0.0046655717 -1.1417283
0000b0 02 15 9a bb 54 30 72 bf 64 9f 1b bd b1 f1 01 be
       -0.0047022114 -0.9460499 -0.037993804 -0.12689854
0000c0 a5 01 e3 3c 35 8d fe be de 12 a0 be 7a 40 20 bf
       0.027710745 -0.49717107 -0.31264395 -0.62598383
0000d0 ca d3 fd be 09 75 64 3d 88 40 81 bd 68 fe 8a be
       -0.49575645 0.055775676 -0.063111365 -0.27147222
0000e0 5d 41 28 bf 98 61 a9 be aa 4a dd be 55 7b 26 be
       -0.65724736 -0.3308227 -0.43221027 -0.16257985
0000f0 7f ae 36 bd 16 31 4a bf 8e db 12 3d 2c 6e 60 bd
       -0.044600006 -0.7898115 0.035853915 -0.054792568
000100 30 11 45 3c 2d d4 e7 bd 30 6a 34 bf 8b fc d4 be
       0.012028024 -0.11319766 -0.7047453 -0.41598925
000110 18 97 12 bc 58 7b 17 bc ce 47 da bc 35 44 b3 bf
       -0.008947156 -0.009245716 -0.026645567 -1.400519
000120 9d 10 00 bf cf 19 d5 be 24 7a a2 bf 39 17 1b 3c
       -0.5002535 -0.41621253 -1.2693524 0.009465986
000130 db 1a 6c be 5f 96 63 3b 80 ce 29 bf 26 6d da bd
       -0.2305712 0.003472708 -0.6633072 -0.1066535
000140 be 35 93 bd 46 7b 18 bd e6 ee ee ba b0 ba 38 bd
       -0.07187985 -0.037226938 -0.0018229156 -0.045099914
000150 8c 59 fc 3b f8 d9 ad bd 9a c2 53 bc 02 c1 23 be
       0.0077011045 -0.0848884 -0.012924815 -0.15991595
000160 42 94 17 bc 56 c8 e0 bb b2 90 d6 bf 5a 9c c8 bb
       -0.009251656 -0.0068598194 -1.6762908 -0.006122154
000170 d3 24 46 bd c2 4b 7a be f9 b4 71 be 69 c9 66 bd
       -0.048374962 -0.24442962 -0.23604192 -0.056344423
000180 20 ff 43 3c b9 fd 63 bd 58 ef 03 bf da 6b ff bc
       0.011962682 -0.05566189 -0.51537085 -0.031179357
000190 b4 75 10 bf ab 2b 16 be 1d dc 8f bd f9 8a 17 bf
       -0.564296 -0.14665096 -0.07024405 -0.5919643
0001a0 ed da 4e bf 90 b0 2f bc 2f 80 e2 be c0 cd 05 be
       -0.80802804 -0.010723248 -0.4423842 -0.13066769
0001b0 db 40 c1 be f0 cf f6 bb 6a 4b 2f bd 6e 7b 4a bf
       -0.37744793 -0.0075321123 -0.04279653 -0.7909459
0001c0 72 6b 20 be de 8b ab bd c1 a6 ef bd 52 74 00 bf
       -0.15665987 -0.08376287 -0.11701728 -0.5017749
0001d0 71 d3 08 3d f0 1f e4 3b f4 86 9b bf 6c 66 c4 be
       0.03340477 0.006961815 -1.215056 -0.38359392
0001e0 e8 15 d7 be f7 f4 ed be fc 4c 20 bd d3 2d ce be
       -0.420089 -0.46475956 -0.039135918 -0.40269336
0001f0 c8 ea 44 bd 67 79 b1 bf 3a 73 d1 be 1e f0 af bd
       -0.048075467 -1.3865174 -0.40908223 -0.085907206
000200 67 7e 11 be 6c 0a 88 bf a9 f0 bb bc aa 9d d6 3c
       -0.14208375 -1.062818 -0.022941904 0.026198227
000210 14 ca 34 be 24 ca c7 3c f8 7f 51 3d a4 8c c2 bc
       -0.17655212 0.02438838 0.05114743 -0.023748703
000220 3a b5 80 3d f4 de 08 bd 5b 25 16 bf 69 d3 ad be
       0.06284566 -0.03341575 -0.5865075 -0.33950356
000230 00 6d 91 be d0 e9 b4 bc 5e ee 08 bd 79 9b 6c be
       -0.28403473 -0.022084147 -0.03343045 -0.23106183
000240 65 e2 09 bf 75 bf 31 bd 22 be 43 bf 56 83 f5 be
       -0.53861076 -0.04339548 -0.76461995 -0.47951764
000250 71 1b db 3c 0d d1 e1 be e2 b7 c5 38 ae cc a7 bf
       0.026746484 -0.44104806 9.427943e-05 -1.3109338
000260 3b a1 04 bd 78 3a 4c bf 05 f7 05 bf 9a f3 5c bd
       -0.032380324 -0.79776716 -0.52330047 -0.053943254
000270 d3 1c 3d bf 70 9f 73 bc 2f 9d 14 bf dd 48 54 bd
       -0.7387211 -0.014869556 -0.58052343 -0.0518273
000280 53 f7 02 3d 9c f2 2a bf 7c b1 b6 3c 12 74 79 bd
       0.031974148 -0.6677644 0.022301428 -0.06090171
000290 a0 63 34 3c 46 5f 59 bf ca 11 f0 bc 88 62 31 3d
       0.011010081 -0.84911 -0.029305357 0.043306857
0002a0 e9 39 f1 3b b0 f8 07 bf dc 8c 8b 3c 2b 33 e0 3b
       0.0073616398 -0.5311384 0.01703494 0.006842037
0002b0 17 c0 0a c0 40 04 6b bc 16 e1 1f 3d c2 30 cf be
       -2.1679742 -0.014344275 0.039033018 -0.40466887
0002c0 88 dc 26 bc 30 7d cc bb d8 2b f6 be 40 44 f6 be
       -0.010184415 -0.0062405095 -0.48080325 -0.48098946
0002d0 a4 fd 15 3d 12 8c 1a bd d1 22 ff bb bc f8 56 bd
       0.036618844 -0.037731238 -0.007786133 -0.052483305
0002e0 e9 2d 8e bf 1c a4 c0 be 0c 87 17 bc f5 0f 12 bf
       -1.1107761 -0.37625206 -0.009248506 -0.570556
0002f0 85 9d 9c be ec c4 eb be f1 ae 33 bf 0f 42 e6 bd
       -0.30588928 -0.46048677 -0.70188814 -0.112430684
000300 1c 6b 02 be c9 1b 76 bf 8a da 17 bd bc 9b 45 bf
       -0.12736171 -0.96136147 -0.03707365 -0.77190757
000310 58 ac bb bf f6 af 6c be b6 fb 62 bf 5c ad ca be
       -1.466197 -0.23113999 -0.8866533 -0.39585388
000320 ce 8d 50 bd 7e 45 68 bd 90 3a 11 bf 03 0e bc be
       -0.050916485 -0.056706898 -0.56729984 -0.3672944
000330 f2 1c b3 bc fe c8 90 bf 4d 99 1e bf 99 f5 8e 3b
       -0.021864388 -1.1311338 -0.6195267 0.0043627736
000340 f0 c6 eb 3c de 54 b3 bf dc 5b f1 be 77 bf 86 be
       0.028781384 -1.4010274 -0.47140396 -0.2631795
000350 3a cc 32 bf e6 6b df bd f1 3d d7 be ef 95 bd be
       -0.69842875 -0.10909252 -0.42039445 -0.37028453
000360 40 b6 11 bf e4 86 ed bc bd e9 4e bf 66 2b 06 bd
       -0.56918716 -0.028994985 -0.80825406 -0.03275623
000370 ab be 3d 3c 2d b2 58 3c 78 68 c2 bf 0f 0a 02 3c
       0.011581103 0.013226074 -1.5188131 0.0079369685
000380 dd 2a 8e bf 90 b6 d3 3c 3f ae 28 bd d1 96 37 3d
       -1.1106831 0.025843889 -0.0411818 0.044821564
000390 2e ce 8a 3c 6d 61 c7 be d4 aa aa 3b d7 ec dd be
       0.016944017 -0.38941517 0.0052083526 -0.43344757
0003a0 17 1f 99 bf 2e 08 0c bf 3e f5 b2 be c3 e2 ee 3e
       -1.1962613 -0.5469998 -0.3495273 0.4665738
0003b0 04 be 30 ba db 4d 91 bf d2 ee b6 bf 98 bc 03 be
       -0.0006742182 -1.1351885 -1.4291632 -0.12864912
0003c0 b0 06 56 bd f0 eb 18 bc 99 d3 02 be d2 df 3a bd
       -0.05225247 -0.009333596 -0.1277603 -0.045623608
0003d0 8c 50 2d bc 5d 74 be 3c 51 ff 08 bd 59 60 13 bf
       -0.010578286 0.023248846 -0.033446614 -0.5756889
0003e0 7c 09 af 3b 29 c4 10 bf 2d cc a8 3e 15 3c 2b bf
       0.005341707 -0.56549317 0.32968274 -0.6688855
0003f0 43 c1 ca be 1a 89 f3 3c 6f 20 16 bd 28 fe 34 bf
       -0.39600572 0.029728461 -0.036652025 -0.7070031

q.4.bias f4 [10]
000000 a9 4f 57 41 f9 73 94 3f 35 28 a7 40 5d 21 0a 41
       13.456948 1.1597892 5.223658 8.633145
000010 e8 4e c6 40 6c e0 5d 41 9f 91 bc 40 a5 c6 d2 40
       6.197132 13.8672905 5.892776 6.5867486
000020 34 3f b1 41 41 c0 0e 41
       22.15586 8.921937
