task4/task3_experiment_2_c_local_q2.pt (torch, 281951 bytes, 6 tensors)

q.0.weight f4 [256, 5]
000000 71 f7 0f 3e cb 3e 72 3f f8 a1 f2 bd 51 85 6c bf
       0.14059235 0.94627064 -0.11847299 -0.92390925
000010 70 18 c5 bc e1 f4 b4 3c 42 90 e1 3c b0 43 bf 3c
       -0.024059504 0.022089424 0.027534608 0.023347706
000020 f2 42 e8 bb 40 a8 80 3d 37 16 00 bf c4 8b 84 3e
       -0.0070880586 0.06282091 -0.500339 0.25887883
000030 08 87 6e 3e f9 5b a4 bd 5c 3a d1 3e 64 60 28 3d
       0.23293698 -0.08025355 0.40864837 0.04110755
000040 5e 65 94 bb 76 d9 0b 3d ee 88 51 bc 38 15 58 be
       -0.0045286855 0.034142934 -0.012788994 -0.21101844
000050 fe 5e 86 bc ab a0 e8 3b dc e0 33 bc 0c 12 ef 3b
       -0.016402718 0.0070992312 -0.010978904 0.0072958525
000060 3b 0e 60 be 00 1d 65 3c 38 08 28 be e8 98 ad bd
       -0.21880428 0.013983965 -0.16409385 -0.0847643
000070 c8 e1 52 bd 80 e2 76 3e ca 57 9e 3e e6 fc b4 3e
       -0.051484853 0.2410984 0.30926353 0.35349196
000080 1e 40 d5 3e a5 f5 b6 3e 84 6e 38 be 76 32 c4 3d
       0.4165048 0.35734287 -0.18010908 0.09579937
000090 3e 5b 5d be 9a e3 2c 3e 5e 05 06 be 88 87 00 3d
       -0.21616837 0.16883698 -0.13087985 0.031379253
0000a0 ba 57 2d bf 9b a5 82 3e 47 c4 2d 3f 36 a0 73 be
       -0.67711985 0.25516972 0.6787762 -0.23791584
0000b0 58 d2 32 3e 2f cc c8 3c bd 40 31 bd 94 96 49 3d
       0.17463052 0.024511425 -0.04327463 0.049215868
0000c0 e9 3d 8b bd cc 4a 62 3e 56 a1 5f 3e 60 04 90 3f
       -0.06798918 0.22098845 0.21838889 1.1251335
0000d0 7f 1e 95 3e 4b 6d 03 be 4c e7 33 be a6 2d 4f be
       0.2912483 -0.1283466 -0.17568702 -0.20232257
0000e0 27 c1 31 bf 32 38 83 bc ec 00 17 be b0 70 55 3e
       -0.6943535 -0.016018007 -0.14746445 0.20843768
0000f0 6a 78 29 3e 06 6a 93 bd 8a 3a 29 be a1 a1 8f be
       0.1654984 -0.07197957 -0.16526237 -0.28053
000100 e8 87 94 3d 92 48 92 3e 6f d2 3b 3e 8d 8d 89 be
       0.072524846 0.28570992 0.18341993 -0.26865807
000110 89 bc 22 be ac 18 30 3e 04 0c e7 bc ff 84 cd 3b
       -0.15892233 0.17196912 -0.028203972 0.006271958
000120 09 37 88 bc bd e6 37 3c b5 00 92 be 80 e2 33 bc
       -0.016627805 0.011224446 -0.28516164 -0.010979295
000130 0c c9 df bd 98 68 1a be 64 20 d3 bd 10 ee 99 3d
       -0.109270185 -0.15078962 -0.103089124 0.0751611
000140 5b 86 91 bb 84 3c b2 bd fe a8 b3 bc 64 69 1f bd
       -0.0044410652 -0.08702949 -0.021931168 -0.038918868
000150 44 d6 8b 3e 22 39 f8 bd b3 be ed bc d6 0a 07 3e
       0.2731191 -0.12120272 -0.029021597 0.13187727
000160 c6 53 05 be 20 bd 36 3e 62 6a 89 3d 96 e3 8a 3d
       -0.13020238 0.17845583 0.06709744 0.0678169
000170 30 7b 0c 3e 19 33 4c bd f8 4b c6 bd 2c b7 52 3d
       0.13718867 -0.049853418 -0.09682459 0.051444218
000180 26 78 1f bc 9e 20 5b bb c2 c2 cd bc 87 9c c0 be
       -0.009733235 -0.003343619 -0.025117282 -0.3761942
000190 ba 8a 9c 3d 40 f0 de 3e 84 76 6a 3e da b0 8a be
       0.076436475 0.4354267 0.22896773 -0.27088052
0001a0 50 5e af 3c cb 3b 60 3e 7c 3b 1f 3e 8d 21 ab bd
       0.021407276 0.21897809 0.15550035 -0.08356009
0001b0 b9 23 e6 bd 95 44 ba be 71 ea f4 bd a1 80 d2 bc
       -0.11237282 -0.3638045 -0.11958779 -0.0256961
0001c0 39 03 7c be f7 98 69 bc 4a f8 ca 3e 27 2c ab bd
       -0.24610604 -0.014257661 0.39642555 -0.08358031
0001d0 20 52 e4 bd d9 5a 78 3d 44 48 8c bd 96 ec 9b 3e
       -0.111484766 0.060633514 -0.06849721 0.30453938
0001e0 b3 4e 09 be 2d 06 1d bf 2b 9c de 3d 70 8f 28 bf
       -0.13408928 -0.6133755 0.108696304 -0.6584387
0001f0 cb 21 4e be 90 14 59 3d 7a f2 c8 3c 40 fc e2 3c
       -0.20130078 0.052998126 0.024529684 0.027708173
000200 0f 88 d7 3c c2 93 9f be 77 92 1f 3e d1 91 91 3e
       0.026309995 -0.31167418 0.15583216 0.28431562
000210 f8 f9 09 bf 1c 18 b4 3e 28 f9 72 3e 6c dd 42 bc
       -0.5389705 0.35174644 0.23727858 -0.011893611
000220 2b cd cf bc 5e b4 28 bb 52 fd da bc a4 f6 80 be
       -0.025366386 -0.0025742273 -0.02673212 -0.25188172
000230 7e 07 b5 be bc 70 97 be 56 2f 22 be 54 e0 c7 bd
       -0.3535728 -0.29578197 -0.1583837 -0.09759584
000240 a0 3d 39 3d ef 8a 03 3b 4e 45 27 bc e3 9d 08 39
       0.045224786 0.0020071825 -0.010209395 0.00013028788
000250 53 fd 2f bc 44 90 c9 bd d5 97 c8 bc aa ad 68 bf
       -0.01074155 -0.098419696 -0.024486462 -0.9088999
000260 ce 91 e6 bd 4f 7c 80 be b6 0d aa 3e 0f 25 42 3d
       -0.11258279 -0.2509484 0.33213586 0.047398623
000270 84 c1 3b 3d bd 81 98 be 14 f2 27 bd 58 e1 c4 3e
       0.045838848 -0.29786482 -0.041002348 0.38453174
000280 7a 60 64 3d 34 f7 47 b8 eb 90 63 3d 5e ce 72 bd
       0.05575607 -4.7675523e-05 0.055558126 -0.05927884
000290 e8 7f e0 3d ab 2e 9f bd ce d4 22 be 11 13 38 be
       0.10961896 -0.07772573 -0.15901491 -0.17976023
0002a0 b8 4b 60 be 40 ed 58 3e 80 5f 91 be eb de df be
       -0.21903884 0.21184254 -0.28393173 -0.4372476
0002b0 74 45 0f 3f 95 be 3b 3e d8 d0 30 3e ad 22 a7 3e
       0.5596535 0.1833442 0.17267168 0.32643643
0002c0 79 7a 82 3e 0c 64 98 be 4c 70 6d be 0e 0a 68 be
       0.25484064 -0.2976383 -0.23187369 -0.22660086
0002d0 a2 ae c7 3d 92 d2 46 3e 86 79 fd 3d 06 3d 3e 3d
       0.097501054 0.19416264 0.123766944 0.046444915
0002e0 1b ee ab be ea b6 0c 3e 2b 67 08 3e 45 a9 f9 3c
       -0.33580098 0.13741651 0.13320605 0.030476222
0002f0 29 8f 86 3e b0 27 7a 3e 00 c2 48 bc d4 b1 3b 3e
       0.26281098 0.24429202 -0.012253284 0.18329555
000300 ec bd 6e 3e b6 35 a3 3e 22 80 60 be 6d 3b b2 3c
       0.23314637 0.31876916 -0.21923879 0.021756852
000310 30 dd 79 3c 49 48 35 3c a0 20 08 3d 60 65 c5 be
       0.015250489 0.011064597 0.03323424 -0.38553905
000320 d5 d1 cd 3e 7d 6c 66 3e ce c7 cf 3d 16 12 3e be
       0.40199152 0.22502322 0.101455316 -0.18561587
000330 48 bd 97 bd 32 9c ba 3b 83 c2 c9 39 55 0a cd ba
       -0.074091494 0.0056948895 0.0003848263 -0.0015643338
000340 92 df 1a ba 04 6b 0c 3e 28 a1 aa 3e 7e 67 cf be
       -0.00059079484 0.13712698 0.33326077 -0.40508646
000350 91 5b 62 be 5c cc b0 3c 60 21 b9 3e 2e 62 8c bb
       -0.22105242 0.021581821 0.36158276 -0.004284165
000360 71 db 14 3e 4f 34 44 3e f9 5a 0f 3e f3 22 93 be
       0.14536835 0.19160579 0.13999547 -0.28737602
000370 fa 75 54 be e0 b1 45 3e 0c d4 80 be e0 6b 87 3d
       -0.2074813 0.19306135 -0.2516178 0.066123724
000380 64 f2 54 3e 1b 9a ee be e1 ee 16 bd c1 eb 8f 3e
       0.2079559 -0.46601948 -0.036848906 0.28109553
000390 5e c5 9b 3e 68 48 56 be 6f 06 04 bd c7 17 14 3d
       0.30424017 -0.20926058 -0.032232698 0.03615549
0003a0 d4 8b a3 be 80 b5 39 3f 78 c9 c1 3e 58 87 54 bd
       -0.31942618 0.7254257 0.3784902 -0.051886886
0003b0 e0 af 9a bc 88 4d 9a be d0 82 ca 3d 30 89 70 bd
       -0.018882692 -0.30137277 0.09888232 -0.058724582
0003c0 77 19 84 bc 83 7b 5a 3c 8d 30 ba bc 1a da b1 bb
       -0.016125424 0.013335112 -0.022728229 -0.005427611
0003d0 d0 29 41 bd bc 46 3b 39 45 39 aa 3b 6f f3 85 bb
       -0.047159016 0.0001786006 0.0051948153 -0.0040878574
0003e0 cf 7e a3 ba 56 ed 05 be d9 cf 5f be ec b3 43 3d
       -0.0012473705 -0.13078818 -0.21856631 0.04777901
0003f0 d1 19 3e 3f 61 be 40 3e e8 bb bd 3e f5 5a ae 3f
       0.7425814 0.18822624 0.37057424 1.3621508

q.0.bias f4 [256]
000000 0e 75 9e ba 55 d2 fd bc 4f 65 4c 3f ad 1f da bc
       -0.0012089328 -0.030984083 0.79842085 -0.026626432
000010 96 4b 57 bc 90 c2 db be d3 d3 bc be c5 fc d6 3d
       -0.01314058 -0.42921877 -0.3688036 0.10497431
000020 11 cd bc ba db 29 4c bd bf e7 28 3f 34 29 25 3f
       -0.0014404376 -0.049844604 0.65978616 0.64515996
000030 3e c7 05 3c 90 1e db 39 dc 07 97 bc 80 40 94 be
       0.008165179 0.00041793706 -0.018436365 -0.2895546
000040 90 57 62 bd e2 d8 36 be 21 4e a2 3e a4 53 1a bd
       -0.055259287 -0.17856172 0.31700233 -0.037677422
000050 7f ef e6 be b4 34 77 3e 6d d8 18 3c 6b 80 28 3d
       -0.45104596 0.24141198 0.009328944 0.041138094
000060 de d7 01 be 18 20 9e 3c 7b ef 01 3f 3e 50 a0 bc
       -0.12680003 0.019302413 0.50756043 -0.019569512
000070 60 73 d6 be 6c a6 0f bc 92 f9 d4 3e ea 0d e9 3d
       -0.418849 -0.008767705 0.41596657 0.11379607
000080 fe d2 6d bd 10 28 00 3d 2b 1d 2e 3e 46 21 8f ba
       -0.058062546 0.031288207 0.17003314 -0.001091995
000090 6d 80 e3 3e c1 f4 40 be 4a 44 dc be 11 7b d4 bc
       0.4443392 -0.18843366 -0.4302085 -0.025937589
0000a0 f6 3b ae 3e f7 d4 83 bb e3 03 ce 3e 7a 27 35 be
       0.34030122 -0.00402319 0.4023734 -0.1769084
0000b0 fc 6b cf be d1 75 dc 3c ac 5a bc 3e 28 1e 80 be
       -0.40512073 0.026911648 0.36787927 -0.25023007
0000c0 c2 40 bb bc e1 e7 b0 bb ee c0 1e 3f d6 1a 82 3f
       -0.022858027 -0.005398736 0.6201314 1.016444
0000d0 48 c9 61 3f a2 82 f2 3d ab 18 35 bb 70 46 90 bd
       0.88197756 0.118413225 -0.0027633111 -0.07044685
0000e0 f4 44 2f 3e 4c cf 74 ba a6 16 b9 bb 2e 58 8b be
       0.17116147 -0.0009338751 -0.005648452 -0.27215713
0000f0 26 4a a9 be da b0 8b be 19 d1 f5 bc 33 75 b8 be
       -0.33064383 -0.27283365 -0.030006932 -0.36026916
000100 a3 76 61 3e 23 00 4a bb c4 5a 84 bd 58 9e 6f be
       0.22017913 -0.0030822835 -0.06462625 -0.23400247
000110 6f bd 3e 3f 88 69 c5 bb 33 4a 2d 3f 71 87 81 be
       0.745078 -0.006024543 0.67691344 -0.25298646
000120 16 f8 d3 be bd a0 9a 3e 96 3f 7b 3e 78 36 2b be
       -0.41400212 0.3020076 0.24535975 -0.16719997
000130 f6 88 f4 3e 83 10 49 bd 10 3e 14 bd 2c 47 07 bc
       0.47760743 -0.049088012 -0.036192 -0.008256715
000140 b9 ce 57 bc 13 60 51 bd ac 24 9e be ed ee 09 bc
       -0.013171845 -0.051117014 -0.30887353 -0.008418781
000150 bd cf 31 3f 2d 36 c1 3e 00 1a cf 3e b4 a4 4d 3c
       0.6945761 0.37736645 0.40449524 0.012551475
000160 5b e8 71 bc d0 42 f0 3e 95 d9 1d bb 3a 9c 3d be
       -0.0147648705 0.46925974 -0.0024085988 -0.18516627
000170 3f 0c ba bc 5a c0 db be cd bf 62 3f c8 5e b3 3e
       -0.022710918 -0.4292019 0.88573915 0.3503325
000180 3d 34 0b 3f 34 28 e3 be 76 e6 1a bc 7f 13 14 bc
       0.54376584 -0.4436661 -0.00945436 -0.009037851
000190 1a 17 64 bd 60 1d d8 be 61 50 1f bc d8 10 a0 be
       -0.055686094 -0.4220991 -0.009723754 -0.3126285
0001a0 72 2c b5 bb aa 9c 90 bd dc 65 45 be 7e ce 9d be
       -0.00552898 -0.07061131 -0.19277138 -0.30821604
0001b0 0d 18 9a 3f 0b c8 b8 bc c3 f9 67 3a b1 43 12 bc
       1.203859 -0.022556325 0.0008849168 -0.008927272
0001c0 14 fa a2 be f6 06 1d 3e 80 71 44 bd a4 c2 c7 3e
       -0.3183142 0.15334687 -0.047959805 0.39015687
0001d0 5d 37 c2 be 73 39 11 bc 76 2e 04 3e 3e 51 2b 3f
       -0.37932864 -0.008863795 0.12908348 0.6692084
0001e0 fb 71 d0 3d f7 93 10 be 6f c3 43 bd 71 cb eb bb
       0.1017799 -0.14118944 -0.047793802 -0.007195883
0001f0 e2 79 9a be 21 58 56 3c 72 00 f4 bc a1 e8 fa 3d
       -0.30171114 0.013082535 -0.029785369 0.12251402
000200 c1 37 99 3e d9 3c 82 be b1 d8 14 3f 63 f1 ad bb
       0.2992535 -0.25437048 0.58143145 -0.0053083166
000210 b9 ae d1 bd 33 c6 fd 3e 54 fe b9 3d 8e c3 4d 3f
       -0.10238404 0.49565277 0.09081712 0.8037652
000220 94 d2 f5 3d 7c 73 ff 3e f9 d6 49 bc c3 1e b2 bc
       0.12003055 0.49892795 -0.01231932 -0.021743184
000230 14 25 df bc ad 8c cd bc cc 49 e2 bb 04 cb 9f bb
       -0.02723936 -0.025091494 -0.00690577 -0.0048764963
000240 23 11 6e bb 2e f6 0d bd d8 f0 d1 be a8 cd 3d bc
       -0.0036326132 -0.034658603 -0.41004062 -0.011584677
000250 cf 83 7b bc 62 63 82 3d 20 b2 64 be f0 dd 19 bd
       -0.01535125 0.06366612 -0.22333574 -0.03756517
000260 19 cf 6a 3d f3 b5 8d be 3d 2f 1a bd 0c 27 24 3f
       0.05732641 -0.2767788 -0.037642706 0.6412208
000270 74 d5 bf be 24 f7 6d be 6b c4 87 be 11 85 cd 3e
       -0.3746754 -0.23238808 -0.26517043 0.40140584
000280 4d 66 8e bd eb bc 29 3f 98 7c 39 bd 52 2e d9 bc
       -0.06953106 0.6630389 -0.045284837 -0.026511345
000290 df e7 e1 3c a3 23 83 bc a8 ee 3d bc 81 97 68 bc
       0.027576385 -0.016008204 -0.011592545 -0.014196278
0002a0 9e 36 51 3f 95 9a 70 3e f4 86 1a 3e 2b 8a 82 3e
       0.81723964 0.23496468 0.15090543 0.2549604
0002b0 a0 b6 be bd 1b 82 15 be 75 02 a1 bb 47 b1 2b 3e
       -0.09312177 -0.14600413 -0.004913623 0.16766845
0002c0 22 bf 01 bd e5 25 6a 3d dc a7 95 3f 26 4f 8c 3c
       -0.03167642 0.057165045 1.1691852 0.017127585
0002d0 e0 8e 01 b7 62 40 88 be a0 e5 c5 bd 8d 83 af be
       -7.722265e-06 -0.2661162 -0.09662938 -0.34280053
0002e0 53 99 82 be b0 bd b8 3d 7a 3f 22 bc c1 a8 07 bc
       -0.25507602 0.09020555 -0.009902829 -0.00827998
0002f0 ad fc 14 3f a2 6d 1f bd a0 56 45 bc 24 4b d1 bc
       0.5819805 -0.038922913 -0.012044579 -0.025548525
000300 32 41 12 3f 3d 9c 39 bd 7f 30 0a bc 09 02 c0 3d
       0.5713073 -0.045315016 -0.008434414 0.09375388
000310 cd 8b e4 bc 9e 4f c5 3e 98 a0 a7 bc f8 fe 7a 3d
       -0.027898693 0.38537306 -0.02046232 0.061278313
000320 58 89 b3 bc 68 af ca bd 50 67 a3 be bb d2 c1 3e
       -0.021916077 -0.09896737 -0.3191476 0.37856087
000330 0c 16 a3 be bd 6b c3 be 1a 26 43 bd 6c 1d 81 bd
       -0.31852758 -0.38168135 -0.04764376 -0.0630444
000340 5b 86 a3 be 6f 04 80 be 4e bc 92 3e 4c 61 2e bc
       -0.31938443 -0.25003383 0.2865929 -0.010643315
000350 48 9d 12 bc af f4 8d 3d f6 bb 08 bc 5d 79 ec 3c
       -0.008948632 0.06931435 -0.008345595 0.028866464
000360 97 4e 3e be 6f f2 bc be 37 44 e8 3e 1e 75 bd bc
       -0.18584667 -0.36903712 0.45364544 -0.023127135
000370 90 8d de bc 40 da 9d 3d 75 e8 07 be 3c 03 d0 bb
       -0.027167112 0.077076435 -0.13272269 -0.006348042
000380 0b ae eb 3d 63 68 8f 3b cb 85 12 bc df 92 4c bb
       0.115078054 0.0043764575 -0.008943032 -0.0031215472
000390 6a 57 00 3e d2 39 38 3c 68 4d 07 3f 68 da 62 3e
       0.12533346 0.011244254 0.5285249 0.22153628
0003a0 e4 3a 70 bb 48 bf 23 3d 0c 68 cf bc 6a 38 cc bc
       -0.0036656195 0.039977342 -0.025318168 -0.024929244
0003b0 9e 6a ce bb be af b0 be 5b 10 65 bc 23 91 6b 3e
       -0.006299331 -0.3450908 -0.01398095 0.23004584
0003c0 17 88 a7 3e 7e d3 cf be 4f 27 47 3f 9d 6b 0c bc
       0.32721016 -0.40591043 0.77794355 -0.008570579
0003d0 21 95 01 3f 7c 38 0d 3e 05 40 59 bd e3 6b bd be
       0.5061818 0.13791078 -0.05303957 -0.36996374
0003e0 88 aa 76 bb 2d 1a 3a be 9a 5b 59 3e 53 7c 98 be
       -0.0037638266 -0.18174048 0.2122635 -0.29782352
0003f0 5e d5 21 bd 39 6c b9 3d dd c4 0d 3e a2 ab c0 3d
       -0.039510123 0.09053845 0.13844629 0.09407736

q.2.weight f4 [256, 256]
000000 9c 56 8b 3b c8 ef e5 3d 00 80 8e bd e1 74 85 3d
       0.004252268 0.11227375 -0.06958008 0.065164335
000010 4c 84 c6 3d 40 5c 08 3d 70 68 e9 bc 36 d1 9f 3c
       0.096932024 0.0332911 -0.028492182 0.01950894
000020 15 1b 5c 3d c5 ab 82 3d e8 2b 0b be 7a 69 e5 bc
       0.053736765 0.06380419 -0.13590968 -0.028004397
000030 73 29 80 be 66 d9 63 b9 25 14 ba bc b0 a6 0c bd
       -0.25031623 -0.00021729394 -0.022714684 -0.034338653
000040 2e b1 2a be 7d 35 32 3b 43 8e 11 bd 01 76 fe 3d
       -0.16669151 0.0027192526 -0.035536062 0.12424851
000050 f3 d0 0c 3c 80 7c a6 be 8a 3d a7 3c 10 04 be bb
       0.008594739 -0.3251686 0.020415086 -0.005798824
000060 6f 9f 0e be 11 48 1d be d9 3e f9 3d b7 1a cb 3d
       -0.13928007 -0.15359522 0.1217019 0.09917205
000070 f8 a8 e9 3c 56 06 86 bc c4 07 d0 bb a7 7f 86 be
       0.028522953 -0.016360443 -0.006348582 -0.26269266
000080 95 c8 07 3c 02 4f b7 3d fb 68 15 3d 84 6a 64 bc
       0.008287569 0.089506164 0.03647707 -0.013941411
000090 05 88 f9 bd e8 f0 1a bc f0 b9 89 bc ac 8b a3 3d
       -0.12184147 -0.009456851 -0.016812295 0.07985625
0000a0 7f 06 b9 bd c8 76 f5 bd 42 c0 b9 3d 46 ed c5 bc
       -0.09034442 -0.11985546 0.090698734 -0.024160992
0000b0 0e ff 10 bd 98 e6 45 3e 5a 51 30 3e 54 1e 96 3c
       -0.03539949 0.19326246 0.17218533 0.018325008
0000c0 29 97 7f bd 0c 7c 67 3d c6 c0 b1 bd a0 94 4a be
       -0.062400017 0.056514785 -0.08679347 -0.19783258
0000d0 6d ab da bd f1 de 2e be e7 fc 85 3d 50 cb 4c bd
       -0.10677228 -0.17077233 0.06542378 -0.04999858
0000e0 ac ef 89 bd 98 d5 b0 be 6e 15 1d be 90 9f ec bb
       -0.06735167 -0.3453796 -0.15340206 -0.00722117
0000f0 38 78 81 bc c5 3f 52 3d 97 22 08 3d b0 b8 00 3d
       -0.015804395 0.051330347 0.033236112 0.03142613
000100 37 0f 3d 3e 2d 85 e9 bc c2 fe 79 3d 68 55 90 bd
       0.18462835 -0.028505886 0.06103397 -0.0704754
000110 6c 4c 6d bd 6f 80 e5 bd a4 06 89 3e a8 5a 5f bd
       -0.05793421 -0.112061374 0.2676288 -0.054529816
000120 9c 89 88 3c b5 b8 f3 3c 68 f7 49 be 91 4d b9 3c
       0.01666718 0.029751161 -0.19723284 0.022619994
000130 54 ca a0 be 0b 09 8c be ef b3 d8 bc 15 82 21 be
       -0.31404364 -0.2735065 -0.026452987 -0.15772279
000140 24 25 11 be 48 94 71 3d c0 8d 7a bb b0 d7 aa bc
       -0.14174324 0.058979303 -0.0038231462 -0.020854801
000150 7b 29 43 be 13 6a d3 bd 83 59 13 bc bf 83 48 bc
       -0.19058792 -0.103229664 -0.008993509 -0.012238442
000160 72 b4 2a bc 30 44 21 be a6 d3 5d be c5 a1 93 bd
       -0.010418998 -0.15748668 -0.21662769 -0.072085895
000170 f1 75 ae 3d a0 65 26 bd 2f e5 db bd 87 02 25 3e
       0.08518589 -0.04062426 -0.10737073 0.16114245
000180 cb 62 e6 bd 4e 6d 0a bd c7 6c 41 3d d3 74 3a be
       -0.11249312 -0.033795647 0.04722288 -0.18208627
000190 1f a5 84 3c c0 17 69 bb 94 3d 7c 3d ab 2a 20 3d
       0.016192017 -0.0035567135 0.061582163 0.03910319
0001a0 7b dd 79 3c ee 08 db bd 4f 5a 72 3d 60 4a 6e 3b
       0.015250559 -0.106950626 0.059168156 0.003636025
0001b0 4e 3e 1d 3b 5f 15 8a bc 96 85 54 3d 12 b9 1e 3e
       0.0023993435 -0.016855894 0.05188521 0.15500286
0001c0 60 38 09 3c 72 a0 d3 3d ed 5b 5e bd f9 54 89 3c
       0.008375257 0.10333337 -0.054286886 0.016764151
0001d0 b0 2c 53 3d 26 9b cc bd 67 be f7 3d 0e f4 69 3b
       0.05155629 -0.0999053 0.12096863 0.0035698446
0001e0 3c 3e f3 3d 9c 55 6a 3e 31 a7 93 3d 58 15 95 bd
       0.11877105 0.2288422 0.072096236 -0.072794616
0001f0 80 7c cb 3b de 16 8c 3e 56 cc aa 3e 4e 62 dc bb
       0.00620991 0.27361196 0.3335902 -0.006725586
000200 f6 ef fc 3c 01 37 07 bc 8d 31 16 be 06 ce 38 be
       0.030876141 -0.00825286 -0.1466734 -0.18047342
000210 28 d0 18 be 6a 25 e1 bd 1d 4b 77 3d d4 01 13 bd
       -0.14923155 -0.10993464 0.060374368 -0.035890415
000220 86 46 3d bd 2c f3 dd 3d 3d 1e 24 3d 44 5a f7 bd
       -0.046209835 0.10837397 0.0400679 -0.12077764
000230 1c f0 ab 3d a1 24 91 bc 98 47 5c 3d e8 fb 25 3c
       0.083954066 -0.017717661 0.053779215 0.01013086
000240 1c c3 3c bc 01 45 ed 3d 24 28 4a bd 8c 21 84 be
       -0.011521127 0.11585427 -0.049354687 -0.25806844
000250 58 04 9d 3d 03 79 c4 3d 89 10 f0 bd 24 07 62 bd
       0.07666844 0.09593394 -0.11721904 -0.05518259
000260 c7 0e 5c bc 32 43 10 3d 3e 3c e7 3c 29 c1 36 bd
       -0.013431258 0.035220332 0.028226968 -0.044617806
000270 c0 9d 8f ba 04 76 a0 3d 4e 51 54 3d d5 44 20 be
       -0.0010957047 0.0783501 0.05183535 -0.15651257
000280 ac 68 7d bd ac 2b 97 3d 6d 05 8b bd 01 dd 04 3e
       -0.0618674 0.073813766 -0.06788144 0.12974931
000290 fc 7e 76 bc b8 b1 84 3d 40 5f 9f 3d 9f 42 ca 3d
       -0.015044924 0.0647921 0.07781839 0.09875988
0002a0 fc 6e 78 3e 81 67 6d bd e5 e9 f9 bc f8 36 54 be
       0.24261087 -0.057960037 -0.030507037 -0.20724094
0002b0 9f 61 bb 3d c0 44 f8 3d cf 44 f5 3d 53 88 52 3e
       0.09149479 0.12122488 0.11976015 0.20559816
0002c0 c0 9a 58 be 2d 4e 5c 3e 4a db 9c 3e a4 87 bb 3d
       -0.21152782 0.21514197 0.30636054 0.09156731
0002d0 5a 47 35 3c 52 3b 19 bd d9 7c 14 3d 40 6b cc ba
       0.011064375 -0.037410088 0.036251877 -0.0015595928
0002e0 b4 cb c1 3d 3c 1f d8 3d b0 f0 81 bd 89 c5 83 be
       0.094626814 0.105528325 -0.063447356 -0.25736645
0002f0 28 df 3d be f8 90 3b 38 87 ed 27 3c d1 b5 ab 3d
       -0.18542159 4.4719287e-05 0.010249502 0.08384288
000300 96 06 bd bb 7b c1 d8 bb 36 54 82 bc 21 1e 44 be
       -0.0057686074 -0.0066148615 -0.015909296 -0.19152118
000310 28 98 cb 3d 0f 7e 18 be 8f 79 a5 3d 1a 21 de bd
       0.09941131 -0.14891838 0.08079826 -0.10846157
000320 e3 c1 13 3e eb d8 23 be ea 63 74 3d fc e5 7b be
       0.1442943 -0.16000716 0.059665598 -0.24599451
000330 ba cf 58 bd 3e 7e 2f 3d 98 5f 04 3c 44 e4 8f 3e
       -0.05293248 0.042845003 0.008079432 0.2810384
000340 2c e9 41 3d c8 e1 4d bd dc 0d e9 bc 77 bc 8b 3e
       0.04734151 -0.05026415 -0.028448991 0.27292225
000350 a4 c3 bc 3d b4 e8 64 be 81 68 1a 3e a6 52 58 bc
       0.09217003 -0.22354394 0.15078928 -0.013203299
000360 74 af 24 be 06 0f 1b 3d 70 0a 5d 3d 89 47 01 be
       -0.16082555 0.037856124 0.053965032 -0.12624945
000370 77 ae 9e bd 36 b8 7a 3d b2 33 58 3d 1a 41 16 3d
       -0.0774812 0.061210833 0.052783675 0.03668318
000380 44 ab bd bb 87 39 56 3c a1 73 aa 3d dc 3f 00 3e
       -0.0057882387 0.013075239 0.08322836 0.1252436
000390 63 b1 23 bd 03 f7 05 3e fc a2 e3 3d 29 e2 be bc
       -0.03996409 0.13082509 0.11115071 -0.023301201
0003a0 06 1d 02 3e 62 22 52 bd 4b 84 0d bd ac f8 82 3d
       0.12706384 -0.05130232 -0.034549993 0.06395087
0003b0 d4 cc a3 bd 24 94 16 3d 5a 9b d2 bd 25 2c c7 bd
       -0.07998052 0.03676237 -0.10283537 -0.09725217
0003c0 d6 c9 87 bd f8 41 7f bd db 1b 29 be ed d9 e6 3d
       -0.06630294 -0.062318772 -0.16514532 0.11272035
0003d0 61 f2 b1 3c e7 84 07 be 0c 86 4f bd 24 2e 0f bd
       0.02172202 -0.13234292 -0.050664946 -0.034956113
0003e0 cb 82 9b ba 59 7c 91 3d 6e 18 c1 bd b4 7a dc 3c
       -0.0011864541 0.071037956 -0.09428488 0.026913978
0003f0 4a 51 d4 3d 10 fa d2 bb e0 ff b9 bd df 5f 32 bc
       0.10367067 -0.006438501 -0.090820074 -0.010887115

q.2.bias f4 [256]
000000 46 c1 98 be 2c c1 b8 bc 20 06 67 bf e5 7c 77 bf
       -0.29834956 -0.022553049 -0.9024372 -0.9667495
000010 bc 81 87 bf 62 75 2f bd bc 7c 64 bc 5f 4c bc c0
       -1.0586467 -0.042836554 -0.013945755 -5.8843226
000020 83 3c 30 c0 36 85 10 c0 53 f5 f2 bc 7b 8a 98 bf
       -2.7536933 -2.2581306 -0.029657995 -1.1917261
000030 ff 69 68 40 98 79 93 bf da 90 28 bc 1e 99 61 bd
       3.6314695 -1.1521482 -0.010288442 -0.055077665
000040 1b 5d d4 bb 0e 4c a5 bc da 33 0c c0 77 4b 8b 3c
       -0.0064808256 -0.020177867 -2.1906648 0.017003758
000050 4b e8 88 c0 22 3e e3 bf 08 63 12 c0 7e 6a 12 3e
       -4.278356 -1.7753336 -2.2872944 0.14298436
000060 35 94 ae bd 67 b2 cd 40 28 68 8b bf d7 5e 58 41
       -0.08524362 6.4280276 -1.0891161 13.523154
000070 b1 ba 1f be ab 3c 5e bc f5 ca 6a bd b7 12 8e 3d
       -0.15598561 -0.013564269 -0.05732246 0.06937163
000080 96 64 cd bf 36 75 59 bc cd 7c 89 c0 53 af 13 c0
       -1.6046321 -0.013272574 -4.2964845 -2.307576
000090 77 89 57 c0 eb 06 ae c0 2a e4 93 bf d2 26 aa bf
       -3.3677652 -5.4383445 -1.1554005 -1.3293097
0000a0 ad 32 2c c0 d1 1a 94 be 0d 78 e7 bd 59 89 12 bc
       -2.690593 -0.2892671 -0.11302195 -0.008943879
0000b0 37 bc 89 bc 02 fe 90 bd 8a a0 5b bc 35 52 48 c0
       -0.01681338 -0.07079698 -0.013404975 -3.1300175
0000c0 d4 98 21 bc 61 c8 2f bf ac 59 58 bd 3c 43 4f bf
       -0.009863097 -0.6866513 -0.052819893 -0.80961967
0000d0 e5 6b 54 bf a2 bd 08 bd b5 10 8e bc 89 c2 03 c0
       -0.82977134 -0.033383973 -0.01734195 -2.0587485
0000e0 3e ad 11 c0 95 27 97 bf f6 db 86 bf 73 cc f9 bc
       -2.2761989 -1.1808954 -1.0535877 -0.030492997
0000f0 28 75 87 bf 1b a4 9a c0 ee 45 5e bf 47 e0 da bf
       -1.0582628 -4.8325324 -0.86825454 -1.7099694
000100 9f cd f4 c0 22 3d 09 bd df ff 3d c0 06 3f 84 bf
       -7.6501 -0.033505566 -2.9687421 -1.0331733
000110 60 0e e6 bd e3 a1 a4 bf 11 84 6a bd 0d 55 9e 3a
       -0.112332106 -1.2861904 -0.057254855 0.001207979
000120 32 a6 6e ba d8 80 6d bf 71 d5 ad bd e8 71 9f bf
       -0.00091037445 -0.92774725 -0.08487976 -1.2456636
000130 0f 3d c7 bf 5b 56 18 be 1d 34 95 bf 4b 77 f6 3b
       -1.5565509 -0.14876692 -1.1656529 0.007521545
000140 25 d1 d9 bc cb fb 6e bc 96 6e 10 bd 1e 87 27 c0
       -0.026588986 -0.014586399 -0.035261713 -2.617622
000150 fd b7 3f be e8 be 31 bd 6f e9 d3 40 c9 38 c9 40
       -0.1872253 -0.043394953 6.6222453 6.288182
000160 58 75 36 bc 8d ea 06 bd dd fd 14 bd 11 65 1b c1
       -0.011136375 -0.03293853 -0.036374915 -9.712174
000170 68 2a 77 bd a2 4f 54 bb 2b 47 b6 40 e2 21 54 bf
       -0.060343176 -0.0032396098 5.6961875 -0.828642
000180 f3 4d e1 c0 10 74 8c bf d8 60 71 bf 47 b3 14 be
       -7.0407653 -1.097292 -0.94288397 -0.14521514
000190 75 29 33 c0 b9 65 1c 3d fb e3 58 c1 f0 31 21 bc
       -2.7994053 0.038182948 -13.555659 -0.009838566
0001a0 9a 83 53 bb 43 80 62 c0 5f 61 36 38 58 15 35 be
       -0.0032274486 -3.5390785 4.3482865e-05 -0.17683923
0001b0 a7 ba dd bf 72 32 e3 3c a2 f5 22 be 76 d5 64 bd
       -1.7322587 0.027734015 -0.15914014 -0.055867635
0001c0 07 ff 25 c1 1b fa 25 bd 37 24 00 c0 ee 9b 0a c0
       -10.374763 -0.040521722 -2.0022104 -2.1657672
0001d0 47 2f 24 3c dc fb 47 41 76 6a 4c bd 1b cf 4c bf
       0.010021037 12.498989 -0.049906217 -0.8000352
0001e0 37 dc 6e bb 68 28 a8 3a a8 5b 81 be 22 9e 48 bd
       -0.0036447176 0.0012829425 -0.2526524 -0.048978932
0001f0 d6 3f 0f 3d c1 2c a8 bf d8 a0 fc bf 4c e7 1c 3c
       0.034972988 -1.3138658 -1.9736586 0.00957663
000200 7b bd 4e bc 37 df 67 bd 66 9e 5f bf b8 48 0c be
       -0.012618418 -0.05660936 -0.8735107 -0.13699615
000210 48 84 db 3c 31 a5 85 bf c9 2b 82 be c3 33 16 3d
       0.026796475 -1.0441037 -0.2542403 0.036670458
000220 fa ad 85 bf 2f dc 43 3c 20 10 d9 bc 3e 89 90 bf
       -1.0443718 0.011954351 -0.026496947 -1.1291883
000230 b0 bc 14 bc bb 67 19 c0 33 4e e7 bb 76 24 ed c0
       -0.00907819 -2.3969562 -0.0070588826 -7.410701
000240 14 b8 83 3b 38 34 86 bb 85 c4 f5 bd 7a b5 ac ba
       0.0040197466 -0.0040955804 -0.12000374 -0.0013176643
000250 70 a9 1d c1 64 de 82 bf 08 99 1f bd 7f 56 8f bd
       -9.853867 -1.0224118 -0.0389643 -0.0699892
000260 9c 70 7a bf 1c 61 3d bd 75 3b 1b 3d e2 8a 85 bf
       -0.9782808 -0.04623519 0.0378985 -1.0433009
000270 83 bd d9 bf 69 ba 83 bf 2d b4 1f c0 74 23 91 3c
       -1.7010959 -1.0291263 -2.495372 0.0177171
000280 b5 b3 13 bd 04 15 af bf 61 f8 d1 bf c1 0f 6b 3d
       -0.036060054 -1.3678288 -1.6403924 0.05738807
000290 60 42 15 bd 9b d5 eb be 1b f9 27 be 87 e8 59 bd
       -0.036440253 -0.46061406 -0.1640362 -0.05320027
0002a0 ea 48 a0 bf c8 89 88 bf be 96 cf bf e3 5b 40 be
       -1.2522252 -1.0667048 -1.6217878 -0.18785052
0002b0 f3 f7 81 bd d1 c4 7f 3b 8e b7 9f bf bc 01 8a bf
       -0.06346121 0.0039027224 -1.2477891 -1.0781779
0002c0 29 d3 4a bf 6a 5b 49 bd ee 65 d9 c0 14 12 00 be
       -0.79228455 -0.049159445 -6.7936926 -0.12506896
0002d0 84 54 8b bf 5d bf ef bd ea de 5b bf c5 6b 85 be
       -1.0885167 -0.117064215 -0.85887015 -0.26058784
0002e0 94 2e e6 3e 21 2d da bd db f4 13 bc 9c 35 da ba
       0.4495741 -0.10653139 -0.009030546 -0.0016648057
0002f0 36 f7 e4 c0 5b a2 7f c1 8c 49 3f c1 fe c2 b6 be
       -7.155177 -15.977138 -11.955456 -0.35695642
000300 26 c0 0f c0 da 89 97 bf e5 59 08 3c 9a d3 6e be
       -2.2461028 -1.1838944 0.008322214 -0.23322907
000310 e3 49 6a bd 2b a1 01 bd f5 7c 0f be cb bc 8d bc
       -0.05719937 -0.031647842 -0.14012511 -0.017301938
000320 55 62 db bf 54 0f 80 bd c8 7e 0c bd 20 fd 28 bc
       -1.7139384 -0.062529236 -0.034300596 -0.010314256
000330 44 30 00 c0 76 78 f2 bf 51 dc 01 c0 59 69 63 c1
       -2.002946 -1.8943012 -2.029072 -14.21322
000340 34 6a 2e bd d4 49 cc bd 9e 6a 94 bc 23 a1 82 bf
       -0.042581752 -0.09975019 -0.018117245 -1.0205425
000350 a6 e5 9c bd e0 4a 0f bd 76 93 d5 bd 1d 08 c1 bd
       -0.076609895 -0.034983516 -0.104285166 -0.094253756
000360 72 bc 2c be 03 eb 88 bc c3 51 ba bc be fe 86 bf
       -0.16868761 -0.016713625 -0.022744065 -1.0546491
000370 3c 30 46 bd 77 b7 b6 bf 7f 88 89 bd 39 49 4c bd
       -0.048385844 -1.4274739 -0.06715488 -0.049874518
000380 c6 86 82 bf 6a b4 86 bf 9d d3 04 3d 94 67 17 bd
       -1.019738 -1.0523808 0.032428373 -0.036964014
000390 c1 ff fc bf a3 44 86 bf 2d 71 04 3c 5c 15 dc bb
       -1.976555 -1.0489696 0.008083624 -0.0067164134
0003a0 13 fe 95 bb 95 bb 83 c0 79 2f 19 c0 33 f3 8c bf
       -0.004577407 -4.116648 -2.3935225 -1.1011719
0003b0 f9 41 46 c0 c4 13 39 bc 44 1e 1f bf 66 be 96 bf
       -3.0977767 -0.011296216 -0.62155557 -1.1776855
0003c0 fb 7e 9d c0 75 87 93 bf bd 26 de 3c 7c 74 80 bf
       -4.9217505 -1.1525713 0.027118081 -1.0035548
0003d0 16 ce 7c c0 77 54 a3 ba bd 38 e6 bf 58 96 1d bc
       -3.9500785 -0.0012461086 -1.7986065 -0.009618364
0003e0 69 31 ed 3c 71 d7 a5 bf e5 79 e1 3c 87 cb 4b bd
       0.028954225 -1.2956372 0.027523944 -0.049754646
0003f0 1d c0 89 bf e7 d0 fe bb 2e 04 55 bc 37 9b 7d bf
       -1.0761753 -0.007776368 -0.013001485 -0.99064964

q.4.weight f4 [10, 256]
000000 64 e5 15 bf 07 23 f0 ba 02 36 08 bf e3 36 ec be
       -0.5855315 -0.0018320986 -0.5320741 -0.46135625
000010 e7 33 f3 be 53 c7 28 bd 43 bb 65 3c 3c ed bd bc
       -0.47500536 -0.041205715 0.014021697 -0.023184411
000020 de 9f 31 bf fe d9 15 bf e2 36 7f bd db ba 11 bf
       -0.6938456 -0.58535755 -0.0623082 -0.56925744
000030 eb 61 c6 3e e4 66 de be 03 d8 19 bd 5f 15 0c 3c
       0.3874658 -0.43437874 -0.03755952 0.008550017
000040 c6 bd 10 3d a7 5c 55 3d f2 d0 c1 be 5e bb 6d 3c
       0.035337232 0.052090313 -0.37854725 0.014510004
000050 e1 1c 0c be 9f 91 0c bf 39 f2 1d c0 84 d2 8c bd
       -0.13682891 -0.549097 -2.467909 -0.0687609
000060 b0 9d 82 bd a6 b0 00 3f 1c 60 00 bf bc f1 87 3f
       -0.06377733 0.50269544 -0.5014665 1.0620646
000070 76 6b bb bd f8 04 2d bc 9c 61 94 3c 81 c0 50 3c
       -0.09151356 -0.010560267 0.01811295 0.012741209
000080 05 d8 b6 be 49 dd 98 bd c3 6b 23 bf 67 e8 17 bf
       -0.35711685 -0.07464082 -0.63836306 -0.5933899
000090 c3 f6 32 bf 6d c4 4f bf 1e 35 0c bf b2 f7 ef be
       -0.6990778 -0.81159097 -0.5476855 -0.46868664
0000a0 39 05 fc be ee a1 00 be cf 3b b5 3c 2c 74 a8 3c
       -0.49222735 -0.12561771 0.022123246 0.020563208
0000b0 ce 66 3a 3d 8b 01 41 3b 9c bf 69 bd 02 43 45 bf
       0.0455082 0.0029450383 -0.0570675 -0.7705537
0000c0 ef cf 41 3d 8f c0 8c be 0c 58 49 3d 1b a5 16 bf
       0.04731744 -0.2749066 0.049156234 -0.5884568
0000d0 ea f1 ca be 65 e0 32 bd fb ac f3 bc 44 8d 60 bf
       -0.3963769 -0.04367103 -0.02974557 -0.87715554
0000e0 ec ec 1d bf c8 c9 c9 be c7 a4 fa be c0 20 8c 3b
       -0.6168964 -0.3941176 -0.4895384 0.004276365
0000f0 0f e4 67 be 42 db dd be 52 9b 99 be 09 bf c9 be
       -0.22645591 -0.43331343 -0.30001312 -0.3940356
000100 0f 44 0d be 33 4e 36 3d 4c 2b 1a bf 17 0a d1 be
       -0.13795494 0.04450817 -0.60222316 -0.4082801
000110 70 69 27 bd 08 81 bb be 4c 80 b5 bc 45 34 13 3d
       -0.040872037 -0.3662188 -0.022155903 0.03593852
000120 f0 50 43 bc 5d 96 06 bf 2b 5a 79 bd 83 b4 0e bf
       -0.0119211525 -0.52573186 -0.060877007 -0.5574419
000130 b9 fc a2 be 41 f1 4d bd 14 cb 08 bf ba 69 45 bd
       -0.31833437 -0.050278906 -0.5343487 -0.04819653
000140 c2 a2 4e 3d 71 69 0e 3c 5e 4b cb 3b a5 24 db be
       0.050448187 0.008692131 0.006204053 -0.42801395
000150 e6 a0 6b bd 4e ee 34 bc c7 89 38 3f bf 09 81 3f
       -0.05752649 -0.011043144 0.7208523 1.0081099
000160 8e d4 28 3d fc 9f 20 3d e6 e0 54 3c 4f 76 14 bf
       0.041218333 0.039215073 0.012993073 -0.57993025
000170 00 a5 4d bd f4 14 4c bd b9 ad 55 3e 9c c5 d6 be
       -0.050206184 -0.04982467 0.20867051 -0.4194764
000180 23 e3 3f bf cb 25 06 bf 36 b8 f9 be 97 7f 88 bd
       -0.7495596 -0.5240142 -0.48773354 -0.06664961
000190 d8 89 15 bf 67 aa 8e bd 68 db 5e bf df ae bd bb
       -0.5841346 -0.069660954 -0.8705354 -0.0057886685
0001a0 84 4d 16 3c 4e f7 c5 be 07 bb a4 bc 1c 0b 3e be
       0.009173755 -0.3866524 -0.020108713 -0.18558925
0001b0 0c ff 24 be 40 ef 61 3d 3a 2e ca bd 28 88 bc bc
       -0.16112918 0.055159807 -0.09872098 -0.023014143
0001c0 36 45 55 be e9 12 a1 ba d8 0c ff be aa dd c7 be
       -0.20827183 -0.0012288961 -0.49814487 -0.39036304
0001d0 b5 95 2d bd c5 72 c1 3f bd 19 0e bc 79 a5 bc be
       -0.0423791 1.511315 -0.008673129 -0.36844996
0001e0 79 7d 35 3d 36 ad 68 3d 3b e5 38 3e 2e ee 29 bd
       0.044309113 0.05680581 0.18056194 -0.04148691
0001f0 54 d2 f0 bc bf 76 aa be 58 f4 a5 be 9e a4 ed bc
       -0.029397167 -0.3329372 -0.32412982 -0.02900916
000200 54 94 4d bd bb 86 72 bc d8 b5 eb be be 05 6e bd
       -0.050190285 -0.01480263 -0.46037173 -0.058110945
000210 d0 03 91 3c 3c a5 01 bf 7e be cb bd 25 94 6f 3d
       0.017702013 -0.5064275 -0.09948443 0.05849089
000220 7b 31 c3 be 4c 89 50 bd e4 15 32 bc fc 2b ef be
       -0.38123688 -0.050912187 -0.010869477 -0.46713245
000230 c0 65 c9 3a 49 6e de be 38 bf 6c bd 24 84 99 bf
       0.0015365407 -0.43443516 -0.057799548 -1.1993451
000240 95 1c ad bb 19 b0 6e bc f0 a4 a7 bd b3 35 eb bc
       -0.0052829483 -0.014568352 -0.08185756 -0.02871213
000250 83 2d 07 be fc 0e 8b be f2 3e 36 3d 7f 92 d2 bd
       -0.13200955 -0.2715987 0.044493623 -0.10281848
000260 65 5f fc be 4a 51 79 3d d0 b0 c3 bb fc 31 06 bf
       -0.4929153 0.06086854 -0.0059720054 -0.5242002
000270 33 be b6 be 6a f7 fc be c0 5d 22 bf 7d 8a 50 3d
       -0.35691985 -0.49407512 -0.634243 0.050913323
000280 a6 6a 80 bd 7e 46 1e bf d1 c1 f5 be 25 46 e3 3b
       -0.062703416 -0.6182631 -0.47999433 0.006935852
000290 a8 49 36 bd 93 6e 8c be 1a 30 04 bd 7d b9 1d bd
       -0.044503838 -0.2742811 -0.032272436 -0.038506974
0002a0 f5 d2 0b bf 06 bd 06 bf 6b c2 11 bf cd 9b 83 bd
       -0.5461877 -0.52632177 -0.56937283 -0.06426201
0002b0 5e 8d 4b 3d ce b0 20 bd 75 ca 14 bf f0 40 f1 be
       0.049695365 -0.039231114 -0.58121425 -0.47119856
0002c0 54 72 08 bf 52 66 b9 bc b4 53 7e be e3 8b f8 bc
       -0.5329945 -0.022631798 -0.24836618 -0.03034014
0002d0 fe 9a 8a be 9e 01 7c bd 4b 99 e5 be e4 71 2c be
       -0.27071375 -0.06152498 -0.44843516 -0.16840321
0002e0 12 6d 08 3d 52 18 0f 3d fe 59 82 bd f1 f6 89 bd
       0.033307143 0.034935303 -0.06364821 -0.067365535
0002f0 58 63 fc be e3 a1 96 bf 25 e0 6e bf 96 bb f0 be
       -0.49294543 -1.1768154 -0.9331077 -0.47018117
000300 c2 a2 60 bd 55 41 ef be 07 1e ef 3c 25 6a 5f be
       -0.054842718 -0.46729532 0.029189123 -0.21817835
000310 e8 cf 89 bb 88 c6 90 bc 18 a2 03 be d8 b0 68 3c
       -0.0042056926 -0.017672792 -0.12854803 0.014202319
000320 b3 11 e2 be b7 98 75 bd 90 6f 5c 3c 40 19 09 3d
       -0.44154128 -0.059960093 0.013454333 0.033471346
000330 2a b9 56 be 2c 45 1c bf e9 e5 18 bf 1a 73 6a bf
       -0.20969072 -0.6104305 -0.59725815 -0.9158188
000340 7f ee 65 bd 57 f4 e9 bd b0 c3 90 3c 6f 59 05 bf
       -0.05613565 -0.11423557 0.017671436 -0.5208959
000350 64 1f 56 bd 93 e4 d0 bb 81 9f 90 bd 45 ca b7 3c
       -0.05227603 -0.0063749044 -0.07061673 0.022435317
000360 fb 65 0b be 83 fc 92 bc dd 6b a1 3c c8 b3 e1 be
       -0.13613121 -0.017942673 0.019704754 -0.44082475
000370 02 5c 59 3d 66 46 e3 be a8 88 68 bd 7c be 75 3c
       0.05306626 -0.44389647 -0.05677095 0.014999028
000380 37 7e 0c bf 83 3d f0 be 4c c3 78 bd f4 d3 cf 3c
       -0.5488009 -0.4692193 -0.060733125 0.025369622
000390 16 db ac be d1 9e f9 be 94 a9 db bc e8 32 e6 3b
       -0.337609 -0.4875398 -0.02681426 0.0070251115
0003a0 4c 56 5d 3d 93 7e bd bf a4 d0 c3 be 64 15 1d bf
       0.054037377 -1.4804252 -0.38245118 -0.61360765
0003b0 4e 1b 32 bf 7e 3f 2d 3c 73 c6 dd be fa 19 1d bf
       -0.69572914 0.01057422 -0.43315467 -0.6136776
0003c0 a0 e3 30 bf 66 73 da be bc a2 4f bd 7c 5e f8 be
       -0.6909733 -0.42666167 -0.050692305 -0.48509586
0003d0 18 59 57 bf 19 83 1f bd 72 ef 04 bf ea f0 5f bd
       -0.8412032 -0.038943384 -0.51927865 -0.054673113
0003e0 a1 14 3f bd 40 88 24 bf ac 0a bf bc 53 27 aa bd
       -0.046650533 -0.642704 -0.023320518 -0.08308282
0003f0 1d c3 a7 be 4f 0c 26 3c 4d af f9 3c 51 0c be be
       -0.32766047 0.010134771 0.030479098 -0.37118772

q.4.bias f4 [10]
000000 1f 0d f4 40 09 14 c3 40 17 db 8c 40 9c 61 45 41
       7.6266017 6.0961957 4.4017444 12.33633
000010 65 68 aa 40 7a 65 b7 40 6a 56 d1 40 41 07 08 41
       5.3252435 5.7311373 6.5417986 8.501771
000020 f6 61 8b 41 4a 30 63 41
       17.422832 14.199289
