task4/task3_experiment_2_b_local_q2.pt (torch, 281951 bytes, 6 tensors)

q.0.weight f4 [256, 5]
0	0xbaf2dd43	-0.0018529076
1	0x3aa49e58	0.0012559397
2	0xba966692	-0.001147466
3	0x3b1dd4ed	0.0024083212
4	0x3dad7a10	0.08470547
5	0xbc23c229	-0.009995022
6	0x3acecb83	0.0015777204
7	0x3a7e200a	0.0009694105
8	0x3aef6265	0.0018263577
9	0xbe1eb172	-0.15497378
10	0xba0101d1	-0.000492123
11	0x3a408f54	0.00073455763
12	0xbc69fe28	-0.014281787
13	0xbc0e5290	-0.008686677
14	0xbdb2664c	-0.08710918
15	0x3ed7b167	0.42127535
16	0x3ec59efe	0.38597864
17	0xbd8907e7	-0.066909604
18	0x3c504dc3	0.012713852
19	0xbe1a454e	-0.150655
20	0xbdc138af	-0.0943464
21	0xbf10494a	-0.5636183
22	0xbf3c70fc	-0.736099
23	0xbfaaa781	-1.3332368
24	0x3e6efea4	0.23339325
25	0x3b00f094	0.0019674646
26	0xbab8f263	-0.0014110323
27	0x3bb677b6	0.00556847
28	0xbc195f25	-0.009361063
29	0xbe30ddd6	-0.17272124
30	0xbd227d10	-0.03967005
31	0xbbead7d6	-0.007166843
32	0xbc6636cb	-0.01405115
33	0xbd0d3456	-0.03447374
34	0xbe185e2e	-0.14879677
35	0xba81e7ae	-0.0009910965
36	0xba621bae	-0.00086253404
37	0xbb2df6ed	-0.0026544884
38	0xb9a1a555	-0.00030831495
39	0x3da3c280	0.07996082
40	0xba2bc3e9	-0.0006552325
41	0x3b17f046	0.0023183986
42	0x3add78df	0.0016896984
43	0x3a96f649	0.001151749
44	0xbe56860a	-0.2094957
45	0xbada22b9	-0.0016642428
46	0xb9ecc47d	-0.00045159823
47	0xba8f94fd	-0.0010954436
48	0xb86d56f9	-5.6586203e-05
49	0x3eb25ee8	0.34838033
50	0xbd408b97	-0.047008123
51	0xbe8a3db3	-0.27000198
52	0xbda5c0c9	-0.080934115
53	0xbe8e7252	-0.27821594
54	0xbe4219a6	-0.18955097
55	0xba5a1de4	-0.0008320494
56	0x3a995341	0.0011697785
57	0xb9fdb041	-0.0004838724
58	0x3a9c1f6a	0.0011911218
59	0xbe546ecf	-0.20745395
60	0x39bcfde0	0.00036047306
61	0xbb3f0703	-0.0029148466
62	0x3ab66b2d	0.0013917439
63	0xbb8818ff	-0.0041533704
64	0x3e829bd0	0.255095
65	0xbe5c4571	-0.21510865
66	0xbec5d25b	-0.3863705
67	0xbe880aa8	-0.2657063
68	0xbedc489a	-0.4302414
69	0x3ed4ef2c	0.41588724
70	0x3f12fea9	0.5741983
71	0x3ee21cf5	0.44162717
72	0x3e3a4db5	0.18193705
73	0x3dcd7e8f	0.10033905
74	0xbeb2e7f2	-0.34942585
75	0xbd8d6678	-0.0690431
76	0xbebc9c12	-0.36837822
77	0x3eae654c	0.34061658
78	0xbed4e28d	-0.41579095
79	0xbec37aec	-0.3817972
80	0xbe4a17d9	-0.1973566
81	0xbe980e54	-0.29698431
82	0x3dbe2fa0	0.092864275
83	0xbd8e9090	-0.06961167
84	0x3e911da6	0.28342932
85	0xbe3ee31b	-0.18641321
86	0xbee7be1f	-0.45262238
87	0xbef5e9cd	-0.48029938
88	0x3e68eb33	0.22745971
89	0x3dbeb5a8	0.09311992
90	0xbcc2c102	-0.023773674
91	0xb9a26b6f	-0.00030979092
92	0xbd4b27ff	-0.04959869
93	0x3c246177	0.010033003
94	0x3d9f8af8	0.07790178
95	0x3a0e5f0b	0.00054310326
96	0xb9791d19	-0.0002375733
97	0x3a909d6e	0.0011033246
98	0xb9c7d5e0	-0.00038115587
99	0xbe96fd20	-0.29489994
100	0xbd822564	-0.06354788
101	0xbcba0bde	-0.022710737
102	0xbe15de04	-0.14635473
103	0xbcdbe16a	-0.026840884
104	0xbe093e3e	-0.1340265
105	0x3b3c7b4d	0.0028760016
106	0xba1079d7	-0.00055113196
107	0x3b45ffe7	0.0030212344
108	0xbaebb5f2	-0.0017983301
109	0x3ea3e618	0.32011485
110	0x389d9726	7.514497e-05
111	0xbaf8da89	-0.0018986027
112	0xbae63bb5	-0.0017565402
113	0xb9856265	-0.00025441046
114	0x3de30990	0.11085808
115	0xbf3d5260	-0.7395382
116	0x3f48242f	0.7818021
117	0x3cc777b8	0.024349079
118	0x3e1c24b2	0.15248373
119	0x3c883a30	0.016629308
120	0xb9526173	-0.00020063463
121	0x3b341a5e	0.0027481536
122	0xbae97b33	-0.0017813205
123	0x3b2de82a	0.0026536086
124	0x3ebf555a	0.37369806
125	0xbaef95ab	-0.0018278857
126	0x3bbdc09d	0.0057907836
127	0x3b837416	0.0040116413
128	0x3b102db9	0.002199991
129	0x3ebc8278	0.3681829
130	0x3872a52f	5.7851135e-05
131	0x3a4364d8	0.00074536866
132	0x38a8ee96	8.055304e-05
133	0xb939a4d6	-0.00017704381
134	0xbd1f6988	-0.038919
135	0x3f3540f1	0.7080222
136	0xbe07a533	-0.13246612
137	0xbe994530	-0.29935598
138	0x3db8133f	0.08988046
139	0xbeab4882	-0.33453757
140	0x3e02d3f5	0.12776168
141	0x3e28895b	0.16458647
142	0xbe89f30d	-0.26943246
143	0x3d431ed7	0.047636833
144	0xbe85e512	-0.2615133
145	0x3e277560	0.16353369
146	0x3f2221e7	0.6333298
147	0x3d383c1e	0.044979207
148	0xbcd34835	-0.025791267
149	0xbe4f2094	-0.20227271
150	0x3b003ce6	0.0019567548
151	0x3c26d4f1	0.010182605
152	0x3b6d8285	0.0036241126
153	0x3bd63d6a	0.006538083
154	0x3e3085ac	0.17238492
155	0x395743ea	0.00020529298
156	0xbb8014fe	-0.0039087525
157	0x3a132369	0.00056128815
158	0xbba0289f	-0.004887655
159	0xbd86d998	-0.065844715
160	0xbdd3e3cc	-0.10346183
161	0xbea5c899	-0.32379606
162	0xbe2dbc7e	-0.16966435
163	0xbdfb14ac	-0.12259802
164	0xbed8e47f	-0.4236183
165	0x3ac5dfc7	0.0015096598
166	0x39f886be	0.00047402637
167	0x3a91db7f	0.0011128037
168	0xba0279d8	-0.00049772626
169	0xbe892300	-0.26784515
170	0x3b259447	0.0025265382
171	0xbae31f57	-0.0017328066
172	0x3b530359	0.003219804
173	0xba83a317	-0.0010043111
174	0xbedb00a5	-0.4277393
175	0x3ede7e5e	0.43455786
176	0x3f1a4cf4	0.6027367
177	0xbcc34414	-0.023836173
178	0x3de2e29e	0.1107838
179	0x3ed0e5f2	0.40800434
180	0xbacb6a06	-0.0015519268
181	0xba0c3de2	-0.00053497974
182	0xbad7486f	-0.0016424785
183	0xba63c558	-0.00086887693
184	0xbe173cb4	-0.1476925
185	0x3b223499	0.002475059
186	0x3a968c3c	0.0011485885
187	0xb9bc6259	-0.0003593143
188	0x3a96492f	0.0011465902
189	0xbeafd1ec	-0.34339845
190	0x3ec44c70	0.38339567
191	0x3f422b3c	0.7584722
192	0x3edf5508	0.4361956
193	0x3e5bd483	0.21467786
194	0xbe2c623a	-0.16834345
195	0x3f975b7e	1.1824796
196	0x3dd9ecea	0.10640891
197	0xbef75e61	-0.48314193
198	0x3d1d0b8f	0.0383411
199	0x3e977684	0.29582608
200	0x3e35d1c4	0.177558
201	0x3e4b5d90	0.1985991
202	0xbe6bf059	-0.23040904
203	0xbe306dd6	-0.17229399
204	0x3e1d3f94	0.15356284
205	0x3a843cbf	0.0010088905
206	0x389c429a	7.451065e-05
207	0x3ad4a4fd	0.0016223487
208	0xba54be48	-0.00081155123
209	0x3d90ecf0	0.07076442
210	0x39ee626d	0.0004546823
211	0x3bdc28d9	0.0067187366
212	0x3b355d47	0.0027674006
213	0x3bede12a	0.0072595077
214	0xbea75307	-0.32680532
215	0xbabf37af	-0.0014588739
216	0xb994be35	-0.00028370475
217	0xbaac8bc0	-0.0013164207
218	0xbb1c5e80	-0.0023860037
219	0x3ed514ea	0.4161752
220	0xbeae31dd	-0.34022418
221	0x3eb87b69	0.36031654
222	0x3c8e3277	0.017358048
223	0xbd2eac2a	-0.042644657
224	0xbe233486	-0.15938005
225	0x39bff3af	0.00036611917
226	0xbad98178	-0.0016594371
227	0x399e63e9	0.00030210547
228	0xbb050326	-0.0020296066
229	0x3ebff21a	0.37489396
230	0x3b1e98cf	0.0024199968
231	0xb7e429cb	-2.719918e-05
232	0x3b413854	0.0029483037
233	0xba02e4e1	-0.0004993212
234	0xbdfa3c54	-0.12218538
235	0x3eb26b4c	0.34847486
236	0xbd194938	-0.037423342
237	0x3eb2fabc	0.3495692
238	0x3d1e6738	0.038672656
239	0xbc74ca40	-0.014940798
240	0x3eef73bd	0.4676799
241	0x3e5727c8	0.21011269
242	0xbd1e4038	-0.038635463
243	0xbe038145	-0.12842281
244	0x3cfeddb0	0.031111568
245	0x39387c76	0.00017593973
246	0xbb030cd2	-0.0019996655
247	0x3a1938bd	0.00058449415
248	0xb9ae42ed	-0.0003323773
249	0x3e9b15b6	0.30290002
250	0x3c613625	0.013745819
251	0x3c08a6c5	0.008340542
252	0x3d1d7708	0.038443595
253	0xbcdf5c98	-0.027265832
254	0xbe31e456	-0.1737226
255	0x3d8f3950	0.06993353

q.0.bias f4 [256]
0	0xbb07f653	-0.0020746186
1	0xbbfbfee8	-0.0076902993
2	0xbc4c7f81	-0.012481571
3	0x3e2791e7	0.16364251
4	0x3ece6af4	0.40315974
5	0xbbd7161f	-0.0065639163
6	0xbc685c0c	-0.014182102
7	0xbb032184	-0.002000899
8	0xbb1ccd53	-0.0023926094
9	0xbaf1de53	-0.0018453099
10	0xbe2dd7b7	-0.1697682
11	0xba8b46d4	-0.0010625967
12	0xbb060ef0	-0.002045568
13	0xbee18d82	-0.44053274
14	0x3f294a66	0.6612915
15	0xbee47dc1	-0.44627193
16	0xbed76115	-0.42066255
17	0x3f3c96ce	0.7366761
18	0xbcf4e4b1	-0.029894205
19	0xba47884e	-0.00076115585
20	0xbda8e9cf	-0.082477205
21	0xbb2a91cb	-0.002602684
22	0xbb142096	-0.002260243
23	0x3e4849ff	0.19559477
24	0xbb1885fb	-0.0023273218
25	0xbbbe28c6	-0.0058032004
26	0xba9e6317	-0.0012083974
27	0x3f19b3c7	0.60039943
28	0x3d95a2d2	0.07306446
29	0x3e93c56c	0.28861558
30	0xbbe63695	-0.0070255497
31	0xbb38e55f	-0.0028212888
32	0xbedd858b	-0.43265948
33	0xbaadbf94	-0.0013255947
34	0xbb24e66b	-0.0025161754
35	0x3e661225	0.22467859
36	0xba9b34cf	-0.00118413
37	0xbb0c4b25	-0.0021407094
38	0x3e1c441c	0.15260357
39	0x3f48720d	0.7829903
40	0xbee4408b	-0.44580492
41	0xbab59c3b	-0.0013855764
42	0xbbc0084b	-0.0058603636
43	0xbb092b8f	-0.0020930504
44	0x3d997786	0.074935004
45	0xbaaffdf6	-0.0013427127
46	0xbaea775e	-0.0017888357
47	0xbe78241e	-0.24232528
48	0x3eb0b84b	0.34515604
49	0xbb15a194	-0.0022831904
50	0x3bdbec90	0.00671155
51	0x3ec055a3	0.37565336
52	0xbee20ffd	-0.44152823
53	0x3e818fa8	0.25304914
54	0xbeb46998	-0.35236812
55	0xbb4ab9e2	-0.0030933549
56	0xbeb951ef	-0.36195323
57	0xbc89c680	-0.016818285
58	0xbaecc271	-0.0018063319
59	0x3ed8fcf6	0.42380494
60	0x3e8cedd0	0.27525187
61	0xbc11df3c	-0.008903321
62	0xbb1f64c6	-0.002432154
63	0xbb064662	-0.0020488729
64	0x3ea2e967	0.31818697
65	0xba72cd7e	-0.0009262188
66	0xbbd9cdb6	-0.006646837
67	0xbb188df3	-0.0023277968
68	0xbde869aa	-0.11348279
69	0x3e47dc39	0.19517602
70	0xbcba3e25	-0.022734711
71	0xbb21ff93	-0.0024718984
72	0xbd79a7fb	-0.060951214
73	0xbe0553c3	-0.13020234
74	0xbb0688aa	-0.0020528235
75	0x3e91df66	0.28490752
76	0x3eb536eb	0.35393462
77	0xbaefecf5	-0.0018304872
78	0xbb16d883	-0.0023017235
79	0xbc8062d6	-0.015672129
80	0x3f7557ff	0.95837396
81	0xbb816d0c	-0.003949767
82	0xbb136a6a	-0.0022493848
83	0xbbfc9ca0	-0.007709101
84	0xbeab752f	-0.3348784
85	0xbc925054	-0.017860569
86	0xbb2fd72b	-0.002683113
87	0xbb988cf3	-0.0046554743
88	0xbeb7f473	-0.35928687
89	0xbabdd15d	-0.0014481951
90	0xbe750f51	-0.23931624
91	0xbaf65a8d	-0.0018795297
92	0x3e1d0f57	0.15337883
93	0xbab36116	-0.001368555
94	0xbed95274	-0.4244572
95	0xbb2be662	-0.0026229848
96	0xbac3aa55	-0.0014928082
97	0xbc6cf888	-0.014463551
98	0xbb1fe5d1	-0.0024398456
99	0xbd51f474	-0.05125852
100	0xbdf5e69b	-0.12006875
101	0xba9175a1	-0.0011097678
102	0x3e1fa3a3	0.15589766
103	0xbe65afe6	-0.22430381
104	0xbaabef77	-0.0013117631
105	0xbe6ff99b	-0.2343506
106	0xbb955f0a	-0.0045584487
107	0xbae031a9	-0.0017104644
108	0xbdc7d64d	-0.097576715
109	0xbddd44de	-0.10804151
110	0xbae40dcb	-0.001739913
111	0xbb31a3b1	-0.0027105624
112	0xbaeee788	-0.0018226961
113	0xbae55470	-0.0017496478
114	0xbb1f26e2	-0.002428465
115	0xbb89d4ca	-0.0042062746
116	0x3f25494a	0.64564955
117	0x3f40b2c9	0.75272804
118	0x3ec80993	0.39069805
119	0xbaaa5827	-0.0012996242
120	0x3eba9160	0.36439037
121	0xbacd0bc5	-0.0015643766
122	0xbb13f840	-0.0022578388
123	0xbbeff6d7	-0.007323127
124	0xbac7dd20	-0.0015248396
125	0xbe0ee005	-0.13952644
126	0xbe056211	-0.1302569
127	0xbd911fab	-0.07086118
128	0xbed0b576	-0.40763444
129	0xbbe93b1c	-0.007117642
130	0xbaea4fdb	-0.0017876582
131	0xbb213e29	-0.00246037
132	0xbed2fe77	-0.41209766
133	0xbb51841a	-0.0031969608
134	0xbac382b3	-0.0014916271
135	0x3ea63721	0.32463935
136	0x3fb00e50	1.3754368
137	0xbaa5b741	-0.0012643115
138	0xbb3c87fa	-0.0028767572
139	0xbae64927	-0.0017569409
140	0xbae7fe01	-0.00176996
141	0xbaf9fed5	-0.0019073138
142	0xbe73b61c	-0.23799938
143	0xbece9fea	-0.4035638
144	0x3eb2b5ca	0.3490432
145	0xbc0721ac	-0.008247774
146	0x3ae793b2	0.0017667918
147	0x3f0c6197	0.5483641
148	0x3c560742	0.013063254
149	0x3e088003	0.13330083
150	0x3bb27696	0.0054462655
151	0xbecf7baa	-0.40524036
152	0xbb2e714b	-0.002661782
153	0x3e7007bb	0.23440449
154	0xbb1bb38a	-0.0023758137
155	0xbb039bc9	-0.002008187
156	0xbaff4846	-0.0019476495
157	0x3edb3e05	0.42820755
158	0xba9a6c69	-0.0011781576
159	0xbed7760d	-0.42082253
160	0x3f15a79a	0.58458865
161	0xbabd1176	-0.001442476
162	0x3da5ac9e	0.08089565
163	0x3f99d843	1.2019123
164	0x3ed12352	0.4084726
165	0xbaea3ac4	-0.0017870297
166	0xbc57de77	-0.013175598
167	0x3e884822	0.26617533
168	0xbcaa0c4b	-0.020757815
169	0x3e233c63	0.15941004
170	0xbaa0e7da	-0.0012276128
171	0xbac1bd13	-0.001478108
172	0xbab62973	-0.0013897851
173	0xba957954	-0.0011403956
174	0xbaa634ec	-0.0012680567
175	0x3f68cfa3	0.9094183
176	0xbed1294f	-0.40851828
177	0xbeae8e91	-0.34093145
178	0xbab2560c	-0.0013605966
179	0xbe9d0c8d	-0.30673638
180	0xbe4c1125	-0.19928415
181	0xbf2b11bf	-0.66823953
182	0x3ee6c288	0.4507029
183	0x3ed1f0a3	0.41003904
184	0xbad9f7d5	-0.0016629646
185	0xbafba16f	-0.0019197891
186	0xbee3ab52	-0.44466645
187	0xbb91c461	-0.004448459
188	0x3d565685	0.052328605
189	0xbaac0133	-0.0013122916
190	0xbb9acdb6	-0.0047242297
191	0xbbd43302	-0.006475807
192	0xbe84355f	-0.2582197
193	0xbae17a5e	-0.0017202606
194	0x3e366ebe	0.17815682
195	0x3ea7dc63	0.3278533
196	0xba9640bb	-0.0011463383
197	0xbedd3b5a	-0.43209344
198	0xbea8ba56	-0.32954663
199	0xbe401e14	-0.18761474
200	0xbc15f2e5	-0.009152149
201	0x3f1231e0	0.57107353
202	0x3b0fc393	0.002193664
203	0xbb14f406	-0.0022728457
204	0x3f0bb1eb	0.54568356
205	0xbe60935a	-0.2193121
206	0xbec8c617	-0.3921363
207	0xbb3124b7	-0.002702994
208	0x3e96cd05	0.29453292
209	0x3d0a9565	0.03383388
210	0xbaf3c312	-0.0018597564
211	0xbbe25d7c	-0.006908117
212	0xbaea3ef3	-0.0017871544
213	0xbb02681c	-0.001989848
214	0xbe1d739c	-0.15376133
215	0xbebb3b01	-0.36568454
216	0xbba04fab	-0.0048923097
217	0x3ed5d0d7	0.41760895
218	0xbea73da0	-0.32664204
219	0xbb540be0	-0.003235571
220	0x3ed649fc	0.4185332
221	0xbc5b709c	-0.013393547
222	0xbd6c0003	-0.0576172
223	0x3eb24fba	0.34826452
224	0xbec66cd5	-0.38754907
225	0xbed19259	-0.40931967
226	0xbb1a9c45	-0.002359168
227	0xbebee045	-0.3728048
228	0xba824e11	-0.0009941478
229	0x3edb781d	0.42865077
230	0xbbfe0d51	-0.0077530523
231	0xbd04e30d	-0.032443095
232	0xbb450c57	-0.003006717
233	0x3f2c5e6a	0.67331564
234	0x3dbb9240	0.09158754
235	0xbc041685	-0.00806201
236	0xbaac2bde	-0.0013135632
237	0xbacd96c9	-0.0015685196
238	0xbb831058	-0.003999751
239	0xbacf45b6	-0.0015813622
240	0xbe9cc438	-0.30618453
241	0xbae39654	-0.0017363527
242	0x3ee9e0fe	0.45679468
243	0xbaa32b1e	-0.0012448763
244	0x3ea1499b	0.3150147
245	0xbad7ef1b	-0.0016474457
246	0xbbb1c517	-0.0054251063
247	0xbed4b613	-0.41545162
248	0xbe974cfc	-0.29550922
249	0xbc117d94	-0.008880038
250	0xbb20c35d	-0.0024530508
251	0xbecc514e	-0.3990578
252	0xbb0e03f9	-0.0021669848
253	0xbc654257	-0.013992867
254	0x3e743a2d	0.23850317
255	0x3ee9ad82	0.45640188

q.2.weight f4 [256, 256]
0	0x3d116a2e	0.03550165
1	0xbf90d687	-1.1315469
2	0xbf9fc61e	-1.2482336
3	0x3db4f004	0.08834842
4	0x3d965494	0.07340351
5	0x3df17881	0.117905624
6	0x3c95f64f	0.018305926
7	0x3e250866	0.16116485
8	0xbe41dabc	-0.18931097
9	0x3a6c45e7	0.0009013102
10	0x3e6c669d	0.23086019
11	0xbfb336f8	-1.400115
12	0xbe1c7377	-0.15278421
13	0x3d574402	0.05255509
14	0x3e430d5d	0.19048066
15	0xbd39813a	-0.045289256
16	0x3d5d89fe	0.054086678
17	0x3e03bd69	0.12865223
18	0x3e4155fd	0.18880458
19	0xbd7250cf	-0.059159096
20	0xbdae4d54	-0.08510843
21	0xbfa29cc6	-1.2704093
22	0xbf0d8373	-0.552787
23	0xbef137d2	-0.471129
24	0xbda8ae37	-0.08236354
25	0xbe9d390c	-0.30707586
26	0xbe34182b	-0.17587344
27	0x3dfe6ef5	0.12423507
28	0xbe2a89ad	-0.16654082
29	0x3e0cac30	0.1373756
30	0x3e0e315c	0.13886017
31	0x3e2a0c56	0.16606268
32	0x3d356988	0.044290096
33	0xbf2219b3	-0.63320464
34	0xbca91c7b	-0.020643463
35	0xbd175547	-0.03694656
36	0xbeb603e4	-0.35549843
37	0xbe84a1a1	-0.25904563
38	0xbd11d06f	-0.03559917
39	0x3d9ad868	0.075608075
40	0xbd1dbfe2	-0.03851307
41	0xbf04a1d5	-0.51809436
42	0xbe1de46f	-0.15419172
43	0x3da37b53	0.079825066
44	0xbd0eecfa	-0.034893967
45	0xbdd03d34	-0.101679236
46	0xbdf2e701	-0.11860467
47	0xb9b73e00	-0.00034950674
48	0xbdfb2db7	-0.12264579
49	0xbeca0637	-0.39457867
50	0xbd7910b3	-0.06080694
51	0x3decb366	0.11557655
52	0x3d72e048	0.059295923
53	0xbd324b8d	-0.043529082
54	0x3d15de14	0.036588743
55	0xbe36b732	-0.17843321
56	0x3d27a302	0.04092694
57	0xbd55b24b	-0.052171987
58	0xbdca62df	-0.098821394
59	0x3d8e225f	0.069401495
60	0xbe11a8e6	-0.14224586
61	0xbd69d1c6	-0.05708482
62	0xbe85680c	-0.26055944
63	0x3d951af1	0.07280529
64	0xbef8a92a	-0.48566562
65	0xbe00a1d4	-0.12561733
66	0xbd754c31	-0.059887115
67	0xbda93c86	-0.08263497
68	0x3d4216fb	0.047385197
69	0x3be85dc9	0.007091258
70	0x3db51e67	0.088436894
71	0x3da0be66	0.078488156
72	0x3e09841e	0.13429305
73	0xbd7cf8d6	-0.061760746
74	0x3e92ceee	0.286735
75	0xbedf3727	-0.43596765
76	0x38c1a1f8	9.233126e-05
77	0xbf4f3fb3	-0.8095657
78	0xbf2ce938	-0.67543364
79	0xbe1c6f22	-0.15276769
80	0x3e41f810	0.18942285
81	0xbcbce230	-0.023057073
82	0xbccbec8c	-0.024893068
83	0x3d849648	0.064739764
84	0xbd515d52	-0.051114388
85	0x3d888620	0.06666207
86	0xbef1632e	-0.4714598
87	0xbd5d2a52	-0.053995438
88	0x3cb04b1c	0.02152019
89	0x3e1a31ed	0.15058108
90	0xbd7ba5d0	-0.061437428
91	0xbd500cc7	-0.050793435
92	0x3c2620dd	0.010139671
93	0xbef6ae8e	-0.4818005
94	0xbc227ff0	-0.009918198
95	0xbd7845a4	-0.06061329
96	0x3ddcaa42	0.107746616
97	0x3db14603	0.08655932
98	0xbf121daf	-0.57076544
99	0x3dac8536	0.084238455
100	0x3e3a39be	0.1818609
101	0xbe295601	-0.16536714
102	0xbde3eb36	-0.11128847
103	0x3df84677	0.12122815
104	0x3e03b080	0.12860298
105	0x3c2c0680	0.010499597
106	0xbdf5ab72	-0.11995591
107	0xbe8682bc	-0.26271617
108	0xbdeb7127	-0.114961915
109	0x3d86ff0d	0.06591616
110	0x3cf43186	0.02980877
111	0xbf6cc3f4	-0.924865
112	0xbe67bd57	-0.22630821
113	0xbebc53a8	-0.36782575
114	0x3d9b891e	0.075945124
115	0x3e074412	0.1320956
116	0x3e0334d9	0.12813129
117	0x3e02579a	0.1272873
118	0xbe8a6576	-0.27030534
119	0xbd6504f3	-0.055912923
120	0xbe1a173f	-0.1504793
121	0xbdf23e3b	-0.11828276
122	0xbe108d35	-0.14116366
123	0x3d9b5408	0.07584387
124	0xbe1a0f92	-0.15045002
125	0x3e0cdffc	0.13757318
126	0x3dfbb9ce	0.12291299
127	0x3c739852	0.014867859
128	0xbcbb3650	-0.022853047
129	0x3c96f794	0.018428601
130	0x3de80db7	0.11330741
131	0xbda4cad3	-0.08046498
132	0xbbbb4480	-0.005714953
133	0x3ce22c82	0.027609114
134	0x3cc971e4	0.02459044
135	0xbe1d5797	-0.15365444
136	0xbf96d2f5	-1.1783129
137	0x3d50bccd	0.050961304
138	0xbfb0a1f6	-1.3799427
139	0xbed7eab8	-0.42171264
140	0xbedd555d	-0.4322919
141	0xbfa78849	-1.3088466
142	0xbc83b0dc	-0.016075544
143	0x3d7054b6	0.058674537
144	0x3db68520	0.0891211
145	0xbe0d70c0	-0.13812542
146	0xbf418f47	-0.7560925
147	0x3e2c9b4b	0.16856115
148	0xbbde8272	-0.0067904526
149	0x3ddc8890	0.10768235
150	0xbe8f4c26	-0.27987784
151	0x3d4dde68	0.05026093
152	0xbe994cfc	-0.29941547
153	0xbe2c0e46	-0.1680232
154	0xbcee87e3	-0.02911753
155	0x3dd6dfd6	0.10491912
156	0x3dcd3af8	0.10021013
157	0x3df7a1b2	0.12091388
158	0x3b804565	0.0039145225
159	0xbce98824	-0.0285073
160	0x3e0e0e37	0.1387261
161	0xbe113cf2	-0.14183405
162	0xbc80ea9a	-0.015736867
163	0x3dc699cd	0.09697304
164	0x3e0550d8	0.1301912
165	0x3e356162	0.1771293
166	0xbde66b8e	-0.11250983
167	0x3de13ae1	0.109975584
168	0xbea4433e	-0.32082552
169	0x3de33a4c	0.110951036
170	0xbe5a4f60	-0.21319342
171	0xbaf777a0	-0.0018880256
172	0xbd167052	-0.03672821
173	0xbe03f21d	-0.12885328
174	0xbee60c53	-0.44931278
175	0x3e2d06bd	0.16897102
176	0x3c9c9730	0.01911506
177	0x3d6ed2ea	0.058306612
178	0x3da9fb13	0.08299842
179	0xbd145ed2	-0.03622324
180	0x3d2af8da	0.04174123
181	0x3e95408a	0.29150802
182	0x3de53081	0.11190892
183	0xbf40c408	-0.7529912
184	0xbea2d04e	-0.3179955
185	0xbfa6eb78	-1.3040609
186	0x3ceb7318	0.028741404
187	0xbe99f01b	-0.30065998
188	0x3e0d1681	0.13778116
189	0xbe17bfb4	-0.14819223
190	0xbda811bc	-0.082065076
191	0xbf20895d	-0.627096
192	0x3e2e6082	0.17029002
193	0x3e098c8c	0.1343252
194	0x3daf584a	0.08561762
195	0xbe656677	-0.22402368
196	0xbed1486b	-0.40875563
197	0xbd6265f2	-0.055273004
198	0x3cd6b344	0.026208527
199	0x3d2a992e	0.04164999
200	0xbf2d9caf	-0.67817205
201	0x3df8bf5c	0.12145874
202	0x3e0d2497	0.13783489
203	0x3e4051dd	0.18781228
204	0x3ceaf8d0	0.028683096
205	0x3e0fc85d	0.14041276
206	0x3ce20162	0.02758855
207	0xbbeaad1b	-0.007161749
208	0xbdcc99ad	-0.09990249
209	0x3ddec5fd	0.10877607
210	0xbebdb224	-0.37049973
211	0xbed550bd	-0.4166316
212	0xbf3ebbaf	-0.7450513
213	0xbe46b28a	-0.19404045
214	0x3c722fe8	0.01478193
215	0x3d72a7f0	0.05924219
216	0x3d942c89	0.07235057
217	0xbe2e4dca	-0.17021862
218	0x3d5308b2	0.051521964
219	0xbf4f6bfa	-0.81024134
220	0x3d17f973	0.037103128
221	0xbe2aef3b	-0.16692822
222	0x3d3a7af7	0.045527425
223	0xbe3b22da	-0.18275014
224	0x3cb655a8	0.022257641
225	0xbd5fbda4	-0.054624215
226	0xbccb27ec	-0.02479931
227	0x3cdc755c	0.02691143
228	0xbd78a3cd	-0.060703088
229	0x3d3679eb	0.044549864
230	0xbe2260ce	-0.1585724
231	0xbdcc52a3	-0.09976699
232	0xbee90479	-0.45511225
233	0x3d272855	0.040809948
234	0xbe732045	-0.23742779
235	0x3e0713d3	0.13191156
236	0xbd93cbc7	-0.07216602
237	0xbe016392	-0.1263564
238	0xbdb0c953	-0.086321495
239	0x3d9a1aa3	0.07524612
240	0xbccf6ea8	-0.02532132
241	0xbebcd7ba	-0.36883336
242	0x3d1f77c1	0.038932566
243	0xbef86f49	-0.48522404
244	0xbdcef42b	-0.10105165
245	0x3d705d67	0.058682825
246	0xbc43f4fe	-0.011960266
247	0x3d038a88	0.032114536
248	0x3ba25493	0.0049539297
249	0xbd88d291	-0.06680787
250	0xbd2245fd	-0.039617527
251	0x3d19e978	0.03757617
252	0xbe03985c	-0.12851089
253	0xbda041fc	-0.078250855
254	0x3beb08c1	0.0071726744
255	0xbe6effe1	-0.23339798

q.2.bias f4 [256]
0	0xc0114faa	-2.2704873
1	0xc06ff9b8	-3.7496166
2	0x3a58269e	0.00082455005
3	0xbd89c769	-0.067274876
4	0xbff280ce	-1.8945558
5	0xc06f3cf7	-3.738096
6	0xbd1300eb	-0.035889547
7	0xbdb7a6e3	-0.08967378
8	0xc00c6de4	-2.1942072
9	0xc0b58a52	-5.673135
10	0xc048e7a7	-3.139139
11	0x3d0ed503	0.034871113
12	0x3d119cef	0.035550054
13	0xc0972994	-4.7238255
14	0x3d2678cd	0.04064255
15	0xc0d9fcae	-6.8120947
16	0xbce4c498	-0.027925774
17	0xbd85d2c3	-0.0653434
18	0xbd7353c0	-0.059406042
19	0xbc935833	-0.017986393
20	0xc0b9b67a	-5.803525
21	0x3df74119	0.12072963
22	0xc03ec03f	-2.9804838
23	0xbfb55e5e	-1.4169424
24	0xbd572c0c	-0.05253224
25	0x3d0a54d9	0.033772323
26	0x3c974e3a	0.018469919
27	0xbddeeaee	-0.10884653
28	0x3cb15d60	0.02165097
29	0x3aef4edb	0.0018257754
30	0xbbcc0f61	-0.0062274192
31	0xbd0896fb	-0.03334711
32	0xc0b715c0	-5.721405
33	0xbc15efdf	-0.009151428
34	0xc04ef68a	-3.2337976
35	0xc07353e2	-3.8019948
36	0xc0c1043d	-6.0317674
37	0xbe585ca4	-0.2112909
38	0xc0b81910	-5.7530594
39	0x3d4ae660	0.04953611
40	0xbfd19404	-1.6373296
41	0xc01ed4e3	-2.4817436
42	0xbfef73d5	-1.8707224
43	0xc08f1bfe	-4.472167
44	0x3e4e133f	0.2012453
45	0xbe44d056	-0.19220099
46	0xc00605d9	-2.094107
47	0xbd5f2f79	-0.054488633
48	0xc089cc94	-4.306223
49	0xbf8a640e	-1.0811784
50	0xbfe827ca	-1.8137143
51	0x3e6845d4	0.22682887
52	0xc051b8d5	-3.2769063
53	0xbcb3df5a	-0.021957088
54	0xbae7d4b6	-0.0017687294
55	0xbd85ebbb	-0.06539103
56	0xc08b7047	-4.3574557
57	0xbd046fb2	-0.032333083
58	0xbd209c99	-0.039211843
59	0xc0837038	-4.1074486
60	0xc1063b11	-8.3894205
61	0xc048ed45	-3.1394818
62	0xbd3b8097	-0.04577693
63	0xbe757fce	-0.23974535
64	0x3caca572	0.021074984
65	0xbeb3d82d	-0.35125867
66	0x3c9ae510	0.018908054
67	0xc09e6762	-4.95012
68	0xbca01428	-0.019540861
69	0xc0460ab4	-3.0944033
70	0xc07e2d9e	-3.9715343
71	0x3c97164f	0.018443255
72	0x3df9d48f	0.121987455
73	0xc0a9f886	-5.3115873
74	0x3db87252	0.0900618
75	0xc0b7a495	-5.7388406
76	0xc060f83f	-3.5151517
77	0xc0788a9a	-3.8834596
78	0x3dcd067f	0.10011005
79	0xc070dbe3	-3.7634208
80	0xbd016cd3	-0.031597923
81	0xbdc6cc0c	-0.097068876
82	0xbd41a9a8	-0.047280937
83	0xbd2b726f	-0.04185718
84	0xbd2eaa56	-0.042642914
85	0xbd8cce88	-0.0687533
86	0xc0550122	-3.3281941
87	0xbfe06ab7	-1.7532567
88	0x3e378c0d	0.17924519
89	0xc04385d6	-3.0550437
90	0xbfed1638	-1.8522406
91	0xbd7e27e6	-0.06204977
92	0xbcec645d	-0.02885645
93	0xbd9a83fe	-0.07544707
94	0x3e701261	0.23444511
95	0x3e1b303a	0.15155116
96	0xbdae1da8	-0.0850175
97	0xc08faee1	-4.4900975
98	0xc03d7508	-2.960268
99	0xbfd0c7c3	-1.6310962
100	0xc05d4963	-3.4576042
101	0xbd805fb7	-0.06268256
102	0xc083fcaf	-4.124595
103	0xbb986f33	-0.004651928
104	0xbc40cbb7	-0.011767319
105	0xbea9099d	-0.33015147
106	0x3d21eb65	0.03953113
107	0xc103830d	-8.219495
108	0xbd480986	-0.048837207
109	0xbcdc1ee6	-0.026870202
110	0xc01c9a42	-2.4469151
111	0xc002d242	-2.044083
112	0xc0af0414	-5.469248
113	0xbfe8b855	-1.8181254
114	0xc018a507	-2.3850725
115	0xc0832eaf	-4.0994487
116	0xc079b126	-3.9014373
117	0xbdb73fc7	-0.089477114
118	0xc097dbda	-4.7455873
119	0x3e8e83d9	0.27834967
120	0xbc90c8da	-0.017673898
121	0xc0092006	-2.1425796
122	0xc02216a6	-2.5326324
123	0x3bd82e33	0.0065973043
124	0x3d1e0ef1	0.038588468
125	0xbd343bfa	-0.04400251
126	0xc08344a6	-4.10213
127	0x3cb55898	0.022136971
128	0xbe160829	-0.1465155
129	0x3d01abb2	0.031657882
130	0x3cc65723	0.024211472
131	0x3fb23a02	1.3923953
132	0xc021dec0	-2.5292206
133	0xc06c9021	-3.696297
134	0xbb28aae0	-0.0025736615
135	0xbd900ce1	-0.070337065
136	0xbcfa2942	-0.030537251
137	0xbd77f189	-0.06053308
138	0xbd6bd6bf	-0.057577845
139	0xbd5a443f	-0.05328774
140	0x3c9b3056	0.018943947
141	0xc095c3ad	-4.680136
142	0x3dbab440	0.09116411
143	0xc108fbed	-8.561505
144	0xbff7b654	-1.9352517
145	0xbd343692	-0.043997355
146	0xbc5544b3	-0.013016867
147	0xbdaeddfb	-0.08538433
148	0xbbd71493	-0.006563732
149	0xc08a5dab	-4.323934
150	0xc0a90a93	-5.282541
151	0xc0047be5	-2.070062
152	0xc0ed5188	-7.4162025
153	0x3ca344c4	0.019930251
154	0xbcac185e	-0.021007713
155	0xc013a601	-2.307007
156	0xc02eb076	-2.7295203
157	0x3f0f1421	0.5589009
158	0x3d69471c	0.05695258
159	0xbd875382	-0.06607725
160	0x3cecf9b9	0.02892767
161	0xc03217e8	-2.7827091
162	0xc07e32d4	-3.9718523
163	0xc07efb9a	-3.9841065
164	0xbf9ea11d	-1.2392918
165	0xbd6d1bb0	-0.057887733
166	0xbdba4c89	-0.09096629
167	0x3b6ccb5c	0.0036131954
168	0x3d440fdf	0.0478667
169	0xbfcb4797	-1.5881222
170	0xbd07b863	-0.03313483
171	0xbd246598	-0.04013595
172	0xc0064e20	-2.0985184
173	0xc014ded1	-2.3260996
174	0xc00dd110	-2.2158852
175	0xc06f87e3	-3.7426689
176	0xbfe46a03	-1.7844852
177	0xbc844e6b	-0.016150674
178	0xc02e06ca	-2.7191644
179	0xbd756673	-0.059912156
180	0xc0c0db6e	-6.026786
181	0xc0894d64	-4.290697
182	0xbc283d0b	-0.01026846
183	0xbe29a570	-0.16567016
184	0xbdd9f684	-0.10642722
185	0x3b6def1b	0.0036305848
186	0x3b2ca183	0.0026341386
187	0xbfc726fa	-1.555877
188	0xbd92050e	-0.0712987
189	0xc03b2db5	-2.9246647
190	0x3df5aaef	0.119954936
191	0xc03a3ef9	-2.9100935
192	0xc0a930ad	-5.287192
193	0x3d5ad46a	0.05342523
194	0xbfeaf994	-1.8357415
195	0xc0d799f6	-6.737544
196	0xbdca5402	-0.098793045
197	0xc07f0382	-3.984589
198	0xbaeb45ee	-0.0017949918
199	0xbd9b47cf	-0.07582056
200	0x3d6cdf67	0.05783024
201	0xbffbb9aa	-1.9666035
202	0xbd8f3177	-0.069918565
203	0x3d01d72d	0.03169935
204	0xc0cc92d1	-6.392922
205	0xc076c781	-3.8559268
206	0xc08cb9ca	-4.3976793
207	0xc006228c	-2.0958586
208	0xbd10ed82	-0.035382755
209	0xc085e893	-4.1846404
210	0xbd1c0b91	-0.038096968
211	0xbd8684d6	-0.06568305
212	0xc00a340a	-2.1594262
213	0xc0312cab	-2.7683513
214	0xc01a5122	-2.411202
215	0xc08b3006	-4.349612
216	0xc1067443	-8.403384
217	0xbd3804f1	-0.044926587
218	0xbfecf339	-1.8511726
219	0x3cdf7160	0.027275741
220	0xc0367db4	-2.8514223
221	0xc05dd551	-3.4661448
222	0xbd4920c0	-0.0491035
223	0x3c334eb1	0.010944054
224	0xc0577b1c	-3.366889
225	0xbc0ae919	-0.008478426
226	0xbfd36e7f	-1.6518096
227	0xbd37289f	-0.044716474
228	0x3d2c6898	0.042091936
229	0xc061e057	-3.5293176
230	0xc0a33d83	-5.1012588
231	0xbd5067c7	-0.05088022
232	0xc02a8532	-2.6643796
233	0x3c3d9d57	0.011573157
234	0xbd8df148	-0.06930786
235	0xbc940f2b	-0.018073639
236	0xbd6d6654	-0.057958916
237	0xbd47a9c2	-0.048745878
238	0xc0faa8fe	-7.833129
239	0xbd1c93ba	-0.03822682
240	0xbd16cc26	-0.036815785
241	0xc015cec3	-2.3407447
242	0xbdaf8183	-0.08569624
243	0xbd80a972	-0.06282319
244	0xbc060c43	-0.008181634
245	0xbd2490a3	-0.040177
246	0xbf6e11c5	-0.92995864
247	0xbfe37f70	-1.7773266
248	0xbd0702b5	-0.032961566
249	0xc008c901	-2.1372683
250	0xbd7a072c	-0.061041996
251	0xbd9e391d	-0.07725737
252	0xbd2b4dfe	-0.041822426
253	0xbfb4e686	-1.413285
254	0xc02ef2d6	-2.7335715
255	0xc0932a3f	-4.598907

q.4.weight f4 [10, 256]
0	0xbe3d32c7	-0.18476401
1	0xbf3a94d1	-0.72883326
2	0xbd81c279	-0.06335921
3	0x3c8eb81d	0.017421776
4	0xbedf9db7	-0.43675014
5	0xbefe8104	-0.49707806
6	0xbd802db7	-0.062587194
7	0x3ba332de	0.004980429
8	0xbeb7673a	-0.35820943
9	0xbefc6365	-0.49294582
10	0xbf1c8ca0	-0.61152077
11	0xbcaa5d01	-0.0207963
12	0xbd87175a	-0.06596251
13	0xbed0167e	-0.4064216
14	0xbcb3e64b	-0.021960398
15	0xbfbe16e4	-1.4850736
16	0x3d12e466	0.03586235
17	0x3b2bf5a0	0.0026238933
18	0xbca16c64	-0.019705005
19	0xbca61ce8	-0.020277455
20	0xbf1fa66e	-0.62363327
21	0x3c3d5189	0.011555084
22	0xbefc5574	-0.49283946
23	0xbe7832bc	-0.24238104
24	0x3c86430c	0.016389392
25	0xbd57b912	-0.05266673
26	0xbc2bac97	-0.01047816
27	0x3d05b0d0	0.032639325
28	0x3ca547bc	0.020175807
29	0x3d2b5238	0.041826457
30	0x3ce27435	0.027643302
31	0xbd9f03e3	-0.07764413
32	0xbf3f1cfd	-0.7465361
33	0x3c099248	0.008396693
34	0xbf1be7e0	-0.6090069
35	0xbecdda97	-0.40205833
36	0xbdd7e8dc	-0.10542461
37	0xbca7a438	-0.020464048
38	0xbf2faa17	-0.6861891
39	0xbd5dfbb0	-0.054195106
40	0xbecb80db	-0.39746746
41	0xbf05d55f	-0.52278703
42	0xbf3646b9	-0.71201664
43	0xbf128097	-0.5722746
44	0xbd6b50bd	-0.057450045
45	0xbc013986	-0.00788725
46	0xbea9bc37	-0.3315141
47	0xbcf13d5a	-0.0294482
48	0xbeef1621	-0.4669657
49	0xbe8de9f6	-0.2771756
50	0xbe7884f5	-0.24269469
51	0xbc0e92a3	-0.008701953
52	0xc01443e7	-2.3166444
53	0x3d15c7d1	0.036567513
54	0xbce4ab39	-0.027913677
55	0x3d677884	0.056511417
56	0xbfa22dac	-1.2670188
57	0x3d5e6816	0.054298483
58	0xbd265ae3	-0.04061402
59	0xbf646fdc	-0.89233184
60	0xbf4f16cb	-0.80894154
61	0xbecdc661	-0.40190414
62	0xbd59176e	-0.05300086
63	0xbd73e375	-0.05954309
64	0xbca8279c	-0.0205267
65	0xbe2068dd	-0.15665002
66	0x3d147086	0.036240123
67	0xc024ac96	-2.5730338
68	0xbd9b4f92	-0.07583536
69	0xbf4a4a15	-0.7901929
70	0xbf2b55c4	-0.6692774
71	0x3cfaec9a	0.030630399
72	0xbcb73779	-0.022365319
73	0xbf8149cb	-1.0100645
74	0xbd8380dd	-0.06421063
75	0xbf285a0b	-0.65762395
76	0x3dbac592	0.09119715
77	0xbe91cbb2	-0.2847572
78	0xbc0fb3a0	-0.008770853
79	0xbed2bd05	-0.41159835
80	0xbd421b88	-0.047389537
81	0x3caaf182	0.020867113
82	0x3d269e5c	0.040678367
83	0x3c9a7c1c	0.018858008
84	0xbd1b1df7	-0.037870374
85	0x3d2cbf9f	0.04217493
86	0xbf8d73f0	-1.1051006
87	0xbeb53c5f	-0.35397622
88	0x3b3ea86e	0.002909209
89	0xbf18c989	-0.5968252
90	0xbe416405	-0.1888581
91	0xbdabbed1	-0.08386005
92	0xbc2ce2a0	-0.0105520785
93	0xbd61b5df	-0.055105086
94	0x3cdb1e37	0.026747806
95	0xbdc10776	-0.09425251
96	0x3bda9170	0.0066701695
97	0xbed3bcff	-0.4135513
98	0xbf7eabd3	-0.9948093
99	0xbea8ebc4	-0.32992375
100	0xbe78694b	-0.24258916
101	0x3ca813b7	0.020517213
102	0xbe910254	-0.2832209
103	0x3d84697a	0.064654306
104	0xbc6d91cb	-0.014500092
105	0xbe8dc22a	-0.27687198
106	0x3d01d971	0.03170151
107	0xbf4b11c6	-0.79323995
108	0xbc9e7359	-0.019342111
109	0x3d05a28d	0.032625724
110	0xbe6b4dd7	-0.22978912
111	0xbf12bcca	-0.5731932
112	0xbee28a6c	-0.44246233
113	0xbf106e3e	-0.56418216
114	0xbf1b0876	-0.60559785
115	0xbe88719b	-0.26649174
116	0xbf4d508e	-0.8020104
117	0x3c2165fa	0.009850973
118	0xbe98ac77	-0.2981908
119	0xbb993c65	-0.004676389
120	0x3bfbe5cb	0.0076873056
121	0xbf034478	-0.5127635
122	0xbe81c5c8	-0.25346208
123	0xbcc9631b	-0.02458339
124	0xbdbd1c41	-0.09233905
125	0x3c0c3fb6	0.008560112
126	0xbf829ba6	-1.020375
127	0x3d4db5a3	0.05022205
128	0xbe0252dc	-0.12726921
129	0xbbca05bf	-0.006165236
130	0x3d65ecc4	0.056134
131	0xbf46db0f	-0.77678007
132	0xbeab1b1a	-0.33419114
133	0xbf0c72dc	-0.5486276
134	0xbcdc94b5	-0.026926378
135	0x3cdea30a	0.027177352
136	0x3c52b0e7	0.01285956
137	0xbc74ee05	-0.014949326
138	0xbb86fe85	-0.0041196966
139	0xbd4fc6a4	-0.050726548
140	0xbd27f804	-0.04100801
141	0xbefb1b4c	-0.49044263
142	0x3c6316b4	0.013860393
143	0xbf9f2b41	-1.2435075
144	0xbefd6aed	-0.4949564
145	0xbcd04b0d	-0.025426412
146	0xbd5ee413	-0.054416727
147	0x3d4eec00	0.050518036
148	0x3d2e664f	0.042578038
149	0xbf5a519d	-0.8528078
150	0xbf06b2f0	-0.52616787
151	0xbeabefdf	-0.33581445
152	0xbf6e6b5b	-0.9313256
153	0x3c7011c0	0.014652669
154	0x3c98c2da	0.0186476
155	0xbf80f15b	-1.0073656
156	0xbe7dca74	-0.24784261
157	0xbf140bff	-0.57830805
158	0x3c5652f4	0.013081301
159	0x3d2ed4c0	0.042683363
160	0x3d2737ea	0.04082481
161	0xbeae8114	-0.34082854
162	0xbf380ebd	-0.7189749
163	0xbf1db94a	-0.61610854
164	0xbea7867b	-0.32719788
165	0xbd1d23da	-0.03836427
166	0x3be3f829	0.006957073
167	0x3cb16f40	0.021659493
168	0xbdc02286	-0.09381585
169	0xbeade39a	-0.3396271
170	0xba128c96	-0.0005590407
171	0xbcd1d0db	-0.025612285
172	0xbfb36356	-1.401469
173	0xbf34b1bc	-0.705837
174	0xbed29f17	-0.41137
175	0xbf5eb39e	-0.86992824
176	0xbf076663	-0.52890605
177	0x3d2938f2	0.041314073
178	0xc0092f99	-2.1435301
179	0x3c13ccb6	0.009020975
180	0xbf4a981f	-0.7913837
181	0xbf0eb17f	-0.5573959
182	0x3d189fcc	0.03726177
183	0xbdd871e6	-0.105685994
184	0xbd106a70	-0.035257757
185	0xbd663d75	-0.056210954
186	0x3d036e80	0.032087803
187	0x3d8d9545	0.069132365
188	0x3d46d95a	0.048547126
189	0xbf00c049	-0.50293404
190	0x3c196634	0.009362746
191	0xbef21509	-0.47281674
192	0xbebf57c7	-0.37371656
193	0xbd585529	-0.05281559
194	0xbec6505e	-0.3873319
195	0xbf1e3636	-0.6180147
196	0xbf7bd559	-0.9837242
197	0xbe98bfe1	-0.29833892
198	0xbcfc018a	-0.030762453
199	0x3c82efd0	0.015983492
200	0xbc1fb059	-0.009746634
201	0xbf1c802e	-0.61133087
202	0xba75beaf	-0.00093744224
203	0x3cca5d12	0.024702583
204	0xbeeb5e0d	-0.45970193
205	0xbeda4640	-0.42631721
206	0xbfcd484e	-1.6037691
207	0xbeca8229	-0.3955243
208	0xbd46ea12	-0.04856307
209	0xbeca8ce9	-0.3956063
210	0xbd840817	-0.064468555
211	0xbc66d703	-0.014089349
212	0xbf1eecff	-0.6208038
213	0xbee4fd44	-0.44724476
214	0xbf35261b	-0.7076127
215	0xbf46c918	-0.77650595
216	0xbf71b7d3	-0.9442112
217	0x3d0ca742	0.034339197
218	0xbe92acc3	-0.28647432
219	0x3c7c8a80	0.01541388
220	0xbe790899	-0.24319686
221	0xbf4d7854	-0.8026173
222	0xbcf35630	-0.029704183
223	0xbd4b576e	-0.049643926
224	0xbf6ea613	-0.9322216
225	0xbcec07f1	-0.02881238
226	0xbf125e06	-0.5717472
227	0x3c407028	0.01174549
228	0x3c8d418e	0.017243173
229	0xbee35f48	-0.4440863
230	0xbde6711f	-0.11252045
231	0x3cd4c7cc	0.025974177
232	0xbe9437d1	-0.28948835
233	0xbd48351f	-0.048878785
234	0xbb82e80e	-0.003994948
235	0x3b97c1d0	0.0046312585
236	0x3d0583e5	0.032596488
237	0x3c8b2d86	0.01698948
238	0xbfa16635	-1.2609316
239	0xbe5668fa	-0.20938483
240	0x3cf4228b	0.029801628
241	0xbf7a5f28	-0.97801447
242	0xbbfc2f0c	-0.007696038
243	0x3d6629b2	0.056192107
244	0x3c048bfd	0.008090016
245	0x3c114560	0.008866638
246	0x3e384217	0.17993961
247	0xbf33de8b	-0.7026145
248	0x3c8cad5c	0.017172508
249	0xbee60f2c	-0.4493345
250	0x3b7789d2	0.0037771356
251	0xbda12e11	-0.078701146
252	0xbd57db08	-0.05269912
253	0xc0191425	-2.3918545
254	0xbeb82961	-0.3596907
255	0xbf09df5a	-0.5385643

q.4.bias f4 [10]
0	0x41574e05	13.456548
1	0x3fa44a99	1.2835265
2	0x409f3e06	4.976321
3	0x4107d727	8.490027
4	0x40cca0f0	6.3946457
5	0x415d78ba	13.841974
6	0x40b9ad58	5.80241
7	0x40d5d1a3	6.6818404
8	0x41af951b	21.947805
9	0x4108f4c8	8.559761
