task4/task3_experiment_2_d_local_q1.pt (torch, 281951 bytes, 6 tensors)

q.0.weight f4 [256, 5]
-0.0067765717 0.01885668 -0.009825654 0.013069488 0.11757189 -0.8419926 0.39666656 0.35325542
-0.53996086 -0.22203377 1.8223152e-05 -0.005714176 0.00088778295 -0.004280127 -0.44683602 1.0555571
-0.3251259 0.7991699 -0.28635263 -0.30497554 0.0038037891 -0.0025360533 -0.0031826503 -0.004817207
0.06284481 -0.0022378934 0.0038692176 -0.0019544717 0.0063595003 0.07963991 0.0026143715 0.012903097
0.00361908 0.02341475 -0.07788575 -0.057188656 0.0015242833 -0.02855868 -0.014540157 0.15255088
0.008801475 0.019594347 0.012059493 0.012339419 -0.37393078 0.083126195 0.0003182606 0.082526974
0.012402732 -0.10474691 0.85504264 0.030277077 -0.00024536668 -0.012971759 -0.41064894 -0.49307758
0.7103645 0.35902432 -0.12678796 -0.0005277395 0.0072936295 0.032019056 0.029530726 -0.054692153
-0.43274355 1.6365824 -0.22132827 -0.10290641 0.19745533 0.26026285 -1.3296338 -0.09991724
0.41304508 -0.22494732 -0.25041613 0.0026510765 -0.008447174 -0.0033908049 0.008329294 0.019371718
0.024928953 0.118364595 -1.148455 1.5435959 0.28724176 -0.19044922 0.27617225 -0.0070683323
0.0012758248 0.27274966 0.36025342 0.03009476 -0.15179297 -0.19595434 0.30413902 0.86415035
0.65972495 0.5707656 0.2939875 -0.43678895 -0.06825938 -0.008852515 0.1295489 0.052732535
0.3736692 -0.019394794 -0.00986709 -0.012656343 -0.02410652 -0.14489678 0.007776963 0.0034805792
0.0065987343 0.00063765404 0.05624771 0.009536332 -0.0035350998 0.008814458 -0.005109639 -0.10237554
-0.00059739774 -0.0024508773 -0.0016520505 -0.002244431 -0.2464646 -0.46058455 0.08865685 -0.26492435
0.049347017 -0.16647652 -0.009508092 0.03047216 0.0006716523 0.021086505 0.24204582 -0.106940925
0.1804688 -0.08866897 -0.2913774 0.007106811 1.1551425 2.7805388 -0.3574013 -1.090249
-0.3994036 0.0002029265 0.001899805 0.0042136475 0.0016730909 -0.42327675 0.0140302805 0.018410362
-0.015603101 -0.012750252 -0.17890441 -0.3038939 0.20726962 0.590701 -0.3166949 -0.07989505
0.046039075 -0.07992542 -0.36528075 -0.0804041 -0.12009928 -0.022979341 -0.02619128 -0.37391078
0.37181008 0.11660284 -0.02294451 -0.0056632375 -0.009655253 -0.0060673016 -0.03894368 0.09868198
-0.03263277 0.00077783363 0.0018524479 -0.3021655 0.71859705 -0.7194194 0.93749213 0.89000964
-0.11721355 -0.08189696 0.026192129 -0.03306967 -0.28342608 -0.11758566 0.10915345 -0.17877215
0.32391614 -0.15862644 -0.38450065 -0.012365604 0.0030037914 -0.000752313 -0.01811432 0.21479142
1.0241371 1.2231382 1.6847136 -0.16582224 0.17740273 0.0068318676 -6.48736e-05 0.0013882545
-0.0032017059 0.20488322 -1.0196327 -1.3807399 -0.071967386 -0.77591896 -0.38242722 0.03904533
0.01550865 0.11250335 0.05483106 -0.033548087 0.6297111 0.008629546 0.534473 0.23329563
0.19514507 -0.10324225 -0.105656475 0.08345288 -0.015377998 -0.10700506 0.0020234312 -0.026300384
0.000306836 -0.012418531 0.08880448 0.34357253 -3.5768428 0.1091845 -0.06347186 0.016035974
0.10300859 -0.024137408 -0.045163482 0.014538863 0.28182155 -0.2633893 -0.059400827 -0.26722562
-0.058612198 0.08632851 0.0048711896 -0.12806967 0.020741204 0.16147669 -0.2583742 0.09251387
00000000: 010e debb 5379 9a3c c8fb 20bc 6821 563c
00000010: 88c9 f03d d48c 57bf e117 cb3e e5dd b43e
00000020: e03a 0abf d25c 63be ecdd 9837 fc3d bbbb
00000030: 1bba 683a 4f40 8cbb b1c7 e4be 7f1c 873f
00000040: e776 a6be 6696 4c3f d09c 92be c125 9cbe
00000050: fe48 793b ea33 26bb 0394 50bb a9d9 9dbb
00000060: c8b4 803d 9fa9 12bb b392 7d3b 9816 00bb
00000070: 5b63 d03b 401a a33d e055 2b3b 8367 533c
00000080: 162e 6d3b 4ad0 bf3c 9082 9fbd a73e 6abd
00000090: 76ca c73a e5f3 e9bc d739 6ebc 4c36 1c3e
000000a0: 1034 103c 5384 a03c 2e95 453c 462b 4a3c
000000b0: db73 bfbe 113e aa3d 37dc a639 e703 a93d
000000c0: d434 4b3c 8c85 d6bd 13e4 5a3f a207 f83c
000000d0: 8fa4 80b9 8087 54bc 9440 d2be aa74 fcbe
000000e0: 73da 353f 09d2 b73e b4d4 01be 0058 0aba
000000f0: 66ff ee3b 6a26 033d 6cea f13c e104 60bd
00000100: 9090 ddbe 887b d13f e1a3 62be 99c0 d2bd
00000110: bb31 4a3e 2c41 853e 7131 aabf 69a1 ccbd
00000120: a57a d33e 9758 66be 8b36 80be afbd 2d3b
00000130: 0466 0abc 4438 5ebb 9777 083c 70b1 9e3c
00000140: ce37 cc3c 2369 f23d 9300 93bf 8d94 c53f
00000150: 5a11 933e 1f05 43be 7366 8d3e 789d e7bb
00000160: 9439 a73a d8a5 8b3e 2373 b83e 4989 f63c
00000170: 9e6f 1bbe 41a8 48be 1cb8 9b3e f538 5d3f
00000180: bce3 283f b21d 123f 8885 963e cda2 dfbe
00000190: 93cb 8bbd 240a 11bc 78a8 043e 12fe 573d
000001a0: 9251 bf3e d5e1 9ebc 93a9 21bc 8d5c 4fbc
000001b0: 097b c5bc d25f 14be e5d5 fe3b 6e1a 643b
000001c0: 323a d83b 3d28 273a 0064 663d 473e 1c3c
000001d0: 22ad 67bb 846a 103c c26e a7bb 44aa d1bd
000001e0: af9a 1cba e69e 20bb 9e89 d8ba 4e17 13bb
000001f0: 3761 7cbe bdd1 ebbe b991 b53d 2aa4 87be
00000200: 1920 4a3d d278 2abe d4c7 1bbc c0a0 f93c
00000210: d311 303a 9bbd ac3c dcda 773e d803 dbbd
00000220: d0cc 383e 1498 b5bd 6b2f 95be 40e0 e83b
00000230: b6db 933f 59f4 3140 4efd b6be 478d 8bbf
00000240: a17e ccbe abc8 5439 e102 f93a a312 8a3b
00000250: 9d4b db3a bbb7 d8be 43df 653c 54d1 963c
00000260: 26a4 7fbc 6fe6 50bc b832 37be fb97 9bbe
00000270: 7d3e 543e 2e38 173f d525 a2be 04a0 a3bd
00000280: 7893 3c3d f0af a3bd 1406 bbbe e8aa a4bd
00000290: 9cf6 f5bd 2c3f bcbc 188f d6bc 3c71 bfbe
000002a0: e45d be3e 78cd ee3d 20f6 bbbc ae92 b9bb
000002b0: 1131 1ebc 37d0 c6bb 6883 1fbd c719 ca3d
000002c0: f0a9 05bd 88e7 4b3a d6cd f23a 70b5 9abe
000002d0: faf5 373f df2b 38bf 7cff 6f3f acd7 633f
000002e0: a80d f0bd 98b9 a7bd e090 d63c 1074 07bd
000002f0: 391d 91be c0d0 f0bd d88b df3d 0c10 37be
00000300: 56d8 a53e f86e 22be 45dd c4be 1a99 4abc
00000310: 42db 443b df36 45ba 7b64 94bc 48f2 5b3e
00000320: ed16 833f cb8f 9c3f b2a4 d73f 4ecd 29be
00000330: 10a9 353e dcdd df3b c00c 88b8 17f6 b53a
00000340: b6d3 51bb e8cc 513e 5383 82bf 16bc b0bf
00000350: a363 93bd a0a2 46bf 80cd c3be ffed 1f3d
00000360: fe17 7e3c 2868 e63d 8996 603d b869 09bd
00000370: bf34 213f f062 0d3c 39d3 083f 0de5 6e3e
00000380: 1cd4 473e ac70 d3bd 6c62 d8bd 58e9 aa3d
00000390: 00f4 7bbc 7825 dbbd 8b9b 043b e773 d7bc
000003a0: d5de a039 1877 4bbc 20df b53d bde8 af3e
000003b0: feea 64c0 209c df3d 89fd 81bd e05d 833c
000003c0: 2bf6 d23d d0bb c5bc 58fd 38bd 6934 6e3c
000003d0: ea4a 903e f6da 86be 484e 73bd ccd1 88be
000003e0: 5813 70bd 00cd b03d 809e 9f3b b224 03be
000003f0: 75e9 a93c 255a 253e a049 84be e977 bd3d

q.0.bias f4 [256]
-0.01841561 0.03636855 -0.0042550564 -0.11574552 -0.009177427 -0.004682039 -0.02350912 -0.036447607
-0.014864151 0.11542438 -0.0009003145 0.26739252 0.0043835426 0.03573821 -0.08914546 -0.0138860885
-0.045096666 -0.047346666 -0.3949262 -0.04323051 0.29001746 -0.022029094 -0.0059740045 -0.0069041974
-0.004313659 0.004966911 -0.020275317 -0.4147145 0.15004332 -0.0031440957 -0.00471857 0.07740551
-0.3326277 -0.4022948 -0.014475113 -0.009933874 -0.01554096 -0.22521016 -0.32964072 -0.016898897
-0.17036244 -0.005664169 0.43858525 0.3203444 -0.0026197128 -0.3510554 -0.027141552 0.25381947
0.13643035 -0.16400012 0.024827695 -0.06852856 -0.0047171405 -0.006907079 -0.44663382 -0.0010128431
-0.020337345 0.046484575 -0.017992966 -0.33655053 -0.0076262453 -0.3721402 -0.007828392 -0.3786208
-0.015293384 0.20366865 0.06029628 0.010648286 -0.3386044 -0.004710566 -0.3136667 -0.008109127
0.6742949 0.33195195 -0.002554828 0.0656691 0.15642743 -0.004794159 -0.29081494 -0.0070313215
-0.10026862 0.19031128 0.84008604 -0.052724984 0.03730336 0.050565887 -0.35470098 -0.096279085
-0.00821957 -0.3825174 -0.022141784 0.13216998 -0.024991551 -0.38805944 -0.0074429386 -0.014265221
-0.01799295 -0.030263502 -0.007577349 -0.43978095 -0.02472145 -0.0024445222 -0.023302257 -0.025775827
-0.029285667 -0.006448394 -0.012776563 -0.0692465 -0.003446921 -0.41867754 -0.005715511 0.03858792
-0.0048663826 -0.01482699 -0.1898474 -0.007013907 -0.14753897 -0.009102644 0.15489908 0.004243924
-0.009991284 -0.4090834 -0.41542843 -0.04521125 -0.11806375 -0.006210238 -0.01477633 -0.013499651
-0.39211062 -0.010571298 0.4176331 -0.0023849339 -0.0065093418 -0.17145275 -0.09794799 0.049866788
-0.27487516 -0.014240029 0.34753442 0.31852677 -0.0052431966 -0.0024251146 0.25609693 0.24809936
-0.03567767 0.050320625 -0.017633447 -0.0013427426 -0.016694995 -0.31461042 -0.005673377 -0.047395572
0.16268663 0.068942934 0.28042105 0.14637186 0.23921789 -0.0065960875 -0.0035819174 -0.0045687635
-0.009948686 0.19069615 0.056381606 -0.34837493 -0.0021609273 -0.004166109 -0.007772138 -0.41797307
-0.032367107 -0.0051263035 -0.008221775 -0.015700346 -0.017741056 -0.006822533 -0.025108702 -0.23474336
-0.0019738905 -0.06590788 -0.00495177 -0.008198311 -0.02156007 -0.23902291 0.08040588 -0.01451242
-0.0024589812 -0.385181 -0.015308806 -0.07967077 -0.0057280837 0.053983998 -0.00217945 -0.4259173
-0.08182803 -0.0046027666 -0.010892623 0.013548474 -0.0024760119 -0.011150872 0.05618254 0.0071225353
-0.031583358 0.05950213 -0.29488444 -0.4234801 -0.004527968 -0.11141501 -0.4509536 -0.010910267
-0.010002789 0.07507244 -0.13354859 -0.3898263 0.11222126 0.35359824 -0.08899088 -0.0017118298
-0.0051453235 -0.053323172 -0.038705725 0.09924154 0.023955286 -0.006692423 -0.018480692 0.018674482
-0.019633416 -0.0028864269 -0.022243984 -0.37559465 -0.015216627 0.033911396 -0.011605695 0.6458572
-0.0046364516 -0.002508656 0.14221637 -0.08572278 0.023413442 -0.009661669 0.012758335 -0.009036924
-0.3482572 -0.001809845 -0.00517694 -0.012122394 0.07149149 0.033744555 -0.0029152525 -0.068246126
-0.004960469 -0.003711091 0.58592504 -0.0029911376 -0.005471186 -0.01322874 -0.0062154266 -0.007968892
00000000: 55dc 96bc 30f7 143d 006e 8bbb fd0b edbd
00000010: eb5c 16bc ca6b 99bb 3396 c0bc 164a 15bd
00000020: c588 73bc 9e63 ec3d 1503 6cba ace7 883e
00000030: d2a3 8f3b 3b62 123d e591 b6bd 7a82 63bc
00000040: 48b7 38bd 94ee 41bd c433 cabe 7a12 31bd
00000050: 2b7d 943e 5c76 b4bc 95c1 c3bb 9b3c e2bb
00000060: 9859 8dbb 78c1 a23b 6c18 a6bc 7555 d4be
00000070: f5a4 193e 2c0d 4ebb 3c9e 9abb c886 9e3d
00000080: 2e4e aabe 96f9 cdbe 0629 6dbc b0c1 22bc
00000090: 839f 7ebc 7e9d 66be abc6 a8be 8e6f 8abc
000000a0: 7e73 2ebe 7e9a b9bb 3f8e e03e 2e04 a43e
000000b0: 7daf 2bbb 89bd b3be f657 debc a0f4 813e
000000c0: 66b4 0b3e a6ef 27be 7363 cb3c b458 8cbd
000000d0: 3e92 9abb c754 e2bb 30ad e4be 60c1 84ba
000000e0: 819a a6bc 9c66 3e3d fc65 93bc 5a50 acbe
000000f0: 95e5 f9bb 2989 bebe a842 00bc 96da c1be
00000100: 1a91 7abc 848e 503e 3bf9 763d 2676 2e3c
00000110: 8e5d adbe 175b 9abb ec98 a0be 25dc 04bc
00000120: 979e 2c3f 9bf5 a93e e76e 27bb 857d 863d
00000130: 832e 203e 5218 9dbb b2e5 94be 0067 e6bb
00000140: a259 cdbd f6e0 423e e10f 573f 27f6 57bd
00000150: 68cb 183d 2d1e 4f3d 5e9b b5be f82d c5bd
00000160: 60ab 06bc 52d9 c3be b062 b5bc 9157 073e
00000170: 15bb ccbc baaf c6be e5e3 f3bb acb8 69bc
00000180: f365 93bc 2aeb f7bc 694b f8bb f82a e1be
00000190: a384 cabc 4734 20bb 60e4 bebc d427 d3bc
000001a0: 7fe8 efbc 0d4d d3bb ca54 51bc 1cd1 8dbd
000001b0: bde5 61bb e75c d6be 2e49 bbbb 5e0e 1e3d
000001c0: 2d76 9fbb e7ec 72bc 5b67 42be ebd4 e5bb
000001d0: 7514 17be 4223 15bc dd9d 1e3e 9d10 8b3b
000001e0: 7cb2 23bc 6173 d1be 09b3 d4be 6f2f 39bd
000001f0: 68cb f1bd 417f cbbb 6c18 72bc a42d 5dbc
00000200: b9c2 c8be 3d33 2dbc 01d4 d53e 8d4c 1cbb
00000210: 514c d5bb 4f91 2fbe f598 c8bd 1e41 4c3d
00000220: 70bc 8cbe 034f 69bc 08f0 b13e f115 a33e
00000230: 1fcf abbb acee 1ebb 231f 833e c20d 7e3e
00000240: c022 12bd 001d 4e3d 0574 90bc f7fe afba
00000250: f1c3 88bc 9e14 a1be bce7 b9bb dc21 42bd
00000260: 5397 263e f431 8d3d 5993 8f3e 81e2 153e
00000270: 89f5 743e fe23 d8bb 9abe 6abb 91b5 95bb
00000280: d0ff 22bc da45 433e 66f0 663d 335e b2be
00000290: 589e 0dbb db83 88bb 6bad febb 9100 d6be
000002a0: 5f93 04bd 8dfa a7bb a0b4 06bc 039e 80bc
000002b0: b155 91bc 8e8f dfbb c4b0 cdbc 9060 70be
000002c0: 635c 01bb b6fa 86bd 7542 a2bb 3552 06bc
000002d0: be9e b0bc 6cc2 74be d7ab a43d 80c5 6dbc
000002e0: dc26 21bb 7236 c5be c9d1 7abc 6e2a a3bd
000002f0: a6b2 bbbb 531e 5d3d 1ad5 0ebb d511 dabe
00000300: 7495 a7bd ced2 96bb f976 32bc 6bfa 5d3c
00000310: 9644 22bb 26b2 36bc aa1f 663d 2864 e93b
00000320: 8d5d 01bd 81b8 733d 18fb 96be 62d2 d8be
00000330: 595f 94bb 8e2d e4bd 64e3 e6be fac0 32bc
00000340: bde2 23bc 94bf 993d f6c0 08be 5097 c7be
00000350: 43d4 e53d d40a b53e da40 b6bd 7a5f e0ba
00000360: 1a9a a8bb 6669 5abd e589 1ebd 263f cb3d
00000370: e03d c43c 1d4c dbbb d264 97bc 3afb 983c
00000380: 42d6 a0bc 352a 3dbb 0439 b6bc f14d c0be
00000390: 294f 79bc ade6 0a3d d025 3ebc e656 253f
000003a0: 60ed 97bb 4368 24bb 2ba1 113e 6d8f afbd
000003b0: 8ccd bf3c fa4b 1ebc 5608 513c 9b0f 14bc
000003c0: c54e b2be 5238 edba 52a3 a9bb 019d 46bc
000003d0: 216a 923d bb37 0a3d d20d 3fbb a0c4 8bbd
000003e0: 6e8b a2bb c635 73bb 2fff 153f f606 44bb
000003f0: a247 b3bb 5bbd 58bc c7aa cbbb f58f 02bc

q.2.weight f4 [256, 256]
0.08734144 -0.18430081 0.059200745 0.06642015 -0.13690586 0.0911015 -0.14681062 0.14600052
0.0013724067 0.11804675 0.030401146 -0.0053029982 0.10590392 -0.1588425 -0.039867308 0.109967254
0.008184557 -0.106857434 -0.041478656 0.031685673 -0.047785796 0.012550134 -0.012303368 -0.07614694
0.060294684 0.02924399 0.039115146 -0.012067035 -0.18168002 -0.008935778 -0.24937491 -0.01391989
-0.00014644861 0.0067665726 0.04339765 -0.18953529 0.06740863 -0.03313695 0.039433427 0.004753249
0.0039844406 -0.16971925 -0.3923296 -0.020389015 -0.038205925 -0.031741105 -0.009741638 -0.15997119
0.07812896 -0.04592745 0.0009431038 -0.0076372996 -0.05659081 0.16663627 0.009972617 -0.09298887
0.038685642 -0.037786167 0.1091552 -0.22047085 0.07464312 0.04476068 -0.14740962 -0.02235613
0.008157623 -0.1924858 -0.08369026 0.033025347 -0.016994707 0.0249028 -0.05367071 0.08613277
-0.33412796 -0.0070577688 0.010100214 0.1010015 -0.07003207 -0.13280793 -0.19124818 0.13789466
-0.14276588 -0.16772985 -0.19073504 0.022255462 0.04081539 0.048787404 0.0012954548 0.055373836
0.1857459 -0.05559662 0.097153515 0.015805284 0.188078 -0.046042167 -0.08208282 0.016783971
-0.049703572 0.1102943 0.050675135 -0.04570356 -0.08422727 -0.17545997 0.15888442 0.0084986845
0.08076232 0.20630313 0.014428277 0.16639438 -0.1070544 -0.011140019 -0.1184393 -0.053019073
0.0047456934 -0.26598817 -0.09496822 0.076775685 -0.001667457 -0.05315416 -0.088074 0.026167482
0.20941709 0.049494542 0.005293885 0.019188043 -0.026173778 -0.029683132 0.112833485 0.037516095
0.054707885 -0.17150207 -0.27273932 -0.14299022 -0.13069507 -0.07454809 -0.030669613 0.06074775
-0.044411078 0.06038103 -0.03701015 -0.3196965 0.059155885 -0.17969483 -0.29400244 0.022704177
-0.15454827 -0.004364672 0.18186873 -0.051827304 0.12282585 0.03450878 -0.028493483 0.055398587
-0.0937512 -0.014822453 0.053748187 -0.010768038 -0.089853086 0.030535527 0.34469795 -0.097696565
0.0019777962 -0.11056103 0.08983178 0.011693627 0.0071457205 0.0036097744 0.019949999 -0.018420398
0.08697031 0.034367513 0.13680509 0.1296481 0.08213042 0.22652411 0.29501942 0.04566972
-0.014671045 -0.114053816 0.110499576 -0.20505854 0.060975976 -0.06649288 0.13375974 0.03072415
0.13042098 -0.0027822927 0.029080646 -0.0070127025 -0.011285394 -0.014755843 0.03684167 -0.0025410429
-0.19593377 0.050353404 0.01301749 0.13335797 -0.1696793 0.08889678 -0.108546846 0.047842957
0.1624777 0.0003715546 0.017855987 -0.035146393 -0.023750983 -0.24279767 0.04549265 -0.12134647
-0.016958458 -0.020283204 -0.024735542 0.15798964 0.0032918975 -0.1455975 0.2684183 -0.057848744
0.10036858 -0.12178151 0.058216803 -0.0843665 0.082481265 0.101101965 -0.08188027 0.0676476
0.050398357 -0.058279686 0.20412983 -0.060203843 0.02736197 -0.13356896 -0.14865164 0.035928648
-0.17453647 -0.17805514 -0.085015945 0.058668595 -0.0133430725 -0.10605374 0.0044649905 0.07154232
0.017202348 -0.030444771 0.036554985 0.011280945 -0.009715203 0.009100671 0.04710692 -0.0042776344
-0.007400694 -0.18010093 0.039938316 0.08291154 -0.23151559 0.12439314 0.17025673 0.067447715
00000000: 12e0 b23d 5ab9 3cbe 7b7c 723d 4a07 883d
00000010: 0d31 0cbe 6c93 ba3d 8655 16be 2981 153e
00000020: 54e2 b33a 7fc2 f13d d30b f93c c6c4 adbb
00000030: 28e4 d83d 9ca7 22be e74b 23bd 8336 e13d
00000040: 8518 063c 12d8 dabd 86e5 29bd d6c8 013d
00000050: 0abb 43bd 149f 4d3c 1194 49bc edf2 9bbd
00000060: 8ff7 763d 1891 ef3c 3437 203d d0b4 45bc
00000070: 540a 3abe 5f67 12bc 235c 7fbe 4010 64bc
00000080: 0090 19b9 20ba dd3b bcc1 313d 8a15 42be
00000090: 890d 8a3d 9cba 07bd f284 213d 25c1 9b3b
000000a0: e98f 823b e2ca 2dbe 6ddf c8be dd06 a7bc
000000b0: d17d 1cbd f602 02bd 649b 1fbc 7dcf 23be
000000c0: 1402 a03d 6c1e 3cbd a03a 773a 5042 fabb
000000d0: c4cb 67bd b3a2 2a3e 3064 233c f370 bebd
000000e0: d674 1e3d abc5 1abd c38c df3d 1cc3 61be
000000f0: 7ede 983d fa56 373d 8cf2 16be 3424 b7bc
00000100: 8da7 053c ff1a 45be cd65 abbd 9645 073d
00000110: 7c38 8bbc f500 cc3c d2d5 5bbd 6166 b03d
00000120: d212 abbe db44 e7bb 5e7b 253c e0d9 ce3d
00000130: f96c 8fbd cdfe 07be 90d6 43be 4234 0d3e
00000140: 3831 12be 60c1 2bbe 0c50 43be 1651 b63c
00000150: 0a2e 273d 4dd5 473d 40cc a93a adcf 623d
00000160: 2c34 3e3e 48b9 63bd 6cf8 c63d 157a 813c
00000170: 8597 403e b696 3cbd 0a1b a8bd 8a7e 893c
00000180: f995 4bbd fae1 e13d bb90 4f3d a833 3bbd
00000190: 597f acbd c7ab 33be 99b2 223e 113e 0b3c
000001a0: b766 a53d 2141 533e 9464 6c3c 4a63 2a3e
000001b0: 563f dbbd a084 36bc 4e90 f2bd 872a 59bd
000001c0: c381 9b3b 9a2f 88be b37e c2bd 923c 9d3d
000001d0: 938e daba 2db8 59bd 2460 b4bd 305d d63c
000001e0: 6f71 563e caba 4a3d 5378 ad3b 3e30 9d3c
000001f0: 646a d6bc 0a2a f3bc 3e15 e73d 7aaa 193d
00000200: 6015 603d 3d9e 2fbe 7da4 8bbe 076c 12be
00000210: eed4 05be abac 98bd d73e fbbc a2d2 783d
00000220: 64e8 35bd 1952 773d f497 17bd 42af a3be
00000230: 714d 723d ec01 38be 7d87 96be 1cfe b93c
00000240: e741 1ebe 8605 8fbb cc3b 3a3e de48 54bd
00000250: 1f8c fb3d 1459 0d3d 2a6b e9bc a1e9 623d
00000260: a100 c0bd e0d9 72bc 0f27 5c3d 6d6c 30bc
00000270: e504 b8bd a425 fa3c 407c b03e 2315 c8bd
00000280: ea9d 013b d26d e2bd b9f9 b73d a096 3f3c
00000290: a626 ea3b f791 6c3b 2e6e a33c 60e6 96bc
000002a0: 7d1d b23d f3c4 0c3d a216 0c3e 79c2 043e
000002b0: fe33 a83d f0f5 673e c90c 973e 2c10 3b3d
000002c0: d35e 70bc 0c95 e9bd 9a4d e23d defa 51be
000002d0: f2c1 793d 6b2d 88bd 50f8 083e 36b1 fb3c
000002e0: 148d 053e 2057 36bb 893a ee3c d0ca e5bb
000002f0: 60e6 38bc 7ec2 71bc 4ae7 163d a087 26bb
00000300: dda2 48be 5f3f 4e3d 4f47 553c fe8e 083e
00000310: 69c0 2dbe 840f b63d cf4d debd faf6 433d
00000320: 8e60 263e 37cd c239 b846 923c aaf5 0fbd
00000330: 6c91 c2bc f49f 78be 8056 3a3d 8084 f8bd
00000340: 77ec 8abc f628 a6bc 31a2 cabc 09c8 213e
00000350: e0bc 573b 8317 15be 206e 893e cef2 6cbd
00000360: 0b8e cd3d 9668 f9bd be74 6e3d 58c8 acbd
00000370: f0eb a83d 8c0e cf3d d8b0 a7bd d38a 8a3d
00000380: 826e 4e3d aeb6 6ebd 6907 513e 4e98 76bd
00000390: 3626 e03c 4dc6 08be 2338 18be eb29 133d
000003a0: b0b9 32be 1654 36be d71c aebd 7b4e 703d
000003b0: e79c 5abc b432 d9bd 0e4f 923b c884 923d
000003c0: f0eb 8c3c 5067 f9bc aeba 153d b6d3 383c
000003d0: 842c 1fbc fb1a 153c 30f3 403d 662b 8cbb
000003e0: 8581 f2bb 616c 38be 5c96 233d 87cd a93d
000003f0: 6c12 6dbe d5c1 fe3d c857 2e3e 0722 8a3d

q.2.bias f4 [256]
-0.1672033 -0.4039052 -0.42127818 -0.3865186 1.72706 1.0479852 -0.36576754 0.3105985
-0.22798002 -0.06125637 0.17136717 0.028327305 -0.020103293 -0.18127361 1.341595 -0.35104948
1.0654035 -0.06699206 -0.4811374 -0.02903874 -0.07346679 0.40590057 0.33907092 -0.13328694
0.049107343 0.36350033 1.2469615 -0.016008157 0.2947836 -0.39237282 1.2164354 0.17996153
-0.022802005 0.36184022 0.05482712 -0.04990796 -0.060522843 -0.03240887 1.7451364 -0.010297125
-0.010196277 -0.28234386 0.14977892 -0.01858811 0.026838407 -0.030017035 0.023256872 0.72381145
0.08309369 0.1598171 -0.14540528 1.1573321 0.024841137 -0.5220931 -0.064293094 0.31091657
0.66546965 -0.36747965 -0.07447731 0.95111406 0.021882113 -0.34533906 2.805573 0.0014212771
-0.34039035 0.64476407 -0.12066921 -0.45391312 -0.3834837 -0.0328361 1.112931 -0.046031773
0.09268002 -0.32708693 -0.38148567 -0.037012164 0.07498807 -0.024521539 -0.3585636 -0.4981233
-0.075502545 0.6599352 -0.06089056 -0.3402499 0.26788473 1.0692446 0.6815438 0.17768788
-0.0630882 -0.4202105 1.0325073 0.80783373 -0.049564425 -0.3975178 0.038459208 0.025417127
0.025882103 0.09309654 -0.104748785 -0.028949188 0.3517237 -0.28993237 0.65039015 0.6965852
0.2753362 -0.46920276 1.2172574 0.24127743 -0.057241455 0.6507015 1.0164903 0.31853196
-0.062656865 -0.5166407 0.0077492534 0.30631107 -0.33956155 0.006321776 0.7044813 1.6581287
0.015938409 -0.07692884 -0.05742586 1.1546546 -0.44978127 0.009911736 1.1634127 -0.0061557465
0.5972002 0.023387276 0.8445643 0.07722678 0.091336556 1.0895289 -0.44789374 -0.04989233
1.0454444 0.5539917 0.5033171 0.5016596 -0.022492219 0.62717605 -0.38767463 0.034315586
-0.10417053 -0.44228953 -0.06738215 -0.16894561 0.6874144 0.4382402 0.03725941 -0.024977714
0.11464041 -0.31817916 -0.3674827 0.51690185 0.6018863 0.78098506 -0.03428839 -0.026820725
1.9606168 -0.0012925409 0.024639608 0.46469098 0.18534406 -0.29156098 0.56973827 -0.04281605
0.9651566 0.11533671 0.025060534 -0.30845308 -0.05818631 -0.018788347 -0.003509749 0.37111273
0.07738572 -0.032008316 -0.095306486 -0.04117196 0.035092257 -0.3429863 0.25061968 -0.47646162
1.6474249 -0.38999194 -0.12307768 0.022253685 -0.022198198 0.0753082 -0.011195575 0.2595107
-0.04493697 0.033077616 -0.039849963 0.7176758 -0.07129868 0.24770921 -0.40974027 0.016882613
-0.0215639 -0.4476955 -0.06579587 0.105604656 2.6116989 0.016064545 1.9978323 -0.21280617
-0.33575055 0.007255437 -0.06703544 1.250552 1.041931 0.042571686 0.5944906 -0.30097938
-0.39403126 0.04108776 0.3996105 0.8067412 -0.19973291 -0.02821188 0.02819506 -0.184983
0.52262676 0.057953853 -0.023073228 0.12068552 -0.07793635 0.85290396 1.004859 1.3268516
-0.030488808 2.2695262 -0.03876109 -0.0066054435 -0.06687633 -0.052884392 -0.056261268 -0.2628618
-0.30031773 -0.00060498016 -0.22028682 -0.018148648 0.85815287 -0.14192432 0.42195505 0.12212277
-0.36879298 0.077107474 -0.019407714 -0.22015333 0.94103533 0.5650526 -0.34885743 1.4902054
00000000: 5837 2bbe aacc cebe c6b1 d7be c4e5 c5be
00000010: 4d10 dd3f 6124 863f e245 bbbe c406 9f3e
00000020: 9873 69be f6e7 7abd e07a 2f3e aa0e e83c
00000030: a9af a4bc ca9f 39be 63b9 ab3f c2bc b3be
00000040: 245f 883f 2233 89bd a457 f6be a7e2 edbc
00000050: c275 96bd 33d2 cf3e b49a ad3e 5f7c 08be
00000060: c824 493d b71c ba3e 6f9c 9f3f 8a23 83bc
00000070: e0ed 963e 17e5 c8be 28b4 9b3f d647 383e
00000080: 45cb babc 1f43 b93e 6792 603d 4a6c 4cbd
00000090: cde6 77bd 2abf 04bd a160 df3f 46b5 28bc
000000a0: 490e 27bc 608f 90be a55f 193e 1846 98bc
000000b0: 38dc db3c 49e6 f5bc 3285 be3c b54b 393f
000000c0: 062d aa3d 18a7 233e 1fe5 14be 7523 943f
000000d0: a47f cb3c e5a7 05bf 19ac 83bd 7530 9f3e
000000e0: 385c 2a3f 4b26 bcbe 8f87 98bd 367c 733f
000000f0: 1e42 b33c 48d0 b0be 828e 3340 254a ba3a
00000100: a547 aebe 420f 253f 6b21 f7bd 4d67 e8be
00000110: fa57 c4be 257f 06bd 8674 8e3f d08b 3cbd
00000120: 06cf bd3d f077 a7be 1752 c3be 119a 17bd
00000130: 5893 993d 65e1 c8bc a695 b7be 040a ffbe
00000140: 14a1 9abd 83f1 283f 6168 79bd 3c35 aebe
00000150: 3028 893e 02dd 883f a879 2e3f d0f3 353e
00000160: 6334 81bd d525 d7be 3329 843f 31ce 4e3f
00000170: 1104 4bbd 7487 cbbe 6787 1d3d 9437 d03c
00000180: b406 d43c 66a9 be3d 8886 d6bd d926 edbc
00000190: 2115 b43e 0472 94be f87f 263f 6853 323f
000001a0: def8 8c3e 583b f0be 17cf 9b3f 6e11 773e
000001b0: 0476 6abd 6094 263f 5b1c 823f 9f16 a33e
000001c0: 3e52 80bd 9142 04bf 73ed fd3b ced4 9c3e
000001d0: 03db adbe e726 cf3b e358 343f 903d d43f
000001e0: 4491 823c de8c 9dbd 6137 6bbd b9cb 933f
000001f0: bb49 e6be d564 223c b5ea 943f 25b6 c9bb
00000200: 1de2 183f ac96 bf3c 5e35 583f 1329 9e3d
00000210: a90e bb3d af75 8b3f 5452 e5be e65b 4cbd
00000220: 1fd1 853f 66d2 0d3f 64d9 003f c36c 003f
00000230: 9a41 b8bc 9c8e 203f 4a7d c6be 808e 0c3d
00000240: 5c57 d5bd c673 e2be a7ff 89bd 1400 2dbe
00000250: 64fa 2f3f 0561 e03e 539d 183d 109e ccbc
00000260: 97c8 ea3d 61e8 a2be b126 bcbe ae53 043f
00000270: 3815 1a3f a3ee 473f fc71 0cbd 23b7 dbbc
00000280: 7ef5 fa3f 7a6a a9ba 01d9 c93c faeb ed3e
00000290: d5ca 3d3e 7b47 95be 5eda 113f e25f 2fbd
000002a0: 8114 773f a735 ec3d c04b cd3c 90ed 9dbe
000002b0: c554 6ebd 05ea 99bc d103 66bb 7d02 be3e
000002c0: 687c 9e3d 271b 03bd 0c30 c3bd eea3 28bd
000002d0: e6bc 0f3d e69b afbe 3951 803e c7f2 f3be
000002e0: d2de d23f 06ad c7be 2710 fcbd 5c4d b63c
000002f0: ffd8 b5bc 303b 9a3d a56d 37bc 96de 843e
00000300: d40f 38bd 657c 073d b739 23bd 9ab9 373f
00000310: 0b05 92bd 7ca7 7d3e 7ac9 d1be 684d 8a3c
00000320: c7a6 b0bc 5838 e5be fcbf 86bd 4147 d83d
00000330: 1326 2740 cb99 833c f8b8 ff3f dce9 59be
00000340: 7fe7 abbe 04bf ed3b e049 89bd 1712 a03f
00000350: ff5d 853f a65f 2e3d 8930 183f f819 9abe
00000360: 77be c9be a44b 283d bf99 cc3e 9786 4e3f
00000370: c986 4cbe 9a1c e7bc 54f9 e63c 2f6c 3dbe
00000380: deca 053f 0561 6d3d 1104 bdbc f829 f73d
00000390: 189d 9fbd ea57 5a3f 389f 803f 46d6 a93f
000003a0: aac3 f9bc eb3f 1140 f3c3 1ebd 7a72 d8bb
000003b0: 75f6 88bd 4e9d 58bd 3772 66bd d295 86be
000003c0: 3fc3 99be 8897 1eba de92 61be 79ac 94bc
000003d0: e8af 5b3f 9c54 11be 7e0a d83e 811b fa3d
000003e0: 6fd2 bcbe 86ea 9d3d edfc 9ebc e06f 61be
000003f0: b1e7 703f 4aa7 103f 719d b2be 0dbf be3f

q.4.weight f4 [10, 256]
-0.018538054 -0.26775903 -0.39333197 -0.378796 -1.0304877 -1.3356692 -0.3398608 -0.011925165
-0.09685782 -0.041878372 -0.04963005 0.030996172 0.025946254 -0.102163054 -0.69168967 -0.33227974
-1.3215816 0.02939909 -0.3705753 -0.038556688 0.051336743 -0.6287527 -1.053072 -0.052715637
-0.07801417 -0.07100165 -1.1717728 -0.013433336 -0.095358275 -0.72296995 -1.4162331 -1.0733068
-0.014639036 -0.84412104 -0.4564314 0.0039888807 0.016127534 -0.052394055 -0.25071403 -0.0029516662
0.016372569 -0.084845364 -0.43863517 0.046164557 0.023907535 -0.86935985 -0.07303308 -1.5260496
-1.3325853 -0.07055442 -0.07442179 -1.3069267 0.0009560245 -0.87199676 0.009018384 0.0008013031
-0.03084305 -0.2749819 -0.06264448 -1.4629622 -0.796754 -0.13374747 0.23641805 -1.1793073
-0.030022698 -1.4087952 -0.027702626 -0.9970751 -0.2511121 0.025842339 -0.81275654 0.053163234
-0.048924655 -0.084906586 -0.3226596 0.047383178 -0.045291215 -0.0076497444 -0.4329159 -0.36857533
0.039163947 -0.8177612 0.023434257 -0.3143224 -1.5605336 -1.188934 -1.0608256 -0.00545122
-0.053050783 -0.35406062 -1.7950348 -0.48037845 -0.036528096 -0.3166883 -0.059297808 0.050496068
-0.07864605 -0.068662375 -0.23155867 -0.040598378 -0.076145515 -0.10599368 -1.1222838 -1.1395601
-0.15209131 -0.5687816 -0.35122105 -0.98897606 -0.030607557 -1.1737169 -1.1819493 -0.04524678
0.03336605 -0.658197 -0.023813538 -0.8092257 -0.1912603 0.03347706 -1.0692736 -0.62070054
-0.0622132 -0.039138284 -0.022363637 -0.6218264 -0.41232976 -0.10361516 -0.8573948 -0.004617247
-1.5842218 -0.049904767 -1.3581003 -0.024352519 -0.02531738 -0.71235555 -0.3254506 0.052714914
0.15664102 -0.6073257 -1.2670976 -1.267121 -0.06526032 -0.94633836 -0.254441 -0.0112636415
-0.0046528224 -0.3413673 -0.0067637586 -1.0920675 -0.016842283 -0.67698157 -0.010188901 0.010528659
-0.46526182 -0.26550314 -0.33023846 -0.102771886 -1.6215553 -0.32514384 -0.10978589 -0.038556524
-0.6041769 -0.05753361 -0.003560139 -1.424928 -0.07870066 -0.1880053 -1.0920737 0.044110116
-0.9574198 -0.03181838 0.035391614 -0.03147502 0.018368548 0.033440538 -0.03469537 -1.8899511
-1.020323 -0.018628925 -0.039075885 0.0077539906 -0.06413743 -0.36903778 0.032599784 -0.37111092
-0.55082744 -0.44110778 -0.038213134 0.029673798 0.019427657 -0.060501248 -0.016335476 -0.10832696
0.022325438 0.024741286 -0.039215103 -1.4177002 0.06367087 -1.7816089 -0.4512907 0.019453386
0.04176369 -0.2662106 -0.094828136 0.018613376 0.0919323 -0.40990177 -0.5380202 -0.022686385
-0.17167239 -0.02452727 0.040813237 -0.7951978 -1.2858317 -0.015213234 -0.60406625 -0.0073541286
-0.90627813 -0.089050286 -1.2259978 -1.0292386 -0.547035 -0.018530546 -0.03752925 0.011910733
0.007685835 -0.022135533 0.029531082 -0.11324338 -0.03336244 -1.5696148 -0.27611545 -0.66868496
0.052192457 0.32038122 -0.020699492 0.023385782 -0.042135384 -0.028734209 -0.023501031 0.014323221
-0.25948903 0.017347794 -0.059098504 0.027062086 -0.40000862 -0.13595277 0.027319063 -0.023825798
-0.5093278 -0.03382372 -0.06726017 -0.057238623 -1.1675788 -1.3669548 -0.373727 -0.66098595
00000000: 1edd 97bc b617 89be cf62 c9be 8df1 c1be
00000010: 05e7 83bf 35f7 aabf 3c02 aebe c461 43bc
00000020: 655d c6bd a888 2bbd e148 4bbd afeb fd3c
00000030: 3d8d d43c dd3a d1bd 9312 31bf 9220 aabe
00000040: 9629 a9bf 5cd6 f03c 0cbc bdbe 9eed 1dbd
00000050: 7a46 523d f0f5 20bf 10cb 86bf 5aec 57bd
00000060: e5c5 9fbd 5069 91bd a7fc 95bf 7f17 5cbc
00000070: 334b c3bd 8f14 39bf 2047 b5bf 1e62 89bf
00000080: 91d8 6fbc 5118 58bf 60b1 e9be 28b5 823b
00000090: e41d 843c 269b 56bd 975d 80be be70 41bb
000000a0: c41f 863c 68c3 adbd ca94 e0be 0c17 3d3d
000000b0: bcd9 c33c 5e8e 5ebf 5e92 95bd 9855 c3bf
000000c0: 2892 aabf d67e 90bd 746a 98bd 6049 a7bf
000000d0: b89d 7a3a 2e3b 5fbf d8c1 133c 8a0e 523a
000000e0: 90aa fcbc 6dca 8cbe c04b 80bd 5842 bbbf
000000f0: 12f8 4bbf 19f5 08be 9317 723e 8bf3 96bf
00000100: 29f2 f5bc 6753 b4bf 9ef0 e2bc 5040 7fbf
00000110: c491 80be 50b3 d33c d010 50bf b1c1 593d
00000120: 3865 48bd 81e3 adbd a433 a5be dd14 423d
00000130: 4883 39bd b5aa fabb 27a7 ddbe e8b5 bcbe
00000140: 606a 203d cc58 51bf 33f9 bf3c deee a0be
00000150: 91bf c7bf fd2e 98bf 22c9 87bf 26a0 b2bb
00000160: c74b 59bd 6f47 b5be b3c3 e5bf 2af4 f5be
00000170: 7c9e 15bd f824 a2be 42e2 72bd f7d4 4e3d
00000180: 2e11 a1bd dc9e 8cbd b71d 6dbe 7c4a 26bd
00000190: 2ef2 9bbd 3713 d9bd ffa6 8fbf 1bdd 91bf
000001a0: d3bd 1bbe ac9b 11bf 3fd3 b3be 892d 7dbf
000001b0: b3bc fabc 5b3c 96bf 1d4a 97bf b054 39bd
000001c0: d7aa 083d 997f 28bf 9c14 c3bc 6a29 4fbf
000001d0: bdd9 43be 3e1f 093d f5dd 88bf 3be6 1ebf
000001e0: 45d3 7ebd 774f 20bd f233 b7bc 0430 1fbf
000001f0: e31c d3be 2f34 d4bd 3a7e 5bbf 464c 97bb
00000200: c8c7 cabf f168 4cbd 3bd6 adbf ef7e c7bc
00000210: 6566 cfbc ef5c 36bf 76a1 a6be 98eb 573d
00000220: 8166 203e b279 1bbf 4130 a2bf 0531 a2bf
00000230: 34a7 85bd 3b43 72bf 1746 82be 238b 38bc
00000240: b476 98bb b2c7 aebe 85a2 ddbb dec8 8bbf
00000250: d4f8 89bc aa4e 2dbf 59ef 26bc 6680 2c3c
00000260: cc36 eebe 07f0 87be 0415 a9be 117a d2bd
00000270: 208f cfbf 4179 a6be 6dd7 e0bd 72ed 1dbd
00000280: 56ab 1abf 5da8 6bbd 3951 69bb 0a64 b6bf
00000290: d02d a1bd 7684 40be 12c9 8bbf cfac 343d
000002a0: 7719 75bf fd53 02bd ccf6 103d f3eb 00bd
000002b0: a379 963c f2f8 083d bb1c 0ebd ebe9 f1bf
000002c0: f299 82bf b09b 98bc 090e 20bd 3015 fe3b
000002d0: 7c5a 83bd 85f2 bcbe 5a87 053d 4002 bebe
000002e0: 0703 0dbf e1d8 e1be 6085 1cbd 7716 f33c
000002f0: c026 9f3c 28d0 77bd fad1 85bc 86da ddbd
00000300: d6e3 b63c 3dae ca3c 04a0 20bd 3377 b5bf
00000310: e065 823d c30b e4bf 930f e7be b55c 9f3c
00000320: 6710 2b3d c14c 88be 4135 c2bd 147b 983c
00000330: 0047 bc3d a5de d1be b1bb 09bf ccd8 b9bc
00000340: e3ca 2fbe 6aed c8bc c82b 273d 1592 4bbf
00000350: 2296 a4bf ee40 79bc 16a4 1abf e7fa f0bb
00000360: d801 68bf ff5f b6bd 7fed 9cbf 17be 83bf
00000370: 7c0a 0cbf 5fcd 97bc 45b8 19bd 3c25 433c
00000380: 75d9 fb3b 9455 b5bc 2beb f13c 25ec e7bd
00000390: 0ea7 08bd 23e9 c8bf 015f 8dbe f02e 2bbf
000003a0: c2c7 553d 0209 a43e fb91 a9bc 8a93 bf3c
000003b0: 2796 2cbd 0164 ebbc 3c85 c0bc f1ab 6a3c
000003c0: bfdb 84be f61c 8e3c 4611 72bd 4fb1 dd3c
000003d0: eecd ccbe 3437 0bbe 3acc df3c 522e c3bc
000003e0: 4f63 02bf be8a 0abd b3bf 89bd 0c73 6abd
000003f0: 3973 95bf 60f8 aebf 2559 bfbe 6036 29bf

q.4.bias f4 [10]
3.109943 6.714779 9.294588 6.1462584 2.5763485 5.4173923 18.136486 1.228399
11.955435 5.372995
00000000: 4e09 4740 78df d640 a2b6 1441 26ae c440
00000010: e5e2 2440 475b ad40 8617 9141 2e3c 9d3f
00000020: 7649 3f41 93ef ab40
