task4/task3_experiment_2_d_target_q2.pt (torch, 281951 bytes, 6 tensors)

q.0.weight f4 [256, 5]
00000000: 67e3 f2bb 6769 10ba 4e98 fbb9 1f52 10bc
00000010: 3843 b03d 0706 15ba 3a8a 4dbb 7799 253b
00000020: bbab 9a3b 683c 2cbd a076 07bc 0789 4b3b
00000030: 9821 8f3c 64f8 aaba 94ea 11be f72c 043e
00000040: 1004 5bbe 6cca 1f3d 2fb4 623b d0c1 903d
00000050: 7305 723b 5f06 213d bf2a ae3b 2eac dfbc
00000060: ec13 9a3e 5302 093b 1604 7f3c 5ca4 b63b
00000070: ab1b c73b eaf0 85be b050 36bb 3e83 4bbb
00000080: 483d afbb 4b55 313a e421 783e dbce 36be
00000090: a00a 953d 0858 163d a0f2 903e f023 cc3d
000000a0: 5e0a c5bf b30d c03e e4a7 c23d 8a3f 2a3d
000000b0: b03e f23d 1368 643f d435 143f 48e1 0f3d
000000c0: 0c60 42bd e05e c93c 30c2 323d b074 873e
000000d0: 77eb ad3d 0098 c1bc b1e6 65be c6cd cbbd
000000e0: 1f8c b03e a207 853d 37cb 24be a00a a53e
000000f0: 901b 943c 545f 67be 4c22 cabd e934 bbbe
00000100: 2021 22be 90fb 943a 1b27 21ba 2e31 043b
00000110: 4f52 26bb 0a73 8bbe d22e c8bc 0b99 a8bd
00000120: 1e12 69bd 235f a7bd 086e b73e acba db3f
00000130: a382 09c0 b252 c0bf b7da 313f 40b4 edbc
00000140: c3bb 90bf 67f0 56bf c5fd 20c0 d046 7bbf
00000150: 3ada 6dbe bca6 b83b e77d 303b b0bd 32bc
00000160: 742e a6bb 6419 92bd 3ee5 d23b ce99 cfbc
00000170: b7bf 23bc a4d2 0bbb 7c6e 203e 8b9c c03b
00000180: ebf8 b33c 44e3 19bb 2c41 9a3c a666 b53e
00000190: c9ec 2c40 3178 9c3f e316 43be d3e1 813e
000001a0: be46 b33e b0c2 85bc c3e3 cebb 66c3 433b
000001b0: 870c d3bb e042 6bbd 8460 0cbc a736 26bd
000001c0: 1ac7 d3ba 773e 08bd de60 af3e 457c 13bd
000001d0: 1014 edbc e3f5 5c3b d504 81ba d011 033e
000001e0: 4efd c3b8 8454 9d37 d7f9 cbba 66af feb9
000001f0: 14bc 93bd 5410 efbe b95b 31bf e0c0 a13d
00000200: 4f53 0cbc d0e3 1b3e 46db 633c 97dc 3fbe
00000210: f7ce 8bbc 17cb 88bd 4023 b1be 0845 2a3e
00000220: 90cf 753d 781a a03e d618 bb3e dab1 1fbe
00000230: ab63 933c cbfb 14bc 3012 2c3c f31e 903b
00000240: 9084 efbd 32bc 0fbb 7ac5 fc3b 1758 263a
00000250: 9b39 aa3b 0047 96bb 50a2 86be ef59 acbd
00000260: f586 d83c 53e3 a33c dc61 a83e d55b 23bd
00000270: b7ca 193d df43 233d 665f 96bc 86d6 bf3e
00000280: e3c5 433f 51ce 25bf 27ad b93f cb99 b6be
00000290: ab21 82be 62fb fc3f ef0d 08c0 5df8 fc3e
000002a0: 50f2 f0bf 9f12 1b3e be4f cdbd 4b94 2b3d
000002b0: 1042 743c 330b 09bd c871 d5be a0ce 703e
000002c0: 3771 6dbe 4de3 51be c1d5 7cbe 6ccc 8cbe
000002d0: cf35 98ba eb5c b43a 435b 1fba e31d a13a
000002e0: 442d a43e 7e01 ad3b 02fc c13b 3a70 743b
000002f0: 6ec6 853a 7873 b5be 6042 b6bc 179c 14be
00000300: 24e2 3d3e 6088 a23e cf3c a53c 632e 27bc
00000310: 9ea3 aa3c 5513 06bc 1c4b 393b d497 7bbe
00000320: b77d ea3b 165f e0bb 1739 0e3b 23fc 1b39
00000330: 1611 a5be 5003 acbd bce8 453e c80d 283d
00000340: 2c36 b63e 7ec0 91be 4a7b c23b f3ee 92bc
00000350: ef82 463b ba57 f8bb dc39 c83e 9a36 41bb
00000360: 6b9a a6bb 9d30 85bb a367 b53a 7afc 993e
00000370: 567d 9b3c 64f6 0e3c cc35 123c ebb9 893c
00000380: fffd bd3d 5202 45ba c3bb be38 8664 e338
00000390: d6c8 c0ba 9009 c73e eaba 763a 96b6 56bc
000003a0: e27b cfba 3712 0b3b 1ba8 5abe 5b53 8f3e
000003b0: e6da c13e 9330 9dbc 02b9 4cbe 7055 fcbd
000003c0: b66f 9f3e 67e0 91be 4035 f73b 061a bfbe
000003d0: c267 893e 37e4 9abb 920a 833b a767 debb
000003e0: 3ec6 6c3b 288a bd3e c3d1 693a 16aa 6f3b
000003f0: b856 28ba 9601 7a3b 2ab5 1fbe 3319 8dbe
-0.0074123624 -0.000550887 -0.00047987927 -0.008808642 0.08606571 -0.0005684797 -0.0031362907 0.0025268474
0.004720179 -0.042049795 -0.0082680285 0.0031057016 0.017472073 -0.0013043997 -0.1424964 0.12907778
-0.21388268 0.039011404 0.003459226 0.07068217 0.0036929518 0.039312717 0.0053151543 -0.027303781
0.30093324 0.0020905926 0.015564939 0.0055737924 0.0060762963 -0.26160365 -0.002781909 -0.0031053568
-0.0053478815 0.0006764724 0.24231678 -0.17852347 0.07277417 0.036705047 0.28310108 0.09967792
-1.5393789 0.37510452 0.09504679 0.0415645 0.11828363 0.89221305 0.57894635 0.035126954
-0.04745488 0.024581373 0.043642223 0.26456213 0.08492177 -0.02363205 -0.22451283 -0.099513575
0.34481904 0.064955965 -0.16093145 0.3223467 0.01807955 -0.22594959 -0.09869823 -0.36563805
-0.15832949 0.0011366475 -0.000614749 0.0020170915 -0.002537865 -0.27236205 -0.024436388 -0.08232316
-0.056902044 -0.08172443 0.35826135 1.7166343 -2.1485984 -1.5025237 0.6947436 -0.029016614
-1.13073 -0.83960575 -2.5154889 -0.98154926 -0.23227778 0.0056351107 0.0026930512 -0.010909483
-0.0050714556 -0.07133749 0.006436019 -0.025341894 -0.009994439 -0.0021335268 0.15667146 0.0058780364
0.02196928 -0.0023481408 0.018829904 0.35429877 2.7019522 1.222418 -0.190517 0.25367603
0.3501491 -0.016328186 -0.0063137724 0.0029871105 -0.0064407024 -0.057436824 -0.008567933 -0.040579464
-0.0016157359 -0.033262696 0.3425359 -0.036007185 -0.02894023 0.0033715896 -0.0009843359 0.12799764
-9.345506e-05 1.8755214e-05 -0.0015562129 -0.00048577337 -0.072136074 -0.46692145 -0.6928058 0.07898116
-0.008564784 0.15223622 0.013907259 -0.18736492 -0.017066462 -0.06679361 -0.34597206 0.16627896
0.0600124 0.31270194 0.36542386 -0.15595189 0.017991861 -0.009093235 0.010502383 0.0043982207
-0.11695206 -0.0021932242 0.0077139707 0.0006345524 0.0051948554 -0.0045861006 -0.2629571 -0.08415591
0.02643154 0.020005858 0.3288716 -0.0398825 0.03754684 0.03985965 -0.018356036 0.37468356
0.76473826 -0.6476794 1.4505967 -0.3566421 -0.25416312 1.9764216 -2.1258504 0.49408236
-1.8823948 0.15143822 -0.10024975 0.04188947 0.014908329 -0.033457946 -0.4168837 0.23516321
-0.2318772 -0.20496865 -0.24690916 -0.27499712 -0.0011612716 0.0013760602 -0.00060789677 0.0012292232
0.32065785 0.005279719 0.0059199343 0.0037298338 0.0010206231 -0.35439658 -0.022248447 -0.14512669
0.18543297 0.3174467 0.020170597 -0.010203931 0.020829972 -0.00818332 0.0028273528 -0.24569637
0.0071560997 -0.0068472726 0.0021701509 0.0001487588 -0.32239598 -0.08399069 0.19327062 0.041028768
0.35588205 -0.28467172 0.0059351074 -0.017936205 0.0030290445 -0.007578817 0.39106643 -0.0029482008
-0.005084326 -0.004064633 0.001384009 0.30075437 0.018980663 0.008725736 0.008923959 0.016812285
0.092769615 -0.00075152994 9.094879e-05 0.000108429274 -0.0014708291 0.38874483 0.00094120076 -0.013105055
-0.0015829767 0.0021220574 -0.2135319 0.27993283 0.3786232 -0.019188201 -0.1999245 -0.123209834
0.31139916 -0.28491518 0.0075441897 -0.37324542 0.26836973 -0.0047269124 0.003999063 -0.0067872587
0.0036128904 0.37019467 0.00089195016 0.0036569885 -0.00064216135 0.0038147918 -0.15596452 -0.27558288

q.0.bias f4 [256]
00000000: 8385 73bc 7c06 b2bb 988d 96bc 59c4 c43c
00000010: a793 64bd f4ed 1dbc 1b7e e5bb d2c6 cebe
00000020: 8cdf 06be b963 d13d 8c9f cfbe e034 acbe
00000030: 0571 e1be 04ff 0bbb 08f8 93bd 72e8 efbd
00000040: 9938 2ebe ff2e 53bc 0bbc c1bc b3bc f0bc
00000050: 0f6a a63e 8d76 1c3b 33ae e3bc 14ac 563b
00000060: b022 99ba 4bd2 ed3d 2db3 01be 4493 cdbe
00000070: ab92 75bc c04f b1bb 0de1 573d 8fb1 813c
00000080: 76c2 42be 0930 6dbe 7685 09bc 1fc3 b2be
00000090: 04c3 9fba 737c 97bb a0a5 b6be e3f2 7dbc
000000a0: 20b7 19bc 4362 acbe ef22 51bc 48f3 dfbb
000000b0: 8020 99bc a4f6 9eba eb25 57bc c3d5 e5be
000000c0: 5ae6 cfbe 4c6c aebb b012 a9bb bb49 d9be
000000d0: 089a b43e c4d6 37bc e242 2b3d 7cd0 08bc
000000e0: c82a eb3d fd88 33be a54b 80bb 1f17 55be
000000f0: c348 93ba dae0 fb3b 8adf d6b9 d6b5 193c
00000100: 360c e1be f33e eb3a 6220 dcbd 44ad e43c
00000110: 1780 77bb 6441 19bb 5c33 1bbc 4e45 c7be
00000120: 3b4c 6dbb 3e16 bebe 4b67 74bb 2378 fcbb
00000130: 006d 0e3d 7b00 e0bc 1095 32bd b766 20be
00000140: 30d9 30bc 183c 90ba ea33 ddbe bf82 d8ba
00000150: 86c7 a1be f050 8abe c8df b9bb d695 49bc
00000160: 5366 213e e85a 0dbb d8c5 25bd 2443 6d3d
00000170: bb6b a8be 3361 efba ec7f 11bc bb86 cebe
00000180: 47ab 8fba 5c79 c9be 003b a0bd 6495 cebe
00000190: e80f 3abc 7854 56bd d37a ccbb fbdd f5bb
000001a0: 0779 47bc 8cfc c5bb 4f31 56bc 4fc5 49bb
000001b0: e3fe d3bb fe99 133c 0018 10bc af71 5bbb
000001c0: 2c63 9bbc b226 aebc 540d afbe 0092 31bb
000001d0: 9322 e2be 521f 78ba 8070 273e 0689 8a3e
000001e0: e337 66bb 3c2f 49bd 4ca4 b23d 4ffc 2fbc
000001f0: a751 91b9 49ab 1ebe e8d3 fd3a a85c 8fbb
00000200: 5a90 8e3c de0c af3d a89f 94be 2bfc a0bb
00000210: b1d5 0c3e a6c9 c4be 7e12 6abd 88d1 fdbd
00000220: 4f9d e7ba 7548 80be bd85 853b 5f16 36be
00000230: a432 aeba 9c6a bfbc 0718 c4bb 436b f3bb
00000240: d488 3ebc 50f8 cabc cadc cb3e b85e a5bb
00000250: 031b 38bd e7e0 45bb db81 003e 5c05 97bd
00000260: 40a5 53bd 7c03 993a a8d8 a9bb 3bb6 e73b
00000270: 330d 643c 3edb 8d3d 3abe e2be 9883 83bd
00000280: d9fc 25bc 31d4 d3be 5474 37bb bc16 b2bb
00000290: f828 dabe 7546 89be 978c 88be ae46 14bf
000002a0: 93f3 3d3d 2918 90bb 75ee d83c c000 26be
000002b0: 5224 87bb 41e8 cabe 0b29 e1bc 10fb b0bd
000002c0: 8003 b2be 236e b6be cc95 78be 326f a0bd
000002d0: 3c2f ba3d 5b16 6abc 0bf8 6ebc 2c60 a8bd
000002e0: b2f2 27be 5cb4 4f3e b8ad 21bb 8009 60be
000002f0: 85cf 6d3e 5cfe 22bb 96fd 79be 6763 66bb
00000300: 9b2a 52bb 83e2 c3bb 1a08 223d 74cd 8ebb
00000310: bca4 bfbb 07c0 f3ba c350 1dbe ec12 38bc
00000320: 2d00 b7bd 1c16 bcbc 33ab ffba 5753 fd3d
00000330: 9e44 1c3e c9ea 85bb 3bf5 4bba e669 bfbe
00000340: 96f7 c5bd 3950 be3d 63cf 53bb 5288 82bd
00000350: 6ecc 633c c75a 7dbc 30a1 1abb 1200 8f3d
00000360: 8c27 90bb 863f 37bd 4c40 99bc 006e 0ebf
00000370: 8095 2c3e 18c3 63be 63d5 ebbc 687d 3dbb
00000380: e868 93bb 68ac bbbb 68f6 843d 8f62 04bc
00000390: d859 28bc c8ab 1dbb aa1b c7be e666 76bd
000003a0: 3831 d43d e85a 12bd 2ff2 5abc 2048 9fbb
000003b0: f675 bebd 07ef 44bc 8a16 80bc 2fb4 f0bb
000003c0: 4412 8eba 6ba6 6abb a091 3cbb 4573 c33d
000003d0: a3ec c1bb 6369 073e 66f5 1b3d 6c7f a3bd
000003e0: 83dd c3be bb53 4abb 372c 4bbd 2981 143d
000003f0: 500e faba 1a14 1d3e 88cf 39bb 83d6 72bc
-0.014863375 -0.005432902 -0.018378064 0.024019407 -0.055804875 -0.009639252 -0.0070035583 -0.40386063
-0.13171214 0.10224099 -0.40551412 -0.3363409 -0.4403154 -0.0021361718 -0.072250426 -0.11714257
-0.17013778 -0.012889623 -0.023649236 -0.029386854 0.3250279 0.0023874373 -0.027793026 0.0032756375
-0.0011683311 0.11612376 -0.12666006 -0.40151417 -0.014988582 -0.0054111183 0.05270486 0.015831737
-0.19019493 -0.23162855 -0.008393636 -0.3491449 -0.0012188856 -0.00462299 -0.35673237 -0.015499803
-0.009382039 -0.33668718 -0.0127646765 -0.0068344213 -0.018692255 -0.0012127948 -0.013131599 -0.4488965
-0.40605432 -0.0053229686 -0.0051596984 -0.42439064 0.35273767 -0.011220638 0.04181183 -0.008350488
0.11482769 -0.17532726 -0.0039152675 -0.20809601 -0.0011236895 0.0076867165 -0.0004098381 0.009381732
-0.4395463 0.0017947837 -0.10748364 0.02791465 -0.0037765556 -0.0023384923 -0.009472694 -0.38920063
-0.0036208767 -0.37126344 -0.0037293013 -0.007704751 0.03477192 -0.02734398 -0.04359919 -0.15664183
-0.010793969 -0.0011004237 -0.4320367 -0.0016518458 -0.31597537 -0.27014875 -0.0056724288 -0.01230379
0.1576169 -0.0021569077 -0.04047188 0.05792536 -0.32894692 -0.001826322 -0.008880597 -0.40337166
-0.0010961079 -0.39350402 -0.07823753 -0.4034835 -0.011356331 -0.05232665 -0.0062402277 -0.007503269
-0.012174851 -0.006042069 -0.0130732795 -0.003078777 -0.006469594 0.009008883 -0.008794785 -0.0033484509
-0.018968187 -0.021258686 -0.34189856 -0.002709508 -0.44167003 -0.00094651163 0.16351509 0.27057666
-0.0035128526 -0.04911731 0.087227434 -0.010741307 -0.0002771739 -0.15495028 0.0019365521 -0.004375059
0.017402817 0.08547376 -0.29028058 -0.0049128733 0.13753392 -0.38435096 -0.05714654 -0.123934805
-0.0017670783 -0.2505528 0.0040747807 -0.17781971 -0.0013290239 -0.023366265 -0.0059843096 -0.007428558
-0.011629302 -0.024776608 0.39816886 -0.0050466917 -0.044947635 -0.0030193867 0.12549536 -0.07374069
-0.051671267 0.0011674012 -0.005183298 0.007071284 0.013919163 0.06926583 -0.44285756 -0.06421584
-0.010131084 -0.41372827 -0.002799292 -0.005434839 -0.42609382 -0.26811567 -0.26669762 -0.5792035
0.04637487 -0.0043974114 0.026480893 -0.16211224 -0.0041242028 -0.3963032 -0.027485391 -0.08641636
-0.34768295 -0.35630903 -0.24275893 -0.07833709 0.090910405 -0.0142875565 -0.014585505 -0.08221468
-0.16401175 0.20283645 -0.0024670195 -0.21878624 0.23223694 -0.0024870848 -0.24413142 -0.0035154463
-0.0032068852 -0.00597793 0.039558508 -0.004357988 -0.0058484953 -0.0018596657 -0.1536284 -0.01123498
-0.089355804 -0.022959761 -0.0019505977 0.123694114 0.1526055 -0.0040868265 -0.00077803776 -0.37385482
-0.09666364 0.09292645 -0.0032319657 -0.06373657 0.01390372 -0.015463538 -0.002359461 0.06982435
-0.0043992456 -0.044738315 -0.018707417 -0.55636597 0.16853905 -0.22242391 -0.028788274 -0.002891386
-0.00449859 -0.0057273395 0.06492311 -0.008080139 -0.010275327 -0.0024058688 -0.38888294 -0.060156725
0.1036095 -0.035731226 -0.013363405 -0.004860893 -0.09299843 -0.012019879 -0.015635747 -0.0073456983
-0.0010839184 -0.003580476 -0.0028773323 0.0954347 -0.005918102 0.13223796 0.038075827 -0.07983288
-0.38254938 -0.003087266 -0.049602713 0.03625599 -0.0019077752 0.153397 -0.0028352458 -0.014821651

q.2.weight f4 [256, 256]
00000000: 0313 fa3b 8c46 0a3e 8f30 0dbe 7beb 8abe
00000010: 93b6 643e e85e 3b3e b373 863d 9af4 573d
00000020: f950 14bf 3eac bbbe c214 79bd d6a0 403d
00000030: f05e 92bb 5067 873e 1299 5c3d 57ba ea3c
00000040: f9ed 773d a696 a03d efa8 393e 4a4c dd3d
00000050: c096 3fbe bcb2 bb3d 1b72 7b3e 9c40 aabc
00000060: c36e a7bc 8498 9ebc 9ff3 703e a269 46bd
00000070: 3ea9 c8bd 1329 053d 5a32 babd 64e8 0a3e
00000080: f1df 473d 9bb9 c73d 6ced e03d 3436 00bd
00000090: 9cdb 373d 5317 b53d 68aa 4dbd 8bcf 4e3e
000000a0: dfa6 bc3e 1f46 123c 9700 17bd b79a 393d
000000b0: a20b 5a3e 038c cc3d 10a9 143c e360 29bd
000000c0: 8ebf 5abd 1c69 2a3e 4abc 02be de9a 7fbd
000000d0: a8e8 94be 7728 6e3d c4af 4d3d 1b85 ca3c
000000e0: 0436 b5be d862 0bbc 3272 f7bc d47d 8d3d
000000f0: 81c6 373e d54e 85bd 3372 4f3c 0c41 e9be
00000100: a3e0 39bd 5bcf b13d cc60 513c a0b3 ef3d
00000110: 7327 2d3e 72ad 79be 30d6 ab3d 84ae a6bc
00000120: a7fd 18be 6032 86bb e835 233e 5869 2a3e
00000130: a234 553d 23f9 c13e deb9 eabc 6823 b33d
00000140: 24f1 82be 8ffa 823e 10a3 e4bc b09c 023e
00000150: 2235 7abd 643d 65bd 3b0b 593e cc0f 1fbc
00000160: cea1 8d3c 6246 7dbe 2f16 0f3e c4c4 a63d
00000170: 9e9b 4b3c 6ae3 81bc 3bf2 843d 6274 093d
00000180: 0c18 22be 18e3 6ebd cb4a d23c b47b 8ebc
00000190: 52f5 6fbe 205f 173d f68f 63bd 1777 033e
000001a0: df83 413d 2ce1 3d3e 4b72 da3d 3726 90be
000001b0: 03fe 753a b7c3 cc3c 67f8 ba3c 6476 aa3d
000001c0: c0c7 363e 6bc3 01be 4326 00bf bfa7 9abe
000001d0: 6ca2 483d ce8f 3d3d 1d50 6bbe db4d 97be
000001e0: 9817 323e afe3 c8be c81a 94bc 1e52 e8bc
000001f0: bb36 30bc 1b0b c73d 0cd6 253d dc52 9c3d
00000200: 3cf5 e6bc 3c22 9a3d 6b7d 07bd 3fd7 d6bd
00000210: da5c 27bc 0067 5b3b 1082 183c 6b81 8d3b
00000220: 7f4e 773d 8ad0 cdbe 81b8 e83d a71a cc3d
00000230: 0350 b8be 3cfe 1f3e 089a 843d fc91 2b3e
00000240: 2bcb 0d3e e83d e73d 378f 88be 6a71 72be
00000250: 3f7c 87bd be8e 4cbe acfb 4bbd d798 b8be
00000260: ce39 a03e d12d dc3d 34e5 093d b10d 69be
00000270: cd8e 743c f68e eebd 60df 8a3c 0271 d3be
00000280: b349 be3c 6a65 e03c 5724 243e 4b58 7e3c
00000290: 901e f2bb fbc5 6a3c 8eb9 77bd a473 69be
000002a0: 09e0 f3be 76d1 043e 1da2 933d b8b0 71be
000002b0: b02c b23e d84b 18bf be09 723e 0795 173e
000002c0: 24ee 30bd 18d0 653c 000c 5ebc ffab 44be
000002d0: 42b9 36bc 4b4f e43e 540f 9fbe 8bd3 7c3d
000002e0: 3fbf 133e 56de 78be 8b73 3cbe 4dc0 343e
000002f0: a9cf 50bc 9637 76bc 80cd 69bc 2b4f c8bd
00000300: 307c 173d 666c f1bd fc74 63be acae b63d
00000310: 8444 04be fa25 513c 4b67 10bd 80f6 333e
00000320: 473b a7bb d4eb 303e 12b9 86bd 0736 86be
00000330: 9193 8cbe 0ce6 97be 6800 293e 26d1 743d
00000340: b414 823d 5892 bd3c fc3e 3d3d 165e c8bc
00000350: 74b5 a63b 96b7 55be 46cf 7e3d 0b12 26bd
00000360: 7484 203d c221 903d 720c 1b3e 33db c0be
00000370: e8f8 3cbd c0e4 7f3c 3892 173e f43f 043e
00000380: e8f1 b9be 5cf0 ab3d 2dec 95be 1705 15be
00000390: 5438 bc3d 2ff9 7bbd 18b9 8cbc 3af4 063e
000003a0: adc3 65be bf93 513e cc06 373e 7464 acbe
000003b0: 0af2 423e b97a 833e 2988 02be 0bc2 cabd
000003c0: 50d2 843d 0aa2 563d 6aff 483c 57f2 acbd
000003d0: 6ff1 7a3e c8ba b63d 7b49 fcbe 6392 3b3e
000003e0: abd7 533c fa2e 87be 3e4c 783b c7ee e1bc
000003f0: e3a5 e13c 9082 2dbe 0e92 84be 3844 1a3e
0.007631661 0.13503474 -0.13788055 -0.27132782 0.22335272 0.18297923 0.065650366 0.052723505
-0.57936054 -0.36654848 -0.06081081 0.047028385 -0.004466884 0.2644601 0.053856917 0.028653307
0.060529683 0.07841234 0.1813085 0.108055666 -0.1870985 0.0916495 0.24555247 -0.020782761
-0.020438557 -0.019359834 0.23530434 -0.048440583 -0.097979054 0.032509875 -0.09091635 0.13565212
0.04879755 0.09752198 0.10982785 -0.031301692 0.04488717 0.08842339 -0.05021134 0.20196359
0.36846063 0.008927851 -0.036865797 0.045313563 0.212935 0.099876426 0.009073511 -0.041352164
-0.053405337 0.16641659 -0.12767139 -0.062403552 -0.29083753 0.05814406 0.05021645 0.024721673
-0.35392773 -0.008507453 -0.03020582 0.069087654 0.17946817 -0.06509177 0.012661505 -0.4555744
-0.045380246 0.08682128 0.012779426 0.117041826 0.1690958 -0.2438257 0.083904624 -0.020346887
-0.1494051 -0.0040953606 0.15938532 0.16641748 0.052052148 0.3788539 -0.028653082 0.087469876
-0.255746 0.25581786 -0.027909786 0.12755084 -0.061085828 -0.05596675 0.2119569 -0.009708356
0.017289069 -0.2473388 0.13973306 0.08142999 0.012427239 -0.01585551 0.06491514 0.033558257
-0.15829486 -0.058322042 0.02567043 -0.01739297 -0.23433426 0.036955953 -0.055557214 0.12838398
0.047244903 0.18542928 0.10666331 -0.28154156 0.0009383859 0.024995668 0.022823526 0.083233625
0.17849636 -0.12672202 -0.5005838 -0.30206105 0.048983023 0.04627972 -0.2297978 -0.29551587
0.17391813 -0.3923621 -0.018079177 -0.028359469 -0.010755236 0.09718915 0.040487334 0.07632992
-0.028193109 0.07526061 -0.033078592 -0.10490274 -0.010215009 0.003347814 0.009308353 0.0043184063
0.060377594 -0.40198165 0.11363316 0.09966021 -0.35998544 0.15624326 0.06474692 0.16754907
0.13847034 0.112911046 -0.26671764 -0.23676077 -0.06615495 -0.19976327 -0.04980056 -0.36054108
0.312941 0.10750926 0.03366585 -0.22759129 0.0149266245 -0.116483614 0.016952217 -0.41297156
0.023228502 0.027392108 0.16029488 0.01552398 -0.0073888972 0.014329429 -0.060479693 -0.2279802
-0.47631863 0.12970528 0.07208655 -0.23602569 0.3479972 -0.5949073 0.23636529 0.14802943
-0.04319586 0.014026664 -0.013552666 -0.19206236 -0.011152567 0.44591746 -0.31066382 0.06172518
0.14428423 -0.24303564 -0.18403451 0.17651482 -0.012744823 -0.015027901 -0.014270186 -0.09780725
0.03698367 -0.117882535 -0.22212595 0.08920035 -0.12916762 0.012765402 -0.035254758 0.17574501
-0.005103502 0.17277461 -0.06578268 -0.26213095 -0.27456334 -0.296677 0.16504061 0.059769772
0.06351605 0.023141071 0.046202645 -0.024458926 0.005087549 -0.20870814 0.06220939 -0.04054455
0.039188817 0.07037689 0.15141466 -0.37667236 -0.046135813 0.015618503 0.14801872 0.12915021
-0.36317372 0.08395454 -0.2928175 -0.14552723 0.09190431 -0.061516937 -0.017178103 0.13179103
-0.22437926 0.20466517 0.17873687 -0.3367039 0.19037643 0.25679567 -0.12747253 -0.09900292
0.064854264 0.052400626 0.012267927 -0.0844466 0.24506162 0.089223444 -0.4927481 0.18317561
0.012929837 -0.26403028 0.003788724 -0.027579678 0.027544921 -0.16944337 -0.2589268 0.15065086

q.2.bias f4 [256]
00000000: 0041 3f3e c35b 7640 9381 0d3d 7771 bc3e
00000010: 8c5f f73f 72d6 da3b 284e 3ebd af86 f83e
00000020: 81be e03f 7035 733f 0437 aebb 9f85 83bd
00000030: 8510 5d40 c0a5 3fbd d3f5 b03c 262e 563f
00000040: 20a6 07bf 8abd 7e3d c656 4d3f 3475 473f
00000050: 523e 173f 030a 9e3f ca40 613d 7f09 823e
00000060: fc06 25bf 67c1 563f aadc 0c3f 3fb2 7f3f
00000070: fcfd e93e 8305 123c 6276 ca3e 5804 9cbd
00000080: e3fd ac3c 9af5 903f 3a4d 5d3c ab03 cbbe
00000090: 4438 003d ed21 fd3e 4e9e 3340 ad14 b73f
000000a0: 8aa3 cc3f 5f6e 45be fc01 1940 ecb5 8dbd
000000b0: 686c 7bba a6bf 173f 6e1e 613f b808 953e
000000c0: c40e d5be 53e2 eebc 76fb 593e 5fe6 5ebb
000000d0: efa1 85bd 7cbb ca3f 7fee b23e 0967 42be
000000e0: fb49 73be acb8 813f 24fc 11bf 17ab dcbe
000000f0: c80b 693e f20d 693f 3ea9 dc3c 1069 0ebd
00000100: 2a6f d83f 750b 133f 4ca7 91bd d4d3 1bbf
00000110: 0ebc 433f cc39 89bd da6e c63c 0c78 17bd
00000120: 0ffb 0640 a74a 84bd 9b6d f63d a485 0440
00000130: 4073 dbbc 3030 0ebd b700 f9be 3ca1 b23f
00000140: f335 863f 1a90 f73f 0e2a f63e ef7c 953b
00000150: fe46 8b3f 7599 80bd aa1a 543e 63eb 78be
00000160: 1ea1 2f3f 66b7 30bd a6ba 4440 f4bd 2fbb
00000170: 9c1b 013e 74db b7be 4117 6b40 bc78 9bbe
00000180: 4922 d33f c0d2 223f ceab eb3f 4f20 cebe
00000190: 9bb1 43bd 294d a0bd f89e 5c3f 236c 1f3c
000001a0: 63cd 5e3d b10b 603f b88f 08bd 31f3 bcbd
000001b0: 7396 4abd f4d8 8fbe d488 bebc b044 95bd
000001c0: 7545 ca3f 1836 eb3f 036b f23f 1300 d0be
000001d0: e5e5 be3e f43f 92bd 4fe1 413f d4d2 17bd
000001e0: 24a4 593d cf1b 073e 3e0e 333f 5ac0 593f
000001f0: 6762 58bd 251b a23f 6bab 74bd f681 763c
00000200: 56b6 3640 136b f1bb 9638 e43f 2561 6140
00000210: ecab 2bbf 0a50 583e 73a1 be3e c806 153f
00000220: e7a1 66bd 9268 b53c f758 fcbe d2ab 4540
00000230: a75a 43bc 6c35 36be 2c6a 363f 1bbf 79bd
00000240: 58c5 0abf 7b0e 093f 80ea a6be 50ac 84bd
00000250: b7fa febc 5628 1a3f b3c9 7cbd b341 463e
00000260: 937d 6bbd b7cd 82bc 1754 e6be d8de 91bd
00000270: 9035 e23e eefd e53e 2554 2340 4cf5 bbbe
00000280: a44e ea3e 8b86 de3e 230a d23f 53a3 553f
00000290: ffed 873c fff1 71bd 8788 58be 18b2 30bd
000002a0: e2fe aa3f 371e debe 261c c33e 6546 cc3d
000002b0: 8b14 d0be 433b 0b3e 2074 423f 24fb 88bd
000002c0: 9a59 f83e cc6e 013f f43a 9cbd 20d8 d43e
000002d0: 47c0 b33a e422 1c3f 68d1 573f 7c91 a9bc
000002e0: cfc8 61bc efb8 823f a6f2 db3f e1df 1540
000002f0: fefd dc3f aecd e83d 02f2 45bd 8fd7 7a3f
00000300: c186 463f 1455 0abd 987d a1bb 102d 1dbf
00000310: 48de aebe 17f7 45bd 06a3 853e 1c4f d13e
00000320: 9073 90bd eb05 5ebd da88 d43b db9c 1dbe
00000330: ed8c 5abe a476 92bc 93ce 6abd 0ff9 0e3f
00000340: 3d8b 953f 68d3 32bc 2b25 cf3d b93b 4f3f
00000350: 7ca2 36bf 6cfb 24bf 06ae bf3d fd27 a53f
00000360: e7b4 71bd 7b14 f9be c2cb cc3b 17ae 66bd
00000370: 82df 413b 7e35 d93c 9f68 8c3f d27c 453c
00000380: 0be4 3140 6ab4 353f 1cc2 0dbd 5369 56bc
00000390: 3eca 2140 1481 e43e 29a2 163f f8e1 143e
000003a0: 53b2 5dbd efa2 44bd 255d 9c3e a821 36bd
000003b0: cfbe 75bd 8577 033f 9916 463e 12ae e03f
000003c0: c379 5dbd 0638 473c a7bf 31be 5445 493f
000003d0: 8b5e 82bd 1c74 9e3f baae 203f 1886 e03e
000003e0: f52a 5b3f 46d7 e23b a84a 8c3f 2cd7 06bf
000003f0: fa77 f7bd a7d1 ddbc 3c1b b23f 7cb4 b8be
0.1867714 3.8493507 0.0345474 0.36805317 1.9326034 0.006678396 -0.046461254 0.48540255
1.7558137 0.95003414 -0.005316617 -0.064219706 3.4541333 -0.04678893 0.021601593 0.83664167
-0.5298786 0.062192477 0.8021053 0.7791321 0.5907947 1.2346805 0.05499343 0.2539787
-0.6446378 0.8388886 0.55024207 0.99881357 0.45701587 0.008912447 0.39543444 -0.07618016
0.021117156 1.1324952 0.013507182 -0.39651236 0.03130366 0.49439946 2.8065372 1.4303185
1.5987408 -0.19280384 2.390746 -0.069194645 -0.0009591044 0.5927681 0.87937057 0.29108214
-0.41612828 -0.029160654 0.21287331 -0.0034011824 -0.06525027 1.5838466 0.34947583 -0.18984617
-0.2375869 1.0134482 -0.5702536 -0.4309928 0.227584 0.91036904 0.02693617 -0.034768164
1.6908925 0.5743936 -0.071119875 -0.608701 0.76458824 -0.06700477 0.02422278 -0.03697972
2.1090734 -0.06459551 0.12032624 2.0706568 -0.026788354 -0.034713924 -0.48633358 1.3955455
1.0485214 1.9340851 0.4807896 0.0045620124 1.088104 -0.062792696 0.20713297 -0.24308543
0.6860522 -0.043143652 3.073892 -0.0026816102 0.12608188 -0.35909617 3.6732943 -0.3036555
1.6494838 0.6360283 1.8411806 -0.40259025 -0.0477768 -0.07827217 0.8618007 0.009730372
0.05439509 0.8751784 -0.033340186 -0.092260726 -0.049459886 -0.2809521 -0.023258604 -0.07288492
1.5802447 1.8375883 1.8938907 -0.40625057 0.3728477 -0.07141104 0.7573442 -0.037066296
0.053135052 0.13194202 0.69943607 0.8505913 -0.05282822 1.2664534 -0.05973379 0.015045634
2.854879 -0.0073675006 1.7829769 3.5215542 -0.67059207 0.21124282 0.3723255 0.5821347
-0.056306746 0.02214459 -0.49286625 3.088612 -0.011923469 -0.17793816 0.71255755 -0.060973268
-0.5420737 0.5353772 -0.32600784 -0.064781785 -0.03112541 0.602178 -0.061715793 0.19361
-0.057492804 -0.015967233 -0.4498603 -0.07122582 0.4418149 0.44920295 2.5520108 -0.36710584
0.45763123 0.43462023 1.6409343 0.8345234 0.016592978 -0.059068676 -0.21145831 -0.043138593
1.3359034 -0.43382427 0.38107413 0.09974364 -0.40640673 0.13596825 0.7595844 -0.06688526
0.4850586 0.5055969 -0.07628432 0.4157114 0.0013713919 0.6099074 0.84303904 -0.020699255
-0.013780787 1.0212687 1.7183425 2.3417895 1.7265012 0.11367355 -0.0483265 0.97985166
0.7754937 -0.033772543 -0.004928302 -0.61396885 -0.34153962 -0.048331346 0.2610094 0.40880668
-0.07053292 -0.054204863 0.0064860405 -0.15391867 -0.21342821 -0.017878838 -0.05732591 0.55848783
1.1683117 -0.010914661 0.10114511 0.80950505 -0.7134168 -0.6444614 0.09359364 1.2902828
-0.059010413 -0.48648438 0.0062498758 -0.05631837 0.0029582684 0.026514765 1.0969428 0.012053685
2.7795436 0.70978415 -0.034608945 -0.013086635 2.527969 0.4462973 0.58841187 0.14539325
-0.05412514 -0.048006948 0.30539814 -0.04446569 -0.059996422 0.5135425 0.19344558 1.7553122
-0.0540712 0.012159353 -0.17358266 0.7862141 -0.06365689 1.2379184 0.6276661 0.43852305
0.8561242 0.0069226352 1.0960283 -0.52672076 -0.120834306 -0.02707751 1.3914561 -0.360752

q.4.weight f4 [10, 256]
00000000: fb2e 75be 7841 d13e 26ec 403d 5518 c3bf
00000010: d241 47bf ac21 443d 9ef6 ca3a f339 debd
00000020: 95ca c7bf 8852 4bbf 4015 7bbc db1e 8a3c
00000030: 15f5 c6be 4757 243d 2465 96bc d119 90bf
00000040: b8cf 9dbe 1b64 d23c b6b4 64bf 0eb4 a7bf
00000050: f333 3ebe 46ca d0bd ce43 d03b a101 f7bc
00000060: 026f 7dbf 9250 88bf ed63 8a3c b3b9 bdbe
00000070: 4735 58be 46d9 e0bc ab2b 41bf 5f07 573c
00000080: 3c86 203d 833f 97bf 061e 5cbd 47a6 75be
00000090: eac0 ff3a 385d a1bf 99b2 56bf cc53 36bf
000000a0: f0be 4cbe 1600 e0bd 3d13 54bd 6b85 77bd
000000b0: d2ac e53c cf4c 7ebc 59e7 b2bf cc4b d3bf
000000c0: 5621 40be c8ba 273d bc28 1b3c bad7 7bbd
000000d0: 5bcc 93bc 79b3 84bf fdb4 e8be 3e3e d9bd
000000e0: f386 d2bd 35ce 4a3e 678f b5be 5a35 02bf
000000f0: 9e7d 84bf 37d6 c6bf 7eab fe3c fb63 093d
00000100: 3423 a1bf dc35 943c 1abd 70bd 7fa8 9dbe
00000110: 1163 9abf 86ab 5dbd f00c 173d f348 183d
00000120: ce19 73bf 78c2 a43a c832 89bf f08b 6ebf
00000130: 2c8b 863b 4e94 523c 6634 d4be 400c 5cbf
00000140: e6b1 bcbe 0091 5ebf a77d e6bd 60ad 1a3d
00000150: 6ffe 263d 0a81 4a3d 8fac b2bf 430c 81bc
00000160: ece5 92bf 5027 bbbc 7b1e 18bf 970e fcbc
00000170: 74ab 0d3d 24c6 6fbe d675 e13e 7362 33bd
00000180: 0c8b 23bf 508f 2c3d 0095 59be c422 94be
00000190: 78ec 13bd e3b1 f7bd e57b 62bf 20a7 41bc
000001a0: 9745 85be 3202 8dbf 73fe ad3c 2384 5cbd
000001b0: 9253 fc3b 0243 63be 607f 8cbd 23a0 3b3d
000001c0: c04f 93bf 64b3 93bf d865 42bf 7f52 01bf
000001d0: ef7e abbe bec8 583d 0b8d d8be 0f60 f13c
000001e0: 2b4a 57be bfca f6bf bb94 1ebf 52d2 01bf
000001f0: 805c 09ba db97 cabe c39a 2dbd 5fbc 2e3d
00000200: f274 1dbf c86c 8cbd 6315 7ebf 878a 893e
00000210: 72e1 72bf 28cf 88bc 307c 8fbd 0ae2 82bf
00000220: 70b6 8bbc 07b7 b1bc 60f9 99be f022 e3bd
00000230: 78bb 4a3c 6356 093c 706b cf3d 6eb5 4d3d
00000240: 63f4 bdbf 3065 a1bf 9bc5 39be 3f9b f93b
00000250: 1c26 1ebd da81 a4bf 9849 f03c 6b4d eebd
00000260: 9ed5 61bd 12a6 ca3b b3bc 8cbe dea0 74bb
00000270: 068d 9bbf 3c9f 8fbf b19b 29bf faba 43be
00000280: cdfc 95bf 67a0 e0bd 4924 84bf b63b b0bf
00000290: 60ff 93bd 4cee bd3c 9715 87bc 7306 a63c
000002a0: a1bd 28bf f394 b0be 15e9 99bf 1711 e3bb
000002b0: e3e3 a3be d815 08bd ed14 49bf 5758 54ba
000002c0: 4b8e 66bd 62c7 30bd ca6c 273d f31d 113d
000002d0: cb87 243d ce13 71bf 293a 97bf 8bf7 623d
000002e0: b6d6 52bd 2a20 bebf 84c2 bdbf a684 8dbf
000002f0: 7e7e d83d 27d1 5bbd b361 3a3c d818 9bbf
00000300: 4984 07be 9a57 f0bc 76be 7dbc 67ec 99be
00000310: e1f0 85bd d779 dd3c 68b1 acbd fefe 55be
00000320: e6eb 4e3d 1e31 1b3d 2b22 11bc 4bec d8bd
00000330: b164 43be c3c9 04bb 3070 0abc bba9 7c3d
00000340: de2f 33bf a76b 0fbd 2d86 88bf d238 24be
00000350: b693 68bf 1ed5 d5be 197d 00bd daf0 3bbe
00000360: 727e 62bd e808 8abe c456 9cbc 1b9b 5cbd
00000370: b857 98bc b673 483d db8e afbf fc95 253d
00000380: 51cc cabe 6429 b8bf 3e14 563b db82 193d
00000390: 2b65 7abf 9e64 70bf 11c6 d4bf 3be3 44be
000003a0: 7b0d 2b3c 0215 01bd 73ef 98bf 8e5f 60bb
000003b0: dae5 323d da14 5bbe 1e2f 65bc 49a2 67bf
000003c0: f4e9 12bd 6335 b93c e2a9 fabe 7390 4cbf
000003d0: 3449 5b3d 1da5 6abe 54a6 9dbf e80d 193e
000003e0: 70ec 64bf 3cc0 9cbd c3e5 b2be 4bba 71be
000003f0: 7cd5 8dbd 129a cc3b d1f1 11bf bf79 11be
-0.23943703 0.4087026 0.04710021 -1.52418 -0.7783481 0.047883675 0.0015484875 -0.10850897
-1.5608698 -0.7942281 -0.015324891 0.016860416 -0.38858858 0.040122297 -0.018358774 -1.1257879
-0.3082254 0.0256825 -0.89338243 -1.3101823 -0.18574505 -0.101948306 0.006355739 -0.030152144
-0.9899751 -1.0649588 0.016893351 -0.3705574 -0.21114074 -0.027447354 -0.7545726 0.013124316
0.039190516 -1.1816257 -0.05373957 -0.23989211 0.0019512449 -1.2606573 -0.8386627 -0.71221614
-0.19994712 -0.109375164 -0.05177616 -0.06042997 0.028036509 -0.015521242 -1.3976852 -1.6507506
-0.18762717 0.040949613 0.009470161 -0.06148503 -0.01804178 -1.0367271 -0.45450583 -0.10607575
-0.10279646 0.19805224 -0.3546097 -0.5086266 -1.0350835 -1.5534123 0.031087633 0.033542614
-1.2588868 0.018092088 -0.05877409 -0.30792615 -1.2061483 -0.054118656 0.036877573 0.037178945
-0.9496125 0.0012570163 -1.0718622 -0.9318228 0.004105946 0.012852741 -0.41446227 -0.8595619
-0.36854476 -0.8694 -0.11254435 0.037763 0.04076999 0.049439467 -1.3958911 -0.015752917
-1.1476417 -0.022845894 -0.5942151 -0.030768676 0.03458734 -0.23415428 0.44035214 -0.04379506
-0.63884044 0.04212886 -0.21248245 -0.28932774 -0.036114186 -0.12094476 -0.884703 -0.011819631
-0.26029655 -1.1016295 0.021239495 -0.053836953 0.007700392 -0.2219353 -0.06860232 0.045807015
-1.1508713 -1.1539121 -0.7593665 -0.50516504 -0.3349528 0.052925818 -0.42295107 0.02946475
-0.21024387 -1.9280623 -0.61945695 -0.5071155 -0.0005239919 -0.39568982 -0.04238392 0.042660113
-0.6150657 -0.06856686 -0.99251384 0.268635 -0.9487525 -0.016700342 -0.07006109 -1.0225232
-0.017054766 -0.02169372 -0.3007307 -0.11090648 0.012373798 0.008382413 0.10127914 0.050221853
-1.4840206 -1.2609005 -0.18141787 0.0076173837 -0.038610563 -1.2852128 0.029331967 -0.1163586
-0.05513536 0.006184348 -0.27487716 -0.003732733 -1.2152412 -1.122047 -0.6625319 -0.19114295
-1.1717774 -0.10968094 -1.0323573 -1.3768222 -0.07226443 0.023184918 -0.016489787 0.020266747
-0.6591435 -0.3448864 -1.2024256 -0.0069295275 -0.320098 -0.033223957 -0.78547555 -0.0008100322
-0.056288045 -0.043158896 0.040875234 0.035428952 0.040168565 -0.94170845 -1.1814624 0.055411857
-0.051474296 -1.4853566 -1.4824986 -1.1056106 0.105710015 -0.05366626 0.011375832 -1.2116957
-0.13234057 -0.029338647 -0.015487304 -0.30063173 -0.06540085 0.027035637 -0.08432275 -0.20898053
0.05051794 0.03788864 -0.008858244 -0.10591944 -0.1908138 -0.002026186 -0.008449599 0.061685305
-0.69994915 -0.035014775 -1.0665947 -0.160373 -0.9085039 -0.41764158 -0.031369302 -0.18353596
-0.05529637 -0.2695992 -0.019084342 -0.053858858 -0.018596515 0.048938476 -1.3715471 0.04042624
-0.39609006 -1.4387631 0.0032665874 0.03747831 -0.9781062 -0.9390353 -1.6622945 -0.19227307
0.010440226 -0.031514175 -1.1948074 -0.0034236643 0.043676235 -0.21394673 -0.013988284 -0.90482
-0.035867646 0.022608465 -0.48957735 -0.7990791 0.05353661 -0.22914548 -1.2316384 0.14946711
-0.89423275 -0.07653853 -0.3494092 -0.23606221 -0.069254845 0.0062439525 -0.5700961 -0.14206599

q.4.bias f4 [10]
00000000: b646 3b40 3a59 c940 1030 0941 e34d bb40
00000010: cca6 1840 867b a040 195a 8341 4be7 7c3f
00000020: a463 3241 f5f2 9e40
2.9261909 6.292142 8.574234 5.8532577 2.3851805 5.0150785 16.418993 0.98790425
11.149326 4.967158
