task4/task3_experiment_2_b_target_q2.pt (torch, 281951 bytes, 6 tensors)

q.0.weight f4 [256, 5]
-0.0018529089 0.0012559383 -0.0011474671 0.0024083226 0.08470547 -0.009995035 0.0015777195 0.0009694105
0.0018263592 -0.15497378 -0.0004921232 0.00073455775 -0.014281782 -0.008686676 -0.08710918 0.42115083
0.38627183 -0.06651266 0.012418628 -0.150655 -0.09457837 -0.5637896 -0.73650134 -1.3319746
0.23339325 0.001967466 -0.0014110315 0.005568474 -0.009361065 -0.17272124 -0.039545402 -0.0076226983
-0.014039287 -0.034231715 -0.14879677 -0.0009910974 -0.0008625343 -0.0026544898 -0.00030831512 0.07996082
-0.0006552324 0.0023183944 0.0016896992 0.0011517466 -0.2094957 -0.0016642439 -0.00045159794 -0.0010954412
-5.6586236e-05 0.34838033 -0.04700812 -0.2700021 -0.08093408 -0.2782162 -0.18955097 -0.00083204976
0.001169777 -0.0004838723 0.0011911228 -0.20745395 0.0004021073 -0.0029148504 0.0013616553 -0.004113762
0.255095 -0.21510865 -0.3863705 -0.2657063 -0.4302414 0.41588724 0.5743352 0.44146204
0.18156637 0.100640066 -0.34942585 -0.06904309 -0.36837822 0.34061658 -0.41579086 -0.38179713
-0.1973566 -0.29698431 0.092864275 -0.06961167 0.28342932 -0.18653962 -0.4521649 -0.48068303
0.22779153 0.09311992 -0.023773696 -0.00030979127 -0.049598686 0.010033014 0.07790178 0.0005431024
-0.00023757321 0.0011033247 -0.00038115616 -0.29489994 -0.063547954 -0.022710761 -0.14635484 -0.026840843
-0.1340265 0.002876005 -0.00055113266 0.003021235 -0.001798331 0.32011485 7.514498e-05 -0.0018986042
-0.0017565403 -0.00025441006 0.11085808 -0.7388533 0.7834256 0.02398453 0.1523352 0.016629308
-0.00020063462 0.0027481574 -0.0017813204 0.0026536097 0.37369806 -0.0018278866 0.00579079 0.004011645
0.0021999904 0.36818287 5.785109e-05 0.00074536924 8.055305e-05 -0.00017704394 -0.038919 0.7080633
-0.13138403 -0.29958212 0.090314664 -0.33453757 0.12780328 0.16470903 -0.26890588 0.047463745
-0.2615133 0.16367422 0.63387066 0.044970375 -0.02573721 -0.20227271 0.0019567558 0.010182603
0.0036241084 0.006538074 0.17238492 0.0002052927 -0.003908757 0.00056128873 -0.0048876586 -0.06584471
-0.10346183 -0.32379606 -0.16966435 -0.12259801 -0.4236183 0.0015096584 0.00047402593 0.0011128056
-0.00049772573 -0.26784515 0.00252654 -0.0017328078 0.0032198026 -0.0010043095 -0.4277392 0.43497053
0.6015561 -0.023753155 0.11005615 0.40800434 -0.0015519287 -0.00053498003 -0.0016424767 -0.00086887664
-0.1476925 0.0024750612 0.0011485893 -0.00035931435 0.0011465894 -0.34339845 0.3835268 0.7584508
0.43651184 0.2150707 -0.16834345 1.1826297 0.10616833 -0.48349452 0.03844729 0.29582608
0.177558 0.1985991 -0.230409 -0.17229399 0.15356283 0.0010088915 7.451066e-05 0.0016223461
-0.00081155135 0.07076442 0.00045468178 0.006718741 0.0027674034 0.0072595133 -0.32680532 -0.0014588757
-0.00028370493 -0.0013164184 -0.002385999 0.4161752 -0.34044927 0.3601773 0.017778458 -0.042797282
-0.15938005 0.0003661194 -0.0016594382 0.00030210498 -0.0020296085 0.37489396 0.0024199924 -2.7199143e-05
0.0029483032 -0.00049932173 -0.12218538 0.34847486 -0.037423342 0.3495692 0.038672656 -0.014940798
0.46780598 0.20988193 -0.038959157 -0.12822904 0.031111568 0.00017593947 -0.001999662 0.00058449496
-0.0003323776 0.30290002 0.013848865 0.008155845 0.038929503 -0.02814351 -0.1737226 0.06993274
00000000: 4edd f2ba 4c9e a43a 9b66 96ba f3d4 1d3b
00000010: 107a ad3d 37c2 23bc 7bcb ce3a 0a20 7e3a
00000020: 7262 ef3a 72b1 1ebe d401 01ba 568f 403a
00000030: 23fe 69bc 8f52 0ebc 4c66 b2bd 15a1 d73e
00000040: 6cc5 c53e ca37 88bd 8077 4b3c 4e45 1abe
00000050: 4eb2 c1bd 8454 10bf 5a8b 3cbf 257e aabf
00000060: a4fe 6e3e 9af0 003b 5cf2 b8ba bf77 b63b
00000070: 275f 19bc d6dd 30be 5cfa 21bd d4c7 f9bb
00000080: 0a05 66bc 8e36 0cbd 2e5e 18be b6e7 81ba
00000090: b21b 62ba f3f6 2dbb 5ba5 a1b9 80c2 a33d
000000a0: e7c3 2bba 34f0 173b e678 dd3a 34f6 963a
000000b0: 0a86 56be c222 daba 73c4 ecb9 e894 8fba
000000c0: 0257 6db8 e85e b23e 968b 40bd b73d 8abe
000000d0: c4c0 a5bd 5b72 8ebe a619 42be ea1d 5aba
000000e0: 3453 993a 3eb0 fdb9 731f 9c3a cf6e 54be
000000f0: eed1 d239 1307 3fbb 9279 b23a bdcc 86bb
00000100: d09b 823e 7145 5cbe 5bd2 c5be a80a 88be
00000110: 9a48 dcbe 2cef d43e a207 133f 5007 e23e
00000120: 89ec 393e 611c ce3d f2e7 b2be 7766 8dbd
00000130: 129c bcbe 4c65 ae3e 8ae2 d4be ea7a c3be
00000140: d917 4abe 540e 98be a02f be3d 9090 8ebd
00000150: a61d 913e 3e04 3fbe 2882 e7be 161c f6be
00000160: 2f42 693e a8b5 be3d 0ec1 c2bc 7b6b a2b9
00000170: fe27 4bbd 8361 243c f88a 9f3d fc5e 0e3a
00000180: 131d 79b9 6f9d 903a ead5 c7b9 20fd 96be
00000190: 6e25 82bd eb0b babc 0bde 15be 54e1 dbbc
000001a0: 3e3e 09be 5b7b 3c3b e379 10ba eaff 453b
000001b0: fab5 ebba 18e6 a33e 2797 9d38 96da f8ba
000001c0: b63b e6ba 5762 85b9 9009 e33d 7d25 3dbf
000001d0: 958e 483f 347b c43c c2fd 1b3e 303a 883c
000001e0: 7261 52b9 6e1a 343b 327b e9ba 2fe8 2d3b
000001f0: 5a55 bf3e b295 efba abc0 bd3b 1e74 833b
00000200: b72d 103b 7782 bc3e 23a5 7238 e264 433a
00000210: 97ee a838 dfa4 39b9 8869 1fbd a343 353f
00000220: 8989 06be d462 99be e5f6 b83d 8248 abbe
00000230: ddde 023e 7ca9 283e 08ae 89be 5869 423d
00000240: 12e5 85be 379a 273e 5945 223f db32 383d
00000250: d7d6 d2bc 9420 4fbe ea3c 003b efd4 263c
00000260: 7382 6d3b 573d d63b ac85 303e d743 5739
00000270: 0815 80bb 7323 133a a728 a0bb 97d9 86bd
00000280: cce3 d3bd 99c8 a5be 7ebc 2dbe aa14 fbbd
00000290: 7fe4 d8be bbdf c53a af86 f839 8fdb 913a
000002a0: cf79 02ba 0023 89be 4f94 253b 621f e3ba
000002b0: 5303 533b 09a3 83ba a200 dbbe 75b4 de3e
000002c0: 95ff 193f fa95 c2bc 1e65 e13d f2e5 d03e
000002d0: 166a cbba e73d 0cba 5f48 d7ba 53c5 63ba
000002e0: b43c 17be a334 223b 438c 963a 5b62 bcb9
000002f0: 2849 963a ecd1 afbe a05d c43e d529 423f
00000300: 7b7e df3e 7e3b 5c3e 3a62 2cbe 6960 973f
00000310: c86e d93d 988c f7be e87a 1d3d 8476 973e
00000320: c4d1 353e 905d 4b3e 56f0 6bbe d66d 30be
00000330: 933f 1d3e c83c 843a 9b42 9c38 e7a4 d43a
00000340: 4abe 54ba f0ec 903d 5b62 ee39 e228 dc3b
00000350: 535d 353b 36e1 ed3b 0753 a7be bf37 bfba
00000360: 3bbe 94b9 ac8b acba 6c5e 1cbb ea14 d53e
00000370: 5e4f aebe 2969 b83e 21a4 913c 344c 2fbd
00000380: 8634 23be b7f3 bf39 8281 d9ba d863 9e39
00000390: 2e03 05bb 1af2 bf3e bc98 1e3b b729 e4b7
000003a0: 5238 413b eae4 02ba 543c fabd 4c6b b23e
000003b0: 3849 19bd bcfa b23e 3867 1e3d 40ca 74bc
000003c0: 4484 ef3e 4aeb 563e a393 1fbd 794e 03be
000003d0: b0dd fe3c 647c 3839 c30c 03bb cb38 193a
000003e0: f742 aeb9 b615 9b3e 5ae6 623c 18a0 053c
000003f0: 8b74 1f3d 388d e6bc 56e4 31be e538 8f3d

q.0.bias f4 [256]
-0.002074616 -0.007690297 -0.012481554 0.16436255 0.40342164 -0.006563909 -0.014789375 -0.002000896
-0.0023926068 -0.0018453094 -0.16976815 -0.0010625958 -0.0020680323 -0.44053274 0.6613052 -0.44627193
-0.42066255 0.73683035 -0.029894164 -0.0007611563 -0.08247709 -0.0026026806 -0.002260238 0.19604822
-0.002327321 -0.0058031958 -0.0012083966 0.6001553 0.07363118 0.28886783 -0.007025547 -0.0028212853
-0.43265948 -0.0013255943 -0.0025161747 0.22429243 -0.0011841287 -0.0021407073 0.15293694 0.78289664
-0.44580492 -0.0013855761 -0.00586036 -0.002093047 0.07538878 -0.001342712 -0.001788834 -0.24232528
0.34512684 -0.0022831857 0.0063588093 0.3757526 -0.44152814 0.25288403 -0.35236812 -0.0030933523
-0.36195323 -0.016818248 -0.0018063312 0.42392024 0.27533802 -0.008903302 -0.0024321508 -0.0020488708
0.3182474 -0.00092621817 -0.006646834 -0.002327796 -0.11348268 0.19515884 -0.02273468 -0.002471895
-0.06095114 -0.13020222 -0.0020528198 0.28561753 0.3540606 -0.0018304851 -0.002301719 -0.015672099
0.95835745 -0.0039497595 -0.0022493834 -0.007709091 -0.3348784 -0.017860547 -0.0026831096 -0.004655471
-0.35928687 -0.0014481936 -0.23931624 -0.0018795285 0.15342371 -0.0013685538 -0.4244572 -0.0026229834
-0.0014928061 -0.014463539 -0.0024398435 -0.051258456 -0.12006869 -0.0011097672 0.15604198 -0.22430371
-0.0013117618 -0.2343506 -0.004558446 -0.0017104632 -0.09757658 -0.10804137 -0.0017399116 -0.0027105603
-0.0018226946 -0.0017496463 -0.0024284627 -0.0042062663 0.6459687 0.7528529 0.39056128 -0.001299622
0.3643757 -0.0015643759 -0.0022578351 -0.007323123 -0.001524839 -0.13952625 -0.13025676 -0.07086104
-0.40763444 -0.007117636 -0.0017876559 -0.0024603652 -0.41209766 -0.0031969573 -0.0014916257 0.32461435
1.3750145 -0.0012643109 -0.0028767549 -0.0017569385 -0.0017699584 -0.0019073122 -0.23799935 -0.4035638
0.34910494 -0.008247763 0.0022571136 0.5485619 0.0126302885 0.13381773 0.005105401 -0.40524036
-0.0026617777 0.23414299 -0.0023758104 -0.0020081836 -0.0019476478 0.42855355 -0.0011781566 -0.42082253
0.58455384 -0.0014424752 0.081899345 1.2019076 0.4085665 -0.0017870272 -0.013175595 0.26647085
-0.02075778 0.15999666 -0.0012276121 -0.0014781075 -0.0013897833 -0.0011403938 -0.0012680548 0.9095629
-0.40851828 -0.34093145 -0.0013605957 -0.30673638 -0.19928415 -0.6677364 0.45057064 0.41000357
-0.0016629634 -0.0019197873 -0.44466645 -0.0044484567 0.053019732 -0.0013122903 -0.0047242213 -0.006475797
-0.2569594 -0.0017202584 0.17817071 0.3278428 -0.001146338 -0.43209344 -0.32954663 -0.18761466
-0.009152133 0.5710946 0.0019791855 -0.0022728434 0.54569584 -0.21931182 -0.3921362 -0.0027029933
0.2944992 0.034139868 -0.0018597542 -0.006908107 -0.001787153 -0.001989846 -0.15376131 -0.36568454
-0.0048923064 0.41906932 -0.326642 -0.00323557 0.4186389 -0.0131300455 -0.057617154 0.3482835
-0.38754898 -0.40931958 -0.002359163 -0.3728048 -0.0009941465 0.42860696 -0.0077530495 -0.032443043
-0.003006716 0.6733669 0.09235217 -0.008061997 -0.0013135616 -0.001568518 -0.004352875 -0.0015813609
-0.3061845 -0.0017363516 0.45690975 -0.0012448742 0.31506827 -0.0016474453 -0.0054250974 -0.41545162
-0.29550874 -0.008880019 -0.0024530496 -0.3990578 -0.00216698 -0.013992849 0.23850541 0.45641845
00000000: 48f6 07bb e3fe fbbb 6f7f 4cbc a84e 283e
00000010: 488d ce3e 0f16 d7bb 224f 72bc 7721 03bb
00000020: 48cd 1cbb 4fde f1ba b4d7 2dbe cc46 8bba
00000030: d387 07bb 828d e1be 4c4b 293f c17d e4be
00000040: 1561 d7be eaa0 3c3f 9be4 f4bc 5688 47ba
00000050: c0e9 a8bd bc91 2abb 8020 14bb ddc0 483e
00000060: f885 18bb bc28 bebb 1063 9eba c7a3 193f
00000070: f2cb 963d 7ce6 933e 8f36 e6bb 50e5 38bb
00000080: 8b85 ddbe 90bf adba 68e6 24bb eaac 653e
00000090: c434 9bba 1c4b 0cbb 809b 1c3e ea6b 483f
000000a0: 8b40 e4be 389c b5ba 4308 c0bb 802b 09bb
000000b0: 6f65 9a3d f0fd afba 4f77 eaba 1e24 78be
000000c0: 77b4 b03e 80a1 15bb 8f5d d03b a562 c03e
000000d0: fa0f e2be 047a 813e 9869 b4be d7b9 4abb
000000e0: ef51 b9be 6cc6 89bc 6bc2 ecba 130c d93e
000000f0: 1bf9 8c3e 28df 11bc b864 1fbb 5946 06bb
00000100: 53f1 a23e 73cd 72ba afcd d9bb f08d 18bb
00000110: 9b69 e8bd b8d7 473e 143e babc 84ff 21bb
00000120: e7a7 79bd bb53 05be 9a88 06bb 763c 923e
00000130: 6e47 b53e e3ec efba 70d8 16bb c662 80bc
00000140: ea56 753f fc6c 81bb 646a 13bb 8b9c fcbb
00000150: 2f75 abbe 4850 92bc 1cd7 2fbb ec8c 98bb
00000160: 73f4 b7be 50d1 bdba 510f 75be 835a f6ba
00000170: 1b1b 1d3e 0c61 b3ba 7452 d9be 5ce6 2bbb
00000180: 43aa c3ba 7bf8 6cbc c8e5 1fbb 63f4 51bd
00000190: 93e6 f5bd 9c75 91ba 78c9 1f3e dfaf 65be
000001a0: 6cef abba 9bf9 6fbe 045f 95bb 9f31 e0ba
000001b0: 3bd6 c7bd cb44 ddbd bf0d e4ba a8a3 31bb
000001c0: 7be7 eeba 6354 e5ba d826 1fbb b8d4 89bb
000001d0: 345e 253f f8ba 403f a6f7 c73e 1458 aaba
000001e0: 748f ba3e bf0b cdba 30f8 13bb cff6 efbb
000001f0: 1bdd c7ba f8df 0ebe 0762 05be 981f 91bd
00000200: 76b5 d0be 0f3b e9bb c74f eaba 143e 21bb
00000210: 77fe d2be 0b84 51bb a782 c3ba da33 a63e
00000220: 7a00 b03f 3cb7 a5ba f087 3cbb 1349 e6ba
00000230: f3fd e7ba c7fe f9ba 1ab6 73be ea9f cebe
00000240: e2bd b23e a021 07bc 15ec 133b 8d6e 0c3f
00000250: 45ef 4e3c 8407 093e 354b a73b aa7b cfbe
00000260: 3871 2ebb 2ec3 6f3e 7cb3 1bbb bb9b 03bb
00000270: 3748 ffba 5f6b db3e 606c 9aba 0d76 d7be
00000280: 52a5 153f 7011 bdba d8ba a73d 1cd8 993f
00000290: a12f d13e af3a eaba 73de 57bc de6e 883e
000002a0: 380c aabc 2ad6 233e d4e7 a0ba 0fbd c1ba
000002b0: 6429 b6ba 4479 95ba dc34 a6ba 1dd9 683f
000002c0: 4f29 d1be 918e aebe 0456 b2ba 8d0c 9dbe
000002d0: 2511 4cbe c6f0 2abf 32b1 e63e fdeb d13e
000002e0: cbf7 d9ba 5fa1 fbba 52ab e3be 5cc4 91bb
000002f0: 382b 593d 2801 acba a4cd 9abb ec32 d4bb
00000300: 2f90 83be 4b7a e1ba 6272 363e 03db a73e
00000310: b840 96ba 5a3b ddbe 56ba a8be 0f1e 40be
00000320: d4f2 15bc 4133 123f 39b5 013b fcf3 14bb
00000330: b9b2 0b3f 4793 60be 13c6 c8be b424 31bb
00000340: 99c8 963e 3fd6 0b3d ffc2 f3ba 675d e2bb
00000350: e73e eaba 1368 02bb 9b73 1dbe 013b bbbe
00000360: a44f a0bb 4190 d63e 9f3d a7be db0b 54bb
00000370: d757 d63e 671f 57bc f7ff 6bbd 3752 b23e
00000380: d26c c6be 5692 d1be 309c 1abb 45e0 bebe
00000390: 054e 82ba 5f72 db3e 4b0d febb ffe2 04bd
000003a0: 530c 45bb c661 2c3f 2223 bd3d 7716 04bc
000003b0: d02b acba bb96 cdba 90a2 8ebb ab45 cfba
000003c0: 37c4 9cbe 4b96 e3ba 13f0 e93e 0c2b a3ba
000003d0: a150 a13e 17ef d7ba 04c5 b1bb 13b6 d4be
000003e0: ec4c 97be 807d 11bc 58c3 20bb 4e51 ccbe
000003f0: e403 0ebb 4342 65bc c33a 743e aeaf e93e

q.2.weight f4 [256, 256]
0.03550167 -1.1315451 -1.2482319 0.08834844 0.07340362 0.11790563 0.01830594 0.16116509
-0.18931071 0.00090131105 0.2308602 -1.400114 -0.15278439 0.05255509 0.19048074 -0.045289256
0.054086678 0.12865233 0.18880466 -0.05915905 -0.08510848 -1.2704072 -0.5527859 -0.47112843
-0.0823634 -0.30707562 -0.17587316 0.12423505 -0.16654056 0.1373757 0.13886015 0.16606282
0.044290096 -0.63320446 -0.02064345 -0.03694656 -0.3554984 -0.25904572 -0.035599127 0.0756081
-0.03851307 -0.5180939 -0.15419167 0.079825126 -0.03489393 -0.10167931 -0.1186045 -0.00034950674
-0.1226457 -0.3945782 -0.060806897 0.11557658 0.059295915 -0.043529004 0.036588743 -0.17843288
0.04092694 -0.05217197 -0.098821275 0.069401614 -0.14224571 -0.05708474 -0.26055968 0.07280534
-0.4856654 -0.12561713 -0.059887048 -0.082634896 0.047385193 0.0070912605 0.08843695 0.07848819
0.13429324 -0.06176072 0.28673548 -0.43596706 9.2331364e-05 -0.80956614 -0.67543316 -0.15276742
0.18942305 -0.023057066 -0.024893036 0.06473982 -0.051114388 0.066662185 -0.47145924 -0.053995356
0.02152019 0.1505811 -0.061437428 -0.05079339 0.010139669 -0.48180005 -0.009918198 -0.060613256
0.107746616 0.08655941 -0.570765 0.08423855 0.18186103 -0.16536695 -0.11128833 0.12122814
0.12860316 0.010499597 -0.11995575 -0.2627159 -0.11496191 0.06591623 0.029808778 -0.92486423
-0.22630791 -0.36782527 0.07594516 0.13209562 0.12813139 0.12728739 -0.27030492 -0.05591291
-0.1504792 -0.11828278 -0.14116359 0.07584398 -0.1504497 0.13757329 0.12291302 0.014867863
-0.022853047 0.018428614 0.11330743 -0.08046484 -0.0057149525 0.027609143 0.024590466 -0.15365434
-1.1783109 0.050961323 -1.3799415 -0.421712 -0.43229124 -1.308845 -0.016075544 0.058674537
0.089121215 -0.13812552 -0.7560913 0.16856115 -0.006790444 0.10768239 -0.27987742 0.05026093
-0.29941523 -0.16802293 -0.029117515 0.10491912 0.100210205 0.12091388 0.0039145267 -0.0285073
0.13872634 -0.14183384 -0.015736843 0.09697308 0.13019133 0.17712931 -0.11250978 0.10997568
-0.32082522 0.11095111 -0.2131931 -0.0018880245 -0.03672819 -0.12885307 -0.4493131 0.16897123
0.01911506 0.058306612 0.08299848 -0.03622324 0.04174123 0.29150805 0.11190896 -0.75299066
-0.3179952 -1.30406 0.028741404 -0.30065978 0.1377813 -0.14819217 -0.08206493 -0.627095
0.17029026 0.13432543 0.085617654 -0.22402357 -0.40875515 -0.055273004 0.026208527 0.041649967
-0.6781714 0.12145881 0.13783495 0.18781224 0.028683107 0.14041285 0.02758858 -0.0071617435
-0.099902354 0.10877614 -0.37049913 -0.4166313 -0.7450502 -0.19404034 0.01478193 0.05924219
0.072350554 -0.17021847 0.051521964 -0.8102409 0.037103172 -0.166928 0.04552747 -0.18275005
0.022257641 -0.054624215 -0.02479927 0.02691143 -0.060703035 0.04454988 -0.15857232 -0.0997669
-0.45511207 0.040809985 -0.23742746 0.13191174 -0.072165936 -0.12635623 -0.08632144 0.07524615
-0.02532132 -0.36883318 0.038932588 -0.48522374 -0.10105153 0.05868288 -0.011960256 0.032114536
0.0049539227 -0.06680778 -0.03961745 0.03757617 -0.12851107 -0.07825097 0.0071726767 -0.23339789
00000000: 336a 113d 78d6 90bf 10c6 9fbf 07f0 b43d
00000010: a354 963d 8278 f13d 57f6 953c 7608 253e
00000020: abda 41be f645 6c3a 9e66 6c3e f036 b3bf
00000030: 8373 1cbe 0244 573d 620d 433e 3a81 39bd
00000040: fe89 5d3d 70bd 033e 0256 413e c350 72bd
00000050: 5b4d aebd b49c a2bf 6083 0dbf bf37 f1be
00000060: 24ae a8bd 0439 9dbe 1818 34be f26e fe3d
00000070: 9c89 2abe 37ac 0c3e 5b31 0e3e 5f0c 2a3e
00000080: 8869 353d b019 22bf 741c a9bc 4755 17bd
00000090: e303 b6be a4a1 84be 64d0 11bd 6bd8 9a3d
000000a0: e2bf 1dbd cda1 04bf 6ce4 1dbe 5b7b a33d
000000b0: f0ec 0ebd 3e3d d0bd ebe6 f2bd 003e b7b9
000000c0: ab2d fbbd 2706 cabe a710 79bd 6ab3 ec3d
000000d0: 46e0 723d 784b 32bd 14de 153d 1cb7 36be
000000e0: 02a3 273d 47b2 55bd cf62 cabd 6f22 8e3d
000000f0: dca8 11be b0d1 69bd 1468 85be f71a 953d
00000100: 23a9 f8be c7a1 00be 1f4c 75bd 7c3c a9bd
00000110: fa16 423d ce5d e83b 6f1e b53d 6bbe a03d
00000120: 2b84 093e cff8 7cbd fece 923e 1337 dfbe
00000130: 06a2 c138 ba3f 4fbf 30e9 2cbf 106f 1cbe
00000140: 1ef8 413e 2ce2 bcbc 7bec cbbc 5096 843d
00000150: 525d 51bd 2f86 883d 1b63 f1be 3c2a 5dbd
00000160: 1c4b b03c ef31 1a3e d0a5 7bbd bb0c 50bd
00000170: db20 263c 7fae f6be f07f 22bc 9b45 78bd
00000180: 42aa dc3d 0f46 b13d a81d 12bf 4385 ac3d
00000190: c739 3a3e f455 29be 23eb e3bd 7646 f83d
000001a0: 8cb0 033e 8006 2c3c 5cab f5bd b382 86be
000001b0: 2671 ebbd 17ff 863d 8a31 f43c e7c3 6cbf
000001c0: 43bd 67be 9853 bcbe 2389 9b3d 1344 073e
000001d0: e034 033e a057 023e 6865 8abe ef04 65bd
000001e0: 3817 1abe 3e3e f2bd 308d 10be 1754 9b3d
000001f0: 7c0f 1abe 03e0 0c3e d2b9 fb3d 5698 733c
00000200: 5036 bbbc 9bf7 963c ba0d e83d c0ca a4bd
00000210: 7f44 bbbb 922c e23c f271 c93c 9057 1dbe
00000220: e4d2 96bf d2bc 503d eca1 b0bf a3ea d7be
00000230: 4755 ddbe 3c88 a7bf dcb0 83bc b654 703d
00000240: 2f85 b63d c770 0dbe 338f 41bf 4b9b 2c3e
00000250: 5f82 debb 9688 dc3d 184c 8fbe 68de 4d3d
00000260: f44c 99be 340e 2cbe db87 eebc d6df d63d
00000270: 023b cd3d b2a1 f73d 6e45 803b 2488 e9bc
00000280: 470e 0e3e e43c 11be 8dea 80bc d299 c63d
00000290: e050 053e 6361 353e 876b e6bd ee3a e13d
000002a0: 3443 a4be 563a e33d 4b4f 5abe 9777 f7ba
000002b0: 4c70 16bd 0ff2 03be 5e0c e6be cb06 2d3e
000002c0: 3097 9c3c ead2 6e3d 1bfb a93d d25e 14bd
000002d0: daf8 2a3d 8b40 953e 8630 e53d ffc3 40bf
000002e0: 44d0 a2be 70eb a6bf 1873 eb3c 14f0 99be
000002f0: 8b16 0d3e b0bf 17be a811 a8bd 4c89 20bf
00000300: 9260 2e3e 9b8c 093e 4f58 af3d 6f66 65be
00000310: 5b48 d1be f265 62bd 44b3 d63c 2899 2a3d
00000320: a49c 2dbf 66bf f83d 9b24 0d3e da51 403e
00000330: d6f8 ea3c 63c8 0f3e 7201 e23c 0fad eabb
00000340: 9b99 ccbd 06c6 de3d 10b2 bdbe b350 d5be
00000350: 9cbb 3ebf 83b2 46be e82f 723c f0a7 723d
00000360: 872c 943d c04d 2ebe b208 533d f36b 4fbf
00000370: 7ff9 173d 2cef 2abe 037b 3a3d d422 3bbe
00000380: a855 b63c a4bd 5fbd d727 cbbc 5c75 dc3c
00000390: bfa3 78bd ef79 363d c860 22be 9752 ccbd
000003a0: 7304 e9be 5f28 273d 2f20 73be df13 073e
000003b0: bccb 93bd 8763 01be 4cc9 b0bd a71a 9a3d
000003c0: a86e cfbc b4d7 bcbe c777 1f3d 3f6f f8be
000003d0: 1bf4 cebd 765d 703d f3f4 43bc 888a 033d
000003e0: 8454 a23b 84d2 88bd e845 22bd 78e9 193d
000003f0: 6898 03be 0b42 a0bd c608 eb3b dbff 6ebe

q.2.bias f4 [256]
-2.2704859 -3.7496154 0.0008245492 -0.06727492 -1.8945535 -3.7380996 -0.035889477 -0.08967376
-2.1942062 -5.673126 -3.1391351 0.034871127 0.0355501 -4.7238197 0.04064257 -6.8116274
-0.027925758 -0.06534333 -0.059405964 -0.017986387 -5.803522 0.12072956 -2.980482 -1.4169416
-0.05253224 0.033772316 0.018469928 -0.10884662 0.02165099 0.0018257771 -0.0062274127 -0.03334704
-5.721401 -0.009151425 -3.2337923 -3.8019958 -6.0317645 -0.21129082 -5.7530537 0.0495361
-1.6373285 -2.481739 -1.8707212 -4.472164 0.20124505 -0.19220066 -2.094105 -0.05448858
-4.3062153 -1.0811768 -1.813713 0.22682884 -3.2764468 -0.021957062 -0.0017687269 -0.06539094
-4.3574467 -0.032333035 -0.039211765 -4.1074433 -8.389409 -3.1394784 -0.04577692 -0.23974518
0.021074986 -0.35125816 0.018908054 -4.950117 -0.019540839 -3.0943983 -3.9715307 0.018443255
0.12198751 -5.3115788 0.09006192 -5.7388344 -3.5151498 -3.8834543 0.10011007 -3.7634199
-0.031597886 -0.09706875 -0.04728089 -0.041857168 -0.04264283 -0.06875327 -3.3281915 -1.7532548
0.17924528 -3.0550401 -1.852239 -0.062049728 -0.02885641 -0.07544702 0.23444512 0.15155117
-0.08501744 -4.490093 -2.9602642 -1.6310939 -3.4576004 -0.0626825 -4.1245904 -0.0046519227
-0.0117673045 -0.33015096 0.039531168 -8.219404 -0.048837166 -0.026870161 -2.4469109 -2.04408
-5.46924 -1.8181237 -2.3850698 -4.099442 -3.9014356 -0.08947706 -4.7455826 0.27834973
-0.017673872 -2.1425834 -2.532627 0.0065973056 0.03858845 -0.04400249 -4.1021223 0.022136992
-0.14651519 0.031657897 0.024211492 1.3923963 -2.5292177 -3.6962955 -0.0025736606 -0.07033697
-0.030537223 -0.060533013 -0.057577815 -0.053287696 0.018943971 -4.680132 0.091164164 -8.561538
-1.9352492 -0.043997273 -0.01301686 -0.08538431 -0.0065637226 -4.323925 -5.2825394 -2.070058
-7.4161944 0.019930251 -0.021007672 -2.307002 -2.729518 0.5593674 0.056952633 -0.06607717
0.028927673 -2.7827044 -3.9718502 -3.9841049 -1.2392912 -0.057887733 -0.09096628 0.0036131977
0.047866654 -1.5881213 -0.033134773 -0.040135935 -2.0981889 -2.3260946 -2.2158833 -3.7426724
-1.7844828 -0.016150648 -2.718794 -0.05991208 -6.026777 -4.2906895 -0.0102684535 -0.16567004
-0.106427126 0.0036305855 0.0026341404 -1.5560887 -0.07129854 -2.9246635 0.11995499 -2.9100914
-5.287184 0.05342516 -1.8357404 -6.7375407 -0.09834535 -3.9845865 -0.00179499 -0.075820446
0.057830237 -1.9666035 -0.06991854 0.03169936 -6.3929114 -3.855926 -4.3974104 -2.095855
-0.035382688 -4.1846337 -0.038096935 -0.06568314 -2.159421 -2.7683468 -2.4112005 -4.3496075
-8.403371 -0.04492651 -1.8511709 0.027275767 -2.8514214 -3.4661405 -0.04910345 0.010944053
-3.3668914 -0.008478414 -1.6518077 -0.044716403 0.042091932 -3.5293167 -5.1012554 -0.05088019
-2.6643772 0.011573161 -0.069307745 -0.018073633 -0.057958838 -0.048745822 -7.8329844 -0.037239578
-0.036815733 -2.340743 -0.08569619 -0.062823094 -0.008181625 -0.040176988 -0.9297521 -1.7773255
-0.032961547 -2.137267 -0.061041962 -0.077257216 -0.041822374 -1.412961 -2.7335663 -4.598898
00000000: a44f 11c0 b3f9 6fc0 8f26 583a 6fc7 89bd
00000010: bb80 f2bf 063d 6fc0 d800 13bd e0a6 b7bd
00000020: e06d 0cc0 408a b5c0 97e7 48c0 07d5 0e3d
00000030: fb9c 113d 8829 97c0 d378 263d daf8 d9c0
00000040: 8fc4 e4bc b9d2 85bd ab53 73bd 3058 93bc
00000050: 74b6 b9c0 0f41 f73d 38c0 3ec0 585e b5bf
00000060: 0c2c 57bd d754 0a3d 3f4e 973c faea debd
00000070: 6b5d b13c ea4e ef3a 530f ccbb e896 08bd
00000080: b815 b7c0 dcef 15bc 74f6 4ec0 e653 73c0
00000090: 3704 c1c0 9f5c 58be 0419 b8c0 5ee6 4a3d
000000a0: fb93 d1bf d0d4 1ec0 cb73 efbf f81b 8fc0
000000b0: 2f13 4e3e 40d0 44be d105 06c0 6b2f 5fbd
000000c0: 84cc 89c0 0064 8abf bf27 e8bf d245 683e
000000d0: 4eb1 51c0 4cdf b3bc a0d4 e7ba afeb 85bd
000000e0: 3470 8bc0 a56f 04bd 849c 20bd 2d70 83c0
000000f0: 053b 06c1 37ed 48c0 9480 3bbd c37f 75be
00000100: 73a5 ac3c 1cd8 b3be 10e5 9a3c 5c67 9ec0
00000110: 1c14 a0bc 9f0a 46c0 8f2d 7ec0 4f16 973c
00000120: 96d4 f93d 74f8 a9c0 6272 b83d 88a4 b7c0
00000130: 37f8 60c0 848a 78c0 8206 cd3d dfdb 70c0
00000140: c96c 01bd fbcb c6bd 9ba9 41bd 6c72 2bbd
00000150: 40aa 2ebd 84ce 8cbd 1701 55c0 a76a e0bf
00000160: 138c 373e c785 43c0 2b16 edbf db27 7ebd
00000170: 4764 ecbc f883 9abd 6212 703e 3b30 1b3e
00000180: a01d aebd d8ae 8fc0 f874 3dc0 afc7 d0bf
00000190: 5349 5dc0 af5f 80bd a5fc 83c0 286f 98bb
000001a0: a7cb 40bc 8c09 a9be 6feb 213d ae82 03c1
000001b0: 7b09 48bd d01e dcbc 309a 1cc0 35d2 02c0
000001c0: 0404 afc0 47b8 e8bf fca4 18c0 a12e 83c0
000001d0: 1fb1 79c0 c03f b7bd d0db 97c0 db83 8e3e
000001e0: ccc8 90bc 1620 09c0 9016 22c0 362e d83b
000001f0: ec0e 1e3d f43b 34bd 9644 83c0 a358 b53c
00000200: 1408 16be b6ab 013d 2e57 c63c 0b3a b23f
00000210: b4de 21c0 1b90 6cc0 dcaa 28bb d40c 90bd
00000220: 3329 fabc 77f1 77bd b7d6 6bbd 3344 5abd
00000230: 6330 9b3c a4c3 95c0 47b4 ba3d 0ffc 08c1
00000240: 3fb6 f7bf 7c36 34bd ab44 55bc f8dd aebd
00000250: 7f14 d7bb 985d 8ac0 900a a9c0 d57b 04c0
00000260: 7751 edc0 c444 a33c 4818 acbc eca5 13c0
00000270: 6cb0 2ec0 b432 0f3f 2a47 693d 7853 87bd
00000280: baf9 ec3c d417 32c0 cb32 7ec0 93fb 7ec0
00000290: 18a1 9ebf b01b 6dbd 874c babd 66cb 6c3b
000002a0: d30f 443d 8f47 cbbf 54b8 07bd 9465 24bd
000002b0: ba48 06c0 bcde 14c0 08d1 0dc0 f287 6fc0
000002c0: ef69 e4bf 5d4e 84bc b900 2ec0 5f66 75bd
000002d0: 5bdb c0c0 544d 89c0 043d 28bc 68a5 29be
000002e0: 77f6 d9bd 1eef 6d3b 8ba1 2c3b ea2d c7bf
000002f0: f804 92bd b02d 3bc0 f6aa f53d f03e 3ac0
00000300: 9c30 a9c0 57d4 5a3d 8bf9 eabf ef99 d7c0
00000310: 4969 c9bd 7703 7fc0 df45 ebba c047 9bbd
00000320: 66df 6c3d aab9 fbbf 7431 8fbd 30d7 013d
00000330: bb92 ccc0 7ec7 76c0 96b7 8cc0 7d22 06c0
00000340: 70ed 10bd 85e8 85c0 880b 1cbd e284 86bd
00000350: f433 0ac0 982c 31c0 1c51 1ac0 fc2f 8bc0
00000360: 3574 06c1 dc04 38bd 2bf3 ecbf 6e71 df3c
00000370: b07d 36c0 3fd5 5dc0 b320 49bd af4e 333c
00000380: 267b 57c0 0ce9 0abc 6f6e d3bf 8c28 37bd
00000390: 9768 2c3d 53e0 61c0 7c3d a3c0 bf67 50bd
000003a0: 2885 2ac0 5b9d 3d3c 38f1 8dbd 280f 94bc
000003b0: 3f66 6dbd b3a9 47bd cfa7 fac0 8788 18bd
000003c0: 18cc 16bd bcce 15c0 7c81 afbd 65a9 80bd
000003d0: 390c 06bc a090 24bd 3c04 6ebf 677f e3bf
000003e0: b002 07bd fcc8 08c0 2307 7abd 0839 9ebd
000003f0: f04d 2bbd e8db b4bf c0f2 2ec0 2c2a 93c0

q.4.weight f4 [10, 256]
-0.18476379 -0.7288341 -0.06335909 0.01742178 -0.43674967 -0.4970779 -0.062587135 0.0049804365
-0.35820925 -0.4929461 -0.6115214 -0.020796297 -0.065962434 -0.40642104 -0.021960378 -1.4854194
0.035862353 0.0026238933 -0.019705005 -0.020277476 -0.6236342 0.011555076 -0.4928394 -0.2423809
0.016389392 -0.05266673 -0.010478168 0.03263929 0.020175777 0.041826457 0.027643304 -0.07764405
-0.7465367 0.008396693 -0.60900617 -0.40205798 -0.10542472 -0.02046404 -0.68618935 -0.0541951
-0.3974678 -0.52278656 -0.71201724 -0.57227534 -0.057449963 -0.007887235 -0.3315141 -0.029448207
-0.46696505 -0.27717608 -0.2426947 -0.00870195 -2.316174 0.03656755 -0.02791365 0.05651141
-1.2670169 0.054298513 -0.040614035 -0.89233196 -0.8089415 -0.40190417 -0.05300086 -0.059543055
-0.020526698 -0.15664977 0.036240123 -2.573034 -0.07583548 -0.7901923 -0.6692783 0.030630428
-0.02236528 -1.0100653 -0.06421068 -0.6576244 0.0911971 -0.28475723 -0.00877085 -0.41159827
-0.04738952 0.020867115 0.040678337 0.018858008 -0.037870433 0.04217493 -1.1050997 -0.3539767
0.0029092068 -0.59682417 -0.1888583 -0.08385992 -0.010552078 -0.05510504 0.026747819 -0.09425243
0.0066701635 -0.4135515 -0.9948091 -0.32992327 -0.24258892 0.020517236 -0.28322122 0.064654365
-0.014500102 -0.27687213 0.03170152 -0.79326296 -0.01934213 0.032625694 -0.22978911 -0.5731921
-0.44246274 -0.5641822 -0.6055968 -0.26649198 -0.8020095 0.009850978 -0.29819092 -0.0046763793
0.007687298 -0.51276284 -0.25346226 -0.024583353 -0.09233898 0.008560127 -1.0203757 0.050222006
-0.12726907 -0.006165237 0.056134 -0.7767789 -0.33419153 -0.5486278 -0.026926372 0.027177311
0.012859541 -0.014949317 -0.0041196905 -0.050726555 -0.04100795 -0.4904427 0.0138603775 -1.2425994
-0.494956 -0.025426386 -0.054416753 0.050518088 0.042578083 -0.8528081 -0.52616847 -0.33581457
-0.9313265 0.014652669 0.018647589 -1.0073664 -0.24784248 -0.578212 0.013081289 0.04268336
0.04082474 -0.34082794 -0.7189755 -0.61610746 -0.32719812 -0.03836427 0.0069570667 0.021659493
-0.09381597 -0.33962747 -0.00055903965 -0.025612313 -1.4009986 -0.7058374 -0.41136998 -0.8699278
-0.52890587 0.04131409 -2.1430888 0.009020983 -0.79138434 -0.5573968 0.037261795 -0.10568608
-0.035257813 -0.05621093 0.032087833 0.06943379 0.048547126 -0.5029346 0.00936276 -0.472817
-0.37371656 -0.052815553 -0.38733146 -0.61801475 -0.98306346 -0.29833934 -0.030762453 0.015983492
-0.009746633 -0.6113318 -0.0009374418 0.024702597 -0.4597022 -0.42631707 -1.6023824 -0.39552468
-0.04856307 -0.39560634 -0.06446848 -0.014089334 -0.6208031 -0.44724482 -0.70761365 -0.7765047
-0.94421184 0.034339197 -0.28647387 0.0154138785 -0.24319687 -0.80261743 -0.029704183 -0.049643926
-0.93222064 -0.02881234 -0.57174724 0.01174549 0.017243154 -0.44408637 -0.1125205 0.025974177
-0.28948864 -0.04887881 -0.003994942 0.0046312585 0.03259652 0.016989497 -1.2614659 -0.2092836
0.029801626 -0.9780148 -0.007696043 0.056192107 0.0080900015 0.008866638 0.17970595 -0.7026152
0.017172521 -0.44933456 0.0037771384 -0.07870099 -0.05269917 -2.3911602 -0.359691 -0.5385653
00000000: b832 3dbe df94 3abf 69c2 81bd 1fb8 8e3c
00000010: a79d dfbe ff80 febe af2d 80bd ee32 a33b
00000020: 3467 b7be 6e63 fcbe ab8c 1cbf ff5c aabc
00000030: 5017 87bd 6b16 d0be 40e6 b3bc 3922 bebf
00000040: 67e4 123d a0f5 2b3b 646c a1bc f31c a6bc
00000050: 7ea6 1fbf 8051 3d3c 7255 fcbe b332 78be
00000060: 0c43 863c 12b9 57bd 9fac 2bbc c7b0 053d
00000070: ac47 a53c 3852 2b3d 3674 e23c d803 9fbd
00000080: 071d 3fbf 4892 093c d4e7 1bbf 8bda cdbe
00000090: eae8 d7bd 34a4 a7bc 1baa 2fbf aefb 5dbd
000000a0: e680 cbbe 57d5 05bf c346 36bf a380 12bf
000000b0: a750 6bbd 7639 01bc 37bc a9be 5e3d f1bc
000000c0: 0b16 efbe 06ea 8dbe f684 78be a092 0ebc
000000d0: 323c 14c0 dbc7 153d 2bab e4bc 8278 673d
000000e0: 9c2d a2bf 1e68 5e3d e75a 26bd de6f 64bf
000000f0: ca16 4fbf 62c6 cdbe 6e17 59bd 6be3 73bd
00000100: 9b27 a8bc cc68 20be 8670 143d 97ac 24c0
00000110: a24f 9bbd 0b4a 4abf d355 2bbf aaec fa3c
00000120: 6437 b7bc d249 81bf e480 83bd 135a 28bf
00000130: 8cc5 ba3d b3cb 91be 9cb3 0fbc 02bd d2be
00000140: 831b 42bd 83f1 aa3c 549e 263d 1c7c 9a3c
00000150: 071e 1bbd 9fbf 2c3d e873 8dbf 6f3c b5be
00000160: 64a8 3e3b 78c9 18bf 1264 41be c0be abbd
00000170: 9fe2 2cbc d3b5 61bd 3e1e db3c 6b07 c1bd
00000180: 6391 da3b 06bd d3be cfab 7ebf b4eb a8be
00000190: 3b69 78be c313 a83c 5f02 91be 8269 843d
000001a0: d691 6dbc 2fc2 8dbe 74d9 013d 4813 4bbf
000001b0: 6373 9ebc 85a2 053d d64d 6bbe b8bc 12bf
000001c0: 7a8a e2be 3f6e 10bf 6408 1bbf a371 88be
000001d0: 7f50 4dbf ff65 213c 7bac 98be 503c 99bb
000001e0: bbe5 fb3b 6d44 03bf cec5 81be 0763 c9bc
000001f0: 381c bdbd c63f 0c3c ac9b 82bf 97b5 4d3d
00000200: d352 02be c205 cabb c4ec 653d fbda 46bf
00000210: 271b abbe df72 0cbf b294 dcbc f4a2 de3c
00000220: d3b0 523c fbed 74bc 78fe 86bb a6c6 4fbd
00000230: f4f7 27bd 4e1b fbbe a316 633c 7f0d 9fbf
00000240: df6a fdbe ff4a d0bc 1ae4 5ebd 0eec 4e3d
00000250: 5b66 2e3d a251 5abf fab2 06bf e3ef abbe
00000260: 6a6b 6ebf c011 703c d4c2 983c 62f1 80bf
00000270: 6bca 7dbe b405 14bf e752 563c bfd4 2e3d
00000280: d837 273d 0081 aebe c70e 38bf 38b9 1dbf
00000290: 8386 a7be da23 1dbd 1bf8 e33b 406f b13c
000002a0: 9622 c0bd a7e3 adbe 848c 12ba ead0 d1bc
000002b0: ec53 b3bf c3b1 34bf 169f d2be 97b3 5ebf
000002c0: 6066 07bf f738 293d 5e28 09c0 bfcc 133c
000002d0: 2a98 4abf 8fb1 0ebf d39f 183d f271 d8bd
000002e0: 7f6a 10bd 6f3d 66bd 886e 033d 4e33 8e3d
000002f0: 5ad9 463d 52c0 00bf 4366 193c 1215 f2be
00000300: c757 bfbe 1f55 58bd 4f50 c6be 3736 1ebf
00000310: 0caa 7bbf efbf 98be 8a01 fcbc d0ef 823c
00000320: 57b0 1fbc 3e80 1cbf a7be 75ba 1a5d ca3c
00000330: 165e ebbe 3b46 dabe de1a cdbf 3682 cabe
00000340: 12ea 46bd ea8c cabe 0d08 84bd f3d6 66bc
00000350: f4ec 1ebf 46fd e4be 2b26 35bf 03c9 46bf
00000360: deb7 71bf 42a7 0c3d b4ac 92be 7e8a 7c3c
00000370: 9a08 79be 5678 4dbf 3056 f3bc 6e57 4bbd
00000380: 03a6 6ebf db07 ecbc 075e 12bf 2870 403c
00000390: 8441 8d3c 4a5f e3be 2671 e6bd ccc7 d43c
000003a0: db37 94be 2635 48bd 01e8 82bb d0c1 973b
000003b0: ee83 053d 8f2d 8b3c b777 a1bf 714e 56be
000003c0: 8a22 f43c 2e5f 7abf 162f fcbb b229 663d
000003d0: ed8b 043c 6045 113c d604 383e 97de 33bf
000003e0: 63ad 8c3c 2e0f e6be de89 773b fc2d a1bd
000003f0: 16db 57bd c508 19c0 6b29 b8be 6adf 09bf

q.4.bias f4 [10]
13.456232 1.2834735 4.976083 8.489463 6.394101 13.84159 5.8016753 6.6815367
21.945831 8.558375
00000000: ba4c 5741 dc48 a43f 123c 9f40 d7d4 0741
00000010: 7a9c cc40 2777 5d41 53a7 b940 26cf d540
00000020: 1091 af41 1bef 0841
