task4/task3_experiment_2_b_target_q1.pt (torch, 281951 bytes, 6 tensors)

q.0.weight f4 [256, 5]
0	0xbd8c2b8b	-0.06844243
1	0x3ec06bb6	0.37582177
2	0xbea6c612	-0.3257299
3	0x3dcd83f0	0.10034931
4	0x3db08080	0.086182594
5	0xb95be6df	-0.00020971474
6	0x3b0df638	0.002166165
7	0xbb33becb	-0.0027426954
8	0x3b08d913	0.002088134
9	0x3e8e308c	0.27771413
10	0xbe30dad4	-0.17270976
11	0xbe07b3af	-0.13252138
12	0xbdf84063	-0.12121656
13	0xbd33a304	-0.043856636
14	0x3e86c1b2	0.26319653
15	0x3c20d167	0.00981555
16	0x38858c37	6.368051e-05
17	0x3ca49a63	0.020093149
18	0xbb16b87c	-0.0022998145
19	0x3da5638f	0.0807563
20	0xb92b1e0c	-0.00016319024
21	0x3a82b27d	0.0009971407
22	0xbabff60f	-0.0014645475
23	0x3a3abfc3	0.00071239116
24	0x3eba930a	0.36440307
25	0x38392df7	4.4150245e-05
26	0xbac560da	-0.0015058771
27	0xb9931e23	-0.00028060479
28	0xba3a951c	-0.0007117556
29	0xbe1fee36	-0.15618214
30	0x3dc9cd4d	0.09853611
31	0x3e060063	0.13086085
32	0xbe66e325	-0.22547586
33	0xbd264226	-0.040590428
34	0x3e4948c6	0.19656667
35	0x3ac3e8c2	0.0014946687
36	0xb914f5c6	-0.00014205938
37	0x3b895e97	0.004192184
38	0x37ae8c90	2.080787e-05
39	0x3ed2827e	0.41115183
40	0x3dfa656e	0.122263774
41	0x3c8ddb1b	0.017316392
42	0xbda479cf	-0.08031046
43	0x3c0c7718	0.008573316
44	0x3ea20126	0.316415
45	0x3cccc79e	0.024997529
46	0x3d37df33	0.044890594
47	0x3d15d1b3	0.036576938
48	0x3d36de8f	0.044645842
49	0x3cd4681e	0.025928553
50	0xbb0dc7f5	-0.0021634076
51	0xbd561d79	-0.0522742
52	0x3ca8f921	0.020626606
53	0xbd99084c	-0.07472286
54	0x3eb92466	0.36160582
55	0x3e16d27c	0.14728731
56	0xbe96d13e	-0.29456514
57	0xbe691ccc	-0.22764891
58	0xbd7c4ed2	-0.061598606
59	0x3ee35e82	0.4440804
60	0x3f6fbc92	0.9364711
61	0xbed37d4c	-0.4130653
62	0xbeb40702	-0.35161597
63	0x3ecf3d40	0.40476418
64	0xbdc891c4	-0.097934276
65	0x3c9d1fdc	0.01918023
66	0xbdeea8e6	-0.116533086
67	0x3d9dc6a7	0.077039056
68	0xbdbbb563	-0.09165456
69	0x3ecf6c42	0.40512282
70	0xbd8aef4b	-0.06783923
71	0xbe5c8846	-0.21536359
72	0xbd845a0c	-0.064624876
73	0xbe5054ae	-0.20344803
74	0x3d2a3c78	0.041561574
75	0x3e3635d4	0.17793971
76	0xbe34892a	-0.17630449
77	0x3d7950c0	0.060868025
78	0xbb42567e	-0.0029653604
79	0xbd957a80	-0.07298756
80	0xbc76203a	-0.015022332
81	0xbd039d22	-0.032132275
82	0xbcbcd367	-0.023050023
83	0xbd355c8b	-0.04427771
84	0xbeced08e	-0.4039349
85	0xbdecf672	-0.11570443
86	0xbe637fca	-0.22216716
87	0xbddd0712	-0.10792364
88	0xbe51864e	-0.2046139
89	0x3e9a07b0	0.3008399
90	0xbce0feda	-0.027465273
91	0xbcaf5d8b	-0.02140691
92	0xbd374bc7	-0.04475
93	0xbd1e7813	-0.03868873
94	0xbe94b3b7	-0.29043362
95	0xbe097ada	-0.1342577
96	0xbcd024fe	-0.025408264
97	0xbf0a3b50	-0.53996754
98	0xbc8e77da	-0.017391134
99	0x3ddb9b30	0.10722959
100	0xba2365df	-0.00062331365
101	0xbac318f2	-0.0014884754
102	0xbacfea1e	-0.0015862619
103	0xbb4efc12	-0.003158335
104	0xbe932614	-0.2873999
105	0xbb01c0b2	-0.0019798693
106	0xbae1e4db	-0.0017234342
107	0xbb40271e	-0.002932019
108	0xba8ba58f	-0.0010654199
109	0xbec9f21c	-0.39442527
110	0xbf90bca2	-1.1307566
111	0xbeb5c4eb	-0.355018
112	0x3e97fc92	0.29684883
113	0x3e386e5b	0.18010847
114	0xbe251d1a	-0.16124383
115	0xbb100d74	-0.0021980675
116	0xb9fc6d83	-0.00048146778
117	0x3ba2dfe4	0.0049705375
118	0x3a95be40	0.0011424497
119	0xbec13168	-0.37733006
120	0x3a4123ee	0.00073677197
121	0x3a2485c4	0.0006276036
122	0xbafbea92	-0.0019219688
123	0xbb55fde6	-0.0032652556
124	0x3d9aa03f	0.07550096
125	0x3b006f9e	0.001959778
126	0xb9560962	-0.00020412126
127	0x3ad2f6aa	0.001609524
128	0xb98f5370	-0.0002733725
129	0xbd323f60	-0.04351747
130	0x39aacbdc	0.00032576814
131	0x3b283e1b	0.0025671783
132	0xba85569f	-0.001017291
133	0x3af066b0	0.001834115
134	0x3dc6a110	0.09698689
135	0x3f04e6df	0.5191478
136	0xbe4c19d2	-0.19931725
137	0xbe27a9f1	-0.16373421
138	0x3d2aca40	0.041696787
139	0x3e977fae	0.295896
140	0xbdd4811c	-0.10376188
141	0xbd9dd7e6	-0.07707195
142	0xbe528686	-0.20559129
143	0xbd2cf482	-0.04222537
144	0x3e902fb6	0.281614
145	0xba127078	-0.0005586217
146	0x3a8b8f23	0.0010647516
147	0xbb0270fa	-0.0019903765
148	0xb9da3e1a	-0.0004162647
149	0xbd858c14	-0.065208584
150	0xbabf38b0	-0.0014589038
151	0x3b1dfd58	0.0024107303
152	0xbac771d6	-0.0015216421
153	0x3a3b64eb	0.0007148522
154	0xbeab2c5d	-0.33432284
155	0xbac70a8f	-0.0015185642
156	0x3b16b458	0.0022995677
157	0x399c9133	0.0002986282
158	0x3ae6bf1f	0.0017604566
159	0xbee23fca	-0.44189292
160	0x3a3f57b4	0.00072991406
161	0xbaa29597	-0.00124042
162	0x3b1350c3	0.0022478558
163	0xbb009426	-0.0019619553
164	0xbeb7b89f	-0.35883042
165	0xbe2ae31c	-0.16688198
166	0xbe660b46	-0.22465238
167	0xbea296c1	-0.3175564
168	0xbead32c8	-0.33827806
169	0x3eaf8792	0.3428312
170	0xbda024cf	-0.07819521
171	0xbd4cc8d1	-0.0499962
172	0x3d447727	0.047965195
173	0x3d86bef8	0.06579393
174	0x3e8c379a	0.2738617
175	0x3d7aa9de	0.061197154
176	0xbb1a01bc	-0.002349957
177	0x3d9e4da7	0.07729655
178	0xbc15143f	-0.009099065
179	0xbeb42363	-0.35183248
180	0x3daa4bf4	0.08315268
181	0x3c0a9d28	0.0084603205
182	0x3d417024	0.047226086
183	0x3e38628b	0.18006341
184	0x3e7a1d8c	0.24425334
185	0x3af66586	0.0018798567
186	0x3984bc7b	0.0002531743
187	0x3a69c92b	0.0008918221
188	0x3a5efac2	0.0008505994
189	0xbd389e40	-0.045072794
190	0xbb98cf67	-0.004663396
191	0x3b884b5b	0.0041593737
192	0x3b0e0c53	0.0021674826
193	0x3a1985ac	0.00058564055
194	0x3d911c4f	0.070854776
195	0x3d264093	0.040588927
196	0x3b8fc8b4	0.0043879393
197	0x3ce94bb3	0.028478479
198	0x3bde8d9e	0.0067917844
199	0x3d44ea2e	0.048074894
200	0xbe522ee9	-0.20525707
201	0xbf0c9e51	-0.5492907
202	0xbf893418	-1.0719023
203	0xbeeb3cdf	-0.45944878
204	0x3e10cc5c	0.14140457
205	0xbd91f425	-0.07126645
206	0xbe660572	-0.22463015
207	0x3dd7d0d1	0.105378754
208	0xbf256cbe	-0.6461905
209	0xbe93136a	-0.2872575
210	0x3b85668e	0.0040710634
211	0xb8d8b2b7	-0.00010332971
212	0x3b0d13cf	0.00215267
213	0xbb7ad026	-0.0038271039
214	0xbe68a92a	-0.22720781
215	0xbe0052c2	-0.1253157
216	0xbe3be2d8	-0.18348253
217	0xbeab19a8	-0.33418012
218	0xbe92ca61	-0.28670028
219	0x3eb5bc30	0.35495138
220	0xbe4d5a8d	-0.20054074
221	0x3f2f916e	0.68581283
222	0xbec55615	-0.38542238
223	0x3ee04c66	0.43808287
224	0x3df2d7f8	0.11857599
225	0x3e5363a7	0.20643483
226	0x3c2bc26c	0.0104833655
227	0x3d1d8c62	0.038463958
228	0x3e60f67a	0.21969023
229	0xbe815390	-0.25259066
230	0xbb67d44e	-0.0035374346
231	0xbb453eca	-0.003009724
232	0xbabec9e8	-0.0014556022
233	0xbb16ca4b	-0.002300876
234	0x3e28ae04	0.16472632
235	0xbcf63e62	-0.030059043
236	0xbe57e17e	-0.21082112
237	0xbd9416e3	-0.07230928
238	0xbe5ee50a	-0.21767059
239	0x3e597d5c	0.21239227
240	0xbd7a1366	-0.061053656
241	0x3d076930	0.0330593
242	0x3d3cb8af	0.046074566
243	0x3e2039af	0.15647005
244	0xbe5c448a	-0.2151052
245	0xbea058e8	-0.3131783
246	0xbf11c982	-0.569481
247	0xbd7afcd0	-0.061276257
248	0xbdfde95d	-0.12398026
249	0x3e8dcd9a	0.27695924
250	0x3b23df97	0.0025005096
251	0xba140b7c	-0.0005647463
252	0x3b392c03	0.0028254993
253	0xba948d67	-0.0011333645
254	0x3eb4a5ca	0.35282737
255	0x3eb8e77c	0.3611411

q.0.bias f4 [256]
0	0xbedc3957	-0.43012497
1	0xbb217d34	-0.0024641277
2	0x3d3e8e10	0.0465222
3	0xbc41c633	-0.0118270395
4	0xbae5f61b	-0.0017544659
5	0xbaba7ac8	-0.0014227265
6	0x3d470ba8	0.0485951
7	0xbb11e0cc	-0.0022259234
8	0xbde0cfab	-0.109771095
9	0xbd4eae6b	-0.050459307
10	0x3cb19f22	0.021682326
11	0x3e981c5f	0.29709145
12	0x3f5f0a15	0.8712476
13	0xbdbbd864	-0.091721326
14	0xbe13a768	-0.14419329
15	0xbe9aec39	-0.3025835
16	0xbce4c9f3	-0.027928328
17	0xbe2d82a0	-0.1694436
18	0xbd4b45d7	-0.04962715
19	0x3d22caf7	0.039744344
20	0xbb03af57	-0.0020093524
21	0xbb5f60df	-0.003408484
22	0x3f8930f9	1.071807
23	0xbbaac0c4	-0.0052109677
24	0xbba77874	-0.0051107947
25	0xba92af98	-0.0011191247
26	0xbb1177e0	-0.0022196695
27	0x3eb473f5	0.35244718
28	0xbd2a8f74	-0.041640714
29	0xbaead27b	-0.0017915511
30	0xbb15fdd8	-0.0022886898
31	0xbb44f303	-0.0030052073
32	0xbb23fdc0	-0.0025023073
33	0x3cde760a	0.027155895
34	0x3d0c57ff	0.034263607
35	0xbd324b64	-0.04352893
36	0x3c10ee8b	0.008845936
37	0xbacf3557	-0.0015808743
38	0xbbbf0ae8	-0.0058301575
39	0xbce1bafb	-0.02755498
40	0x3c449daa	0.012000481
41	0xbda9b904	-0.08287242
42	0xbb917ec0	-0.0044401586
43	0xbed648cc	-0.41852415
44	0xbd489b3f	-0.04897618
45	0x3de7a94a	0.11311586
46	0xbb74d9bf	-0.0037361232
47	0xbe173a68	-0.14768374
48	0xbe08e058	-0.1336683
49	0x3df887a4	0.121352464
50	0xbb0e7158	-0.0021735039
51	0xbecaabcd	-0.395842
52	0xbd035638	-0.032064646
53	0x3d2b8473	0.04187436
54	0xbb1a101c	-0.0023508137
55	0xbb062f57	-0.0020474994
56	0xbc26caa7	-0.010180152
57	0xbececba2	-0.40389735
58	0xbb393dd4	-0.0028265612
59	0x3f2ff932	0.68739617
60	0xbb3ead8c	-0.0029095141
61	0xbda39a60	-0.07988429
62	0xbd5c8743	-0.053839933
63	0xbdccd96f	-0.1000241
64	0x3cdcf0c1	0.02697027
65	0xbecad6bb	-0.3961695
66	0xbafc55d7	-0.0019251656
67	0x3c69b9b6	0.014265468
68	0x3f0c22b2	0.5474044
69	0xbadc76ef	-0.0016820113
70	0x3d6e7cca	0.058224477
71	0xbebdffe0	-0.3710928
72	0x3b932529	0.004490514
73	0xbee3666a	-0.44414073
74	0xbae8badb	-0.0017755883
75	0xbb2b8f18	-0.002617782
76	0xbbfa9921	-0.007647649
77	0xbdb72e68	-0.08944398
78	0xbd3f2438	-0.0466654
79	0xbda873f0	-0.08225238
80	0xbea0ba60	-0.31392193
81	0xbab39d0c	-0.001370342
82	0xbaaedd30	-0.0013341065
83	0xbd026219	-0.031831834
84	0x3f0635ac	0.52425647
85	0xbebcd3a3	-0.36880216
86	0x3e892a6f	0.26790187
87	0xbb0b138c	-0.0021221368
88	0xbe13c07c	-0.14428896
89	0xbb198ae8	-0.0023428742
90	0xbda7b80c	-0.08189401
91	0xbd0ae1a5	-0.033906598
92	0xbebe62c0	-0.37184715
93	0xbed273e3	-0.4110404
94	0xbb8b6a1c	-0.0042545926
95	0xbe73708e	-0.23773405
96	0xbb166980	-0.0022951066
97	0xbd43814f	-0.04773074
98	0xbeb143a1	-0.3462191
99	0xbd773ceb	-0.06036083
100	0xbec593a2	-0.38589197
101	0xbe8f8bd8	-0.2803638
102	0x3cedddd1	0.029036434
103	0xbddc8eeb	-0.10769447
104	0x3d9ce144	0.076601535
105	0xbe1df740	-0.1542635
106	0x3e828db8	0.25498748
107	0xbb1e486c	-0.0024152054
108	0x3ee2a466	0.4426605
109	0xbdf930c3	-0.12167504
110	0xbb065527	-0.0020497532
111	0xbb2e7c14	-0.002662425
112	0xbec024f2	-0.37528187
113	0xbb2e9578	-0.0026639383
114	0xbeb87fe6	-0.3603508
115	0x3e014f38	0.12627876
116	0x3d9fdd48	0.07805878
117	0xbe176740	-0.1478548
118	0xbb287d64	-0.0025709504
119	0x3e02a155	0.12756856
120	0xbb0152e4	-0.0019733245
121	0x3ed96db9	0.42466524
122	0x3ccb47da	0.024814535
123	0x3f99534a	1.1978543
124	0xbdc3d12b	-0.0956138
125	0x3d02457a	0.03180454
126	0xbad40b4f	-0.0016177687
127	0xbd7ff15b	-0.062486034
128	0x3d8cb577	0.06870549
129	0x3ebe527b	0.37172303
130	0xbed7778e	-0.420834
131	0xbe39a850	-0.18130612
132	0xbb5762db	-0.003286532
133	0xbaf6718f	-0.0018802154
134	0xbe941d79	-0.28928736
135	0x3d871bdf	0.06597113
136	0xbb788a97	-0.0037924403
137	0xbce82553	-0.02833811
138	0xbace73bf	-0.0015751048
139	0xbaa72cac	-0.0012754402
140	0xbe7577ba	-0.23971453
141	0xbe8507f5	-0.25982633
142	0xbe7b053d	-0.24513717
143	0xbe053ceb	-0.1301152
144	0xbe9cb9e6	-0.3061058
145	0xbc50bbbb	-0.012740071
146	0xbb00b06e	-0.001963641
147	0xbb5f8a5b	-0.0034109566
148	0x3e74d531	0.23909451
149	0x3c885d3a	0.016646016
150	0xbdeeb0f3	-0.11654844
151	0x3ee04c44	0.43808186
152	0x3f88f571	1.0699903
153	0xba6fb1ab	-0.0009143601
154	0x3e31e0e6	0.17370948
155	0xbc1aa7d4	-0.009439427
156	0x3ebdc9f2	0.37068135
157	0x3de8ffe0	0.11376929
158	0xbb771473	-0.0037701398
159	0xbdeb4053	-0.11486878
160	0xbdecf5fb	-0.115703546
161	0xbb944b78	-0.004525598
162	0xbaf494af	-0.0018660034
163	0xbd0fe3a8	-0.03512922
164	0xbc7a6048	-0.015281744
165	0xbb5164f3	-0.003195104
166	0xbafb3a3f	-0.0019167139
167	0xbab0a9f8	-0.0013478389
168	0x3e62a572	0.22133425
169	0xbb239d58	-0.002496561
170	0xbe279480	-0.16365242
171	0xbc397acf	-0.011320784
172	0x3bffe7ce	0.0078096157
173	0xbb0723bc	-0.0020620665
174	0xbeb853ec	-0.36001527
175	0xbda992e4	-0.0827997
176	0xbed328d1	-0.41242078
177	0xbb02a28d	-0.0019933314
178	0xbb848d0e	-0.0040451353
179	0xbe2a6654	-0.16640598
180	0xbde615d3	-0.112346314
181	0xbc840583	-0.01611591
182	0xba7f589f	-0.00097406836
183	0xbba01a48	-0.0048859455
184	0xbc3b11ac	-0.0114177875
185	0xbe84e435	-0.25955358
186	0xbcfa4f74	-0.030555464
187	0xbafd9203	-0.0019345883
188	0xbead9510	-0.33902788
189	0xbda09914	-0.07841697
190	0x3f8984af	1.0743617
191	0xbd60494b	-0.054757398
192	0xbb08abec	-0.0020854427
193	0xbec5414a	-0.38526374
194	0x3e761614	0.2403186
195	0xbae2889b	-0.0017283143
196	0xbe2ed2f4	-0.1707266
197	0xbe1a836c	-0.15089196
198	0xbaab195c	-0.0013053822
199	0x3e9f0805	0.31060806
200	0x3da3def3	0.080015086
201	0xbb4748d3	-0.0030408397
202	0xbee253d0	-0.4420457
203	0x3e395c63	0.18101649
204	0xbb7c54fb	-0.00385028
205	0x3e2325be	0.15932366
206	0x3dabaf68	0.083830655
207	0xbd8a8d7c	-0.06765267
208	0xbeb1b90f	-0.347115
209	0xbbef8242	-0.007309229
210	0xbe20eef0	-0.15716147
211	0xbab1d3dc	-0.0013567167
212	0xbd8cb3a4	-0.06870201
213	0xbe483e37	-0.19554983
214	0xbb9181e0	-0.004440531
215	0xbc0d80a4	-0.008636627
216	0x3eb71947	0.35761473
217	0x3c515dbe	0.012778698
218	0xbb16db90	-0.0023019053
219	0xbb21e4e0	-0.002470307
220	0xbd0fd494	-0.03511484
221	0x3d7ac81c	0.061225995
222	0xbb363cb0	-0.0027807169
223	0xbdd7c5eb	-0.10535797
224	0xbcbf8054	-0.023376621
225	0x3e573c28	0.21019042
226	0xbe8a9dde	-0.27073568
227	0x3ce2116f	0.027596204
228	0x3e430aac	0.1904704
229	0xbc46c8a9	-0.012132802
230	0xbe9eecde	-0.3104009
231	0x3ef90a6d	0.48640767
232	0xbe32e628	-0.1747061
233	0x3eb1a418	0.34695506
234	0xbad4a23f	-0.001622267
235	0x3ca37e22	0.019957606
236	0xbd98d7ec	-0.07463059
237	0xbb16b6d8	-0.0022997167
238	0xbda4b814	-0.080429226
239	0xbdcb810f	-0.09936725
240	0xbabba1c8	-0.0014315182
241	0x3e7233c3	0.23652558
242	0x3ea806a4	0.32817566
243	0x3e18da38	0.14926994
244	0x3dcc8511	0.09986318
245	0x3f82685e	1.01881
246	0xbdd452f3	-0.10367384
247	0xbec9b41f	-0.39395234
248	0xbe84902f	-0.25891253
249	0xbd59eaab	-0.053202312
250	0x3c80f620	0.015742362
251	0xbaef265f	-0.0018245688
252	0xbd6e5e23	-0.058195245
253	0x3dfa5c72	0.12224664
254	0x3f322fa9	0.69603974
255	0x3caf69be	0.021412726

q.2.weight f4 [256, 256]
0	0x3c94199f	0.018078623
1	0x3cd9ee2e	0.02660283
2	0x3c59711a	0.013271594
3	0x3d4017ce	0.046897702
4	0xbd13eed0	-0.03611642
5	0x3cd8c472	0.02646086
6	0x3cb0c95f	0.021580396
7	0x3b969440	0.0045953095
8	0xbc94121f	-0.018075047
9	0xbd6386e7	-0.055548575
10	0xbd12dfb8	-0.035857886
11	0xbb37463c	-0.0027965447
12	0x3bfbfb86	0.007689896
13	0xbd676613	-0.05649383
14	0x3c77e5d2	0.015130477
15	0xbd25cc84	-0.040478244
16	0x3d3eafa7	0.046554234
17	0xb9d37f13	-0.00040339734
18	0xbd6c8657	-0.057745304
19	0xbd021b51	-0.031764332
20	0xbd61c2b7	-0.055117335
21	0xbd89d6e8	-0.06730443
22	0x3d0a2b6f	0.033732828
23	0xbce062d7	-0.02739088
24	0x3c7c6026	0.015403783
25	0x3d4913a6	0.049091004
26	0x3c5d3476	0.013501277
27	0xbd339f14	-0.04385288
28	0x3c1a0413	0.009400385
29	0xbbd9aebf	-0.006643146
30	0xbc2d8fe8	-0.010593392
31	0xbbc28253	-0.005935946
32	0x3d3e624f	0.046480473
33	0xbd61ed4b	-0.05515794
34	0xbc854e25	-0.016272614
35	0xbc14cb0c	-0.009081613
36	0x3cab80f3	0.020935511
37	0xbad0cf2f	-0.0015930886
38	0xbd4ded0f	-0.050274905
39	0xbc9773a0	-0.018487751
40	0xbc53376f	-0.012891634
41	0x3cbc1fb7	0.022964342
42	0xbcb65cf4	-0.02226112
43	0x3d4b71ee	0.0496692
44	0x3d0fd4e3	0.035115134
45	0xbd07c718	-0.033148855
46	0xbd761253	-0.06007607
47	0xbcf20307	-0.02954246
48	0xbd023470	-0.03178829
49	0x3d214a07	0.03937724
50	0x3c721d46	0.014777487
51	0xbca1a490	-0.01973179
52	0xbd2fa184	-0.042878643
53	0xbd99f17c	-0.075167626
54	0xbc7b637f	-0.015343546
55	0xbd752023	-0.0598451
56	0x3cf03242	0.02932084
57	0xbd2aa87e	-0.041664593
58	0x3cd2c4aa	0.025728542
59	0xbd9b71f0	-0.07590091
60	0x3b79980a	0.0038085007
61	0xbcad364c	-0.021144055
62	0x3d6ce542	0.057835825
63	0xbab3e384	-0.0013724421
64	0xbda2d454	-0.079506546
65	0x3c920008	0.01782228
66	0x3c265d67	0.010154105
67	0xbca78904	-0.020451076
68	0x39b14803	0.00033813724
69	0x3d6e653e	0.05820202
70	0x3ca6b13b	0.020348182
71	0xbb1bdf9f	-0.0023784412
72	0x3ca1c7a6	0.01974852
73	0xbc1544c0	-0.00911063
74	0x3cdbfa8c	0.026852868
75	0xbd861cdc	-0.06548473
76	0xbd40e8f3	-0.047097158
77	0xbca8f014	-0.02062229
78	0x3c01042c	0.00787453
79	0x3d40ca3e	0.047067873
80	0x3d77d34c	0.060504243
81	0xbd7b5367	-0.061358836
82	0xbd2943c2	-0.041324385
83	0xbc56ae3b	-0.013103063
84	0x3a30a01f	0.0006737727
85	0xbd0fd1cc	-0.035112187
86	0xbbfb9813	-0.007678041
87	0x3ce23a66	0.027615737
88	0xbb2fb444	-0.0026810328
89	0x3d571dca	0.052518643
90	0xbbb2abb8	-0.0054525994
91	0xbcc79027	-0.02436073
92	0xbd5b368e	-0.053518824
93	0x3c0bd778	0.0085352585
94	0xbc85c640	-0.016329885
95	0x3d3e24ba	0.046421744
96	0x3d626202	0.05526925
97	0xbcd040c3	-0.025421506
98	0xbd715b0c	-0.05892472
99	0xbd555667	-0.052084353
100	0x3d1c5378	0.03816554
101	0x3d16187b	0.03664444
102	0xbda06dcc	-0.07833442
103	0xb8f28e53	-0.00011565969
104	0xbd7f600b	-0.062347453
105	0xbd2c57b8	-0.042075843
106	0xbd5b480b	-0.053535502
107	0xbd6e4b2c	-0.05817716
108	0xbd80c25b	-0.0628707
109	0xbd394a40	-0.045236826
110	0x3b193ae7	0.0023381056
111	0xbd2fb8ba	-0.04290078
112	0x3c51f8a0	0.0128156245
113	0x3d44db92	0.04806096
114	0xbca3a328	-0.01997526
115	0xbd9b182c	-0.0757297
116	0xbd98b99c	-0.07457277
117	0xbd808d9f	-0.06277012
118	0x3c8cacff	0.017172335
119	0xbceb818f	-0.028748302
120	0xba9ce3a0	-0.0011969693
121	0x3cf8b52a	0.030359823
122	0xbc9041b8	-0.017609462
123	0x3cb19443	0.021677142
124	0x3a8fdea7	0.001097639
125	0xbc5b9423	-0.013402018
126	0x3cf8324e	0.030297425
127	0x3d490262	0.049074538
128	0xbbfff593	-0.007811257
129	0xbd045afb	-0.03231333
130	0x3ccf91ac	0.025338016
131	0xbd656ceb	-0.056012075
132	0xbd6266b3	-0.055273723
133	0x3d140b67	0.036143687
134	0x3a92b4bf	0.0011192783
135	0x3cec0852	0.028812561
136	0x3d0bfce7	0.034176733
137	0x3ce62bc6	0.028097045
138	0xbca0cfec	-0.019630395
139	0x3d5e85c4	0.054326788
140	0xbc980cb4	-0.018560745
141	0x3d2cdd02	0.042202957
142	0x3d42e702	0.047583587
143	0xbc18c2fc	-0.009323832
144	0x3d77eb0c	0.060526893
145	0xbd7d67ab	-0.061866444
146	0x3ccea60e	0.025225665
147	0xbc94b3ec	-0.0181522
148	0xbd76c4af	-0.060246166
149	0x3cad7403	0.021173483
150	0x3d45ea6e	0.048319273
151	0xbd2cae0c	-0.04215817
152	0xbb3ed44c	-0.0029118238
153	0x3d1207db	0.035652023
154	0xbafd099b	-0.0019305231
155	0x3c6062ae	0.013695402
156	0xbd8bcae8	-0.06825811
157	0xbd94cd78	-0.072657526
158	0xbd7cf267	-0.06175461
159	0xbd01800b	-0.031616252
160	0xbcc44c84	-0.023962267
161	0x3d4e5122	0.050370343
162	0x3c984da3	0.018591708
163	0x3c48683e	0.0122318845
164	0xbcd7bea7	-0.026336027
165	0xbd46b228	-0.048509747
166	0xbd468727	-0.048468735
167	0xbcbad1e4	-0.022805162
168	0xbd2b9fd0	-0.041900456
169	0x3d2d193b	0.04226039
170	0xbd7d2827	-0.06180587
171	0xbca02bc7	-0.019552125
172	0xbd115ea4	-0.035490647
173	0x3cdc9e26	0.02693088
174	0xbd31d24a	-0.043413438
175	0xbd015ee1	-0.031584624
176	0x3cce3d84	0.025175817
177	0x3d39953f	0.045308348
178	0xbd4f9cfe	-0.05068683
179	0xbd24b724	-0.04021372
180	0xbd2e3204	-0.042528167
181	0x3cf01bea	0.029310185
182	0xbca7f574	-0.020502783
183	0x3d3cfe23	0.0461408
184	0xbd0d4f6c	-0.03449957
185	0x3d490032	0.049072452
186	0xbd90d240	-0.07071352
187	0xba908ba0	-0.001102794
188	0x3c8f248f	0.017473487
189	0x3be47bfa	0.006972787
190	0x3cb3abbb	0.021932473
191	0xbc7b5a33	-0.015341329
192	0xbc1939d0	-0.0093521625
193	0x3b5d64be	0.003378197
194	0x3cdc7342	0.026910428
195	0xbce35b9f	-0.02775365
196	0xbd76da17	-0.06026658
197	0xbd7f7a10	-0.062372267
198	0xbbc8606f	-0.0061150114
199	0xbd0a9178	-0.033830136
200	0x3c7f4692	0.01558079
201	0xbbf522b6	-0.0074809445
202	0x3d14a02c	0.036285564
203	0xbccc4603	-0.024935728
204	0x3d5ef162	0.05442942
205	0xbd840f3d	-0.06448219
206	0xbd1b7d6c	-0.03796141
207	0xbd4dd257	-0.050249424
208	0xbc88cc2c	-0.01669892
209	0xbcb7d214	-0.02243904
210	0xbc9daa38	-0.019246206
211	0xbc9ccd28	-0.019140795
212	0xbd883ab8	-0.06651825
213	0x3d125a33	0.035730552
214	0xbd0232f3	-0.03178687
215	0x3d5f2ea2	0.054487832
216	0xbaf71d1f	-0.0018853283
217	0xbc5bc05b	-0.01341256
218	0x3c1aa7d3	0.0094394265
219	0xbd7b046b	-0.06128351
220	0x3d1860b3	0.037201595
221	0x3d0c14bb	0.034199458
222	0x3d04f1e0	0.032457232
223	0xbcf96b84	-0.030446775
224	0xbc9196a8	-0.017772034
225	0xbd366208	-0.044527084
226	0x3c856f88	0.016288534
227	0xbd799897	-0.060936537
228	0xbd8d113c	-0.06888053
229	0xbd9d8eb8	-0.07693237
230	0xbb995570	-0.0046793744
231	0xbd755edf	-0.05990493
232	0x3ba2d51c	0.0049692523
233	0x3b5792fa	0.0032894001
234	0xbd05ed53	-0.032697033
235	0x3b0ce61b	0.0021499458
236	0xbd67bdcf	-0.0565775
237	0xbd04223e	-0.03225922
238	0xbd37ff00	-0.04492092
239	0x3cbfa32b	0.023393234
240	0x3d5b73a2	0.053577073
241	0x3c9ff0cb	0.019523999
242	0xbd60fe77	-0.054930177
243	0xbd56a8d7	-0.052407112
244	0x3cbea0cf	0.023270039
245	0xbd540d6b	-0.05177061
246	0xbc48291f	-0.012216835
247	0xbd03c89c	-0.032173738
248	0xbd0e6a4c	-0.03476934
249	0xbd5ffb42	-0.054682977
250	0xbc8db2b8	-0.017297134
251	0xbd0b0e00	-0.0339489
252	0x3c47a7fa	0.012186045
253	0xbd77aaeb	-0.060465734
254	0x3d1b1d2b	0.037869614
255	0xbd8f96f0	-0.07011211

q.2.bias f4 [256]
0	0xbc85ccc9	-0.016333
1	0xbd92a2c8	-0.07159954
2	0xbd2b35cc	-0.04179935
3	0xbd6f4d33	-0.058423232
4	0xc080b83d	-4.02249
5	0x3eb17b7c	0.34664524
6	0xc03209c4	-2.781846
7	0xc007d2d0	-2.122242
8	0x3cc123ee	0.023576703
9	0x3d26d4c7	0.040730264
10	0xc03b4a70	-2.9264183
11	0xc052867b	-3.289458
12	0xc08d9143	-4.423982
13	0xbe1fccdc	-0.15605491
14	0xc00a7724	-2.1635218
15	0x3e65f8ea	0.22458234
16	0xbce07baf	-0.027402727
17	0xbf916fa2	-1.1362193
18	0x3cecd03e	0.028907891
19	0xbd1b863f	-0.037969824
20	0xc0268374	-2.6017733
21	0xc014a0a0	-2.3223038
22	0xbc2b45a8	-0.010453619
23	0x3d3609ab	0.044442814
24	0xbff91fe3	-1.9462856
25	0xbd85078f	-0.06495582
26	0xbd59d507	-0.053181674
27	0xc08edabc	-4.464201
28	0xc0069dd9	-2.1033843
29	0xbff19ddb	-1.8876299
30	0xbd3678c4	-0.044548765
31	0xc096fda0	-4.71846
32	0x3d47b736	0.048758708
33	0xbfe83b0b	-1.8143018
34	0x3dd173f3	0.10227194
35	0xbc2f5fbc	-0.010703977
36	0xbcfb5afb	-0.030683031
37	0x3dfb61b3	0.12274494
38	0xc00a5104	-2.1611948
39	0xbcdccaff	-0.026952265
40	0xc00e1c44	-2.2204752
41	0xc04209b4	-3.0318422
42	0x3d8266be	0.06367253
43	0xc0b7952a	-5.7369585
44	0x3c3ce177	0.011528364
45	0xc030d4dc	-2.762992
46	0xbd0ddb44	-0.034632936
47	0xbfece66f	-1.8507823
48	0x3d2249a7	0.03962102
49	0xbfbc3b24	-1.4705548
50	0xbfde28ae	-1.7356164
51	0xc0b10a24	-5.532488
52	0xc01ee5c4	-2.4827738
53	0x3c9407cf	0.01807013
54	0xbd6974b6	-0.05699607
55	0xc0067a76	-2.1012244
56	0xc00cf760	-2.2025986
57	0xbf193750	-0.59850025
58	0xbf9c9bfc	-1.2235103
59	0x3f2ee9ab	0.683253
60	0xbd166c00	-0.03672409
61	0xbffa957b	-1.9576868
62	0xbd529f2b	-0.051421326
63	0xbe238de0	-0.1597209
64	0x3d057304	0.03258039
65	0xbea46eb8	-0.32115722
66	0xc023d00c	-2.5595732
67	0xc07bbb8b	-3.9333217
68	0x3d18090b	0.037118
69	0xbcc5b3ab	-0.024133524
70	0x3dfeafb6	0.12435858
71	0xc03c59bf	-2.9429777
72	0xc0381828	-2.8764744
73	0xbfd40708	-1.6564646
74	0xc0a102a0	-5.0315704
75	0xc08ffde8	-4.4997444
76	0xc028ed80	-2.6394958
77	0xbcf9c277	-0.030488236
78	0xc022b848	-2.5424976
79	0xbea55940	-0.32294655
80	0xbd9284c8	-0.07154232
81	0xbe269648	-0.16268265
82	0xbdec0db7	-0.115260534
83	0xbda7c1cf	-0.08191263
84	0xbdab2437	-0.08356517
85	0x3d4405ab	0.047856968
86	0xbd865a4f	-0.06560194
87	0xbe8179de	-0.2528829
88	0xbd1ad95c	-0.037804946
89	0x3db9ad8b	0.09066304
90	0xc0341e9f	-2.814369
91	0x3c130cf3	0.008975255
92	0x3dae34fb	0.08506199
93	0xbeff2807	-0.49835226
94	0xbfc9e0cf	-1.5771731
95	0xbc9a54a0	-0.01883918
96	0xbd9ef2a8	-0.07761127
97	0x3d8986d3	0.06715169
98	0xc0394463	-2.894799
99	0xbd77914b	-0.060441297
100	0xc0284efc	-2.6298208
101	0xbe48372f	-0.19552301
102	0xbca886af	-0.020572035
103	0xc0593198	-3.393652
104	0xc083379d	-4.1005387
105	0xbca69f6c	-0.02033969
106	0xc006ad47	-2.104326
107	0xbfebcb3b	-1.8421396
108	0xc037eccc	-2.873828
109	0xbd87623c	-0.066105336
110	0xbd2f1070	-0.042740285
111	0xc0a1f83f	-5.0615535
112	0xbeaca31c	-0.33718193
113	0x3c92cc2f	0.017919628
114	0xbe7f50a6	-0.24933109
115	0xc045e673	-3.0921905
116	0xbcf6b91f	-0.03011757
117	0xbd5a1c1f	-0.053249475
118	0xc0b2855c	-5.578779
119	0xbfff2eab	-1.9936117
120	0xbfe2901b	-1.7700227
121	0xc009252c	-2.1428938
122	0x3d88fafb	0.06688496
123	0xc03dea50	-2.9674263
124	0xbb3112bc	-0.0027019223
125	0xbfd8b188	-1.6929178
126	0xc055f62a	-3.3431497
127	0xbe0ba554	-0.13637286
128	0xbd8fc8b3	-0.07020702
129	0xc0359ef4	-2.8378267
130	0xbd1bba48	-0.03801945
131	0xbe0d204f	-0.13781856
132	0xbe3b2720	-0.18276644
133	0xbd8bbb34	-0.068228155
134	0x3b295fb7	0.0025844404
135	0xbdb5be98	-0.088742435
136	0x3c13c1bb	0.009018357
137	0xbdac3184	-0.08407882
138	0xc0bf5494	-5.9790745
139	0xc01eb0a4	-2.4795313
140	0xbf1769ac	-0.5914562
141	0xbd8245b3	-0.0636095
142	0xbd207b78	-0.03918025
143	0xbf18b6a4	-0.5965369
144	0xc02bb060	-2.68264
145	0x3b6fa98a	0.003656956
146	0xbf61001b	-0.87890786
147	0xc0ad7d50	-5.421547
148	0xbbfdd55b	-0.007746381
149	0xc0241a58	-2.564108
150	0xbd3225a8	-0.043492943
151	0xbfbac988	-1.4592752
152	0x3d8538c6	0.06504969
153	0xc008690c	-2.1314116
154	0xbfe0729f	-1.753498
155	0xbc99d598	-0.018778607
156	0xc063a1db	-3.5567539
157	0xbccf5023	-0.025306767
158	0xc0580f96	-3.3759513
159	0xbd7ab96a	-0.06121198
160	0xbc04aa32	-0.008097218
161	0x3db62f90	0.088957906
162	0x3b8d2513	0.004307398
163	0xbc842a95	-0.016133586
164	0xbc84e2a5	-0.016221354
165	0xbff00fd0	-1.8754826
166	0xbe63bccf	-0.22239994
167	0xbd8e0024	-0.069336206
168	0xbbdc8bf3	-0.0067305504
169	0xc01bc754	-2.434041
170	0xbba46184	-0.0050165076
171	0x3e1b4c6f	0.15165876
172	0xc08505d7	-4.156963
173	0x3ba796ff	0.0051144357
174	0xbbda6837	-0.0066652554
175	0xc04ad4df	-3.1692426
176	0xbd553bb8	-0.052058905
177	0xbd7071c7	-0.058702257
178	0xc0878988	-4.2355385
179	0xc063893f	-3.5552518
180	0xbd6e2ef3	-0.058150243
181	0xbe08ec24	-0.1337133
182	0x3cbc80d3	0.023010647
183	0x3cca4f1e	0.02469593
184	0xc099a35d	-4.801192
185	0xc013e638	-2.3109264
186	0xbcc0fda7	-0.02355845
187	0xc07190f7	-3.774473
188	0xc01468ec	-2.318904
189	0xbfec29c3	-1.8450245
190	0xc03f4fa8	-2.9892368
191	0x3e8df28b	0.27724108
192	0x3e56305e	0.20916888
193	0xc0a61e48	-5.1911964
194	0x3d178783	0.03699447
195	0xc00be326	-2.185739
196	0xc0526817	-3.2876031
197	0xbeee6567	-0.4656174
198	0xbf910040	-1.1328201
199	0xc0aa6804	-5.325197
200	0xbc5d41ac	-0.013504427
201	0xbc99b838	-0.0187646
202	0xc05b463f	-3.4261625
203	0xc073fe9b	-3.812415
204	0x3c94ba04	0.018155105
205	0xc06ce7c3	-3.7016456
206	0xbfd5c773	-1.6701492
207	0xbd95403c	-0.07287642
208	0xbd17ca00	-0.037057877
209	0xc005061d	-2.0784981
210	0xc066bdcb	-3.605334
211	0xbefb635e	-0.4909925
212	0xc04fee6b	-3.2489269
213	0xbcd4bc2e	-0.025968637
214	0xbfdca47b	-1.7237695
215	0xc088bc40	-4.2729797
216	0xc08caecc	-4.3963375
217	0xbd4301ab	-0.047609013
218	0xc05b79f7	-3.4293191
219	0x3c9df983	0.019284016
220	0x3de84da2	0.11342932
221	0xbd61a417	-0.05508813
222	0xc016bf98	-2.355444
223	0xbd71271b	-0.058875185
224	0xbfc63b2f	-1.5486811
225	0xbd682be3	-0.05668248
226	0xbd80764d	-0.06272564
227	0xbd3ead28	-0.046551853
228	0xbd005edd	-0.03134047
229	0xc03ec9ac	-2.981059
230	0x3d9a62c3	0.075383686
231	0xc0023806	-2.0346694
232	0xbff31f36	-1.89939
233	0xc0531c53	-3.2986038
234	0xbfddf0bf	-1.7339095
235	0xbf17a20d	-0.59231645
236	0xbc0cd690	-0.008596078
237	0xc098c284	-4.7737446
238	0xc05ed373	-3.4816558
239	0xbdd43632	-0.103618994
240	0xbd3dd54c	-0.046345994
241	0xbd7c8a57	-0.06165537
242	0xba6d0ccb	-0.0009042739
243	0xbb95417c	-0.0045549255
244	0xbd8c2588	-0.06843096
245	0xbd97dbe4	-0.07414988
246	0xbe007f67	-0.125486
247	0xc097bc18	-4.7417107
248	0xbd79bea3	-0.06097282
249	0xc0293858	-2.644064
250	0xbfe1d688	-1.7643595
251	0xc05a5e5f	-3.41201
252	0xc01bad28	-2.4324436
253	0xbd0a1504	-0.03371145
254	0xbd0f32db	-0.03496061
255	0xbfa8cabc	-1.318687

q.4.weight f4 [10, 256]
0	0xbca8a3bf	-0.020585893
1	0xbd772eb3	-0.06034727
2	0x3d1d3417	0.038379755
3	0xbc80d4cb	-0.015726468
4	0xbc4f76e2	-0.012662621
5	0x3f140b44	0.5782969
6	0xbfad8d54	-1.3558755
7	0xbf13c194	-0.5771725
8	0x3d906b5b	0.070517264
9	0xbd308e26	-0.043104313
10	0xbef9b3da	-0.48770028
11	0xbf283d18	-0.6571822
12	0xbff0e03f	-1.8818434
13	0xbe22720c	-0.15863818
14	0xbedd0e2e	-0.4317488
15	0x3d29eec3	0.041487467
16	0xbcaa759b	-0.020808032
17	0xbf403c5a	-0.7509209
18	0xbde3b6b7	-0.111188345
19	0x3b66f1be	0.0035239304
20	0xbec26006	-0.37963885
21	0xbf17b28f	-0.59256834
22	0xbd00f90a	-0.031487502
23	0x3b8a0d0c	0.004212981
24	0xbf06bdef	-0.52633566
25	0xbc2ddd03	-0.010611775
26	0x3d481082	0.048843868
27	0xbf8ca65b	-1.0988268
28	0xbf14a897	-0.5806975
29	0xbf069204	-0.5256655
30	0x3c53cca7	0.012927211
31	0xbf1aa67f	-0.604103
32	0xbc842707	-0.016131891
33	0xbf22b21c	-0.63553023
34	0xbc0b5914	-0.008505125
35	0xbc9852b0	-0.018594116
36	0x3c73d74e	0.014882876
37	0xbc8fe1a0	-0.017563641
38	0xbf007570	-0.50179195
39	0x3bb7b9a0	0.005606845
40	0xbef3d64a	-0.47624427
41	0xbe9748a0	-0.29547596
42	0xbb98e1af	-0.0046655755
43	0xbf9231d5	-1.1421458
44	0xbb9a1507	-0.0047022137
45	0xbf723056	-0.94605005
46	0xbd1b9f54	-0.037993744
47	0xbe01f1b6	-0.12689862
48	0x3ce301b2	0.02771077
49	0xbefe8d2f	-0.4971709
50	0xbea012c8	-0.3126433
51	0xbf20407b	-0.6259839
52	0xbefdd3b7	-0.49575588
53	0x3d647506	0.055775665
54	0xbd81407d	-0.06311128
55	0xbe8afe60	-0.27147198
56	0xbf284163	-0.6572477
57	0xbea96197	-0.33082268
58	0xbedd4aba	-0.43221074
59	0xbe26a7b1	-0.16274907
60	0xbd36ae70	-0.04459995
61	0xbf4a311e	-0.78981197
62	0x3d12db8e	0.035853915
63	0xbd606e17	-0.05479249
64	0x3c45113e	0.012028037
65	0xbde7d427	-0.11319762
66	0xbf346a33	-0.7047455
67	0xbed4fc8e	-0.41598934
68	0xbc129723	-0.008947167
69	0xbc177b58	-0.009245716
70	0xbcda47b8	-0.026645526
71	0xbfb3522f	-1.4009455
72	0xbf0010a8	-0.50025415
73	0xbed4f8b3	-0.41595992
74	0xbfa27a2b	-1.2693533
75	0x3c1b1728	0.00946597
76	0xbe6c1aea	-0.23057142
77	0x3b63965e	0.0034727077
78	0xbf29ce7f	-0.66330713
79	0xbdda6d10	-0.10665333
80	0xbd9335a8	-0.071879685
81	0xbd187b30	-0.037226856
82	0xbaeeeed3	-0.0018229134
83	0xbd38baa8	-0.045099884
84	0x3bfc5996	0.007701109
85	0xbdadd9e4	-0.08488825
86	0xbc53c2a6	-0.012924826
87	0xbe23c0f8	-0.1599158
88	0xbc17942c	-0.0092516355
89	0xbbe0c866	-0.006859827
90	0xbfd6ba2f	-1.6775569
91	0xbbc89c5a	-0.006122154
92	0xbd4624cb	-0.048374932
93	0xbe7a4bce	-0.2444298
94	0xbe71b4fa	-0.23604193
95	0xbd66c95b	-0.05634437
96	0x3c43ff20	0.011962682
97	0xbd63fdba	-0.055661894
98	0xbf03ef5c	-0.5153711
99	0xbcff6bea	-0.031179387
100	0xbf1075bf	-0.56429666
101	0xbe162ba0	-0.14665079
102	0xbd8fdc14	-0.070243984
103	0xbf178b07	-0.59196514
104	0xbf4edadf	-0.8080272
105	0xbc2fb090	-0.010723248
106	0xbee2803e	-0.44238466
107	0xbe05cdcc	-0.13066787
108	0xbec140ea	-0.37744838
109	0xbbf6cfee	-0.0075321114
110	0xbd2f4b6b	-0.042796534
111	0xbf4a7b7e	-0.79094684
112	0xbe206b73	-0.15665989
113	0xbdab8bd0	-0.083762765
114	0xbdefa6ce	-0.11701737
115	0xbf007458	-0.50177526
116	0x3d08d360	0.033404708
117	0x3be41ff0	0.006961815
118	0xbf9b86f3	-1.2150558
119	0xbec46663	-0.38359365
120	0xbed715e6	-0.42008895
121	0xbeedf4fa	-0.46475965
122	0xbd204cfb	-0.039135914
123	0xbece2dd2	-0.40269333
124	0xbd44eac8	-0.048075467
125	0xbfb16476	-1.3858783
126	0xbed1732b	-0.4090818
127	0xbdaff008	-0.08590704
128	0xbe117e6f	-0.14208387
129	0xbf880a6f	-1.0628184
130	0xbcbbf09c	-0.02294188
131	0x3cd69d97	0.026198192
132	0xbe34ca23	-0.17655234
133	0x3cc7ca32	0.024388406
134	0x3d517ffa	0.05114744
135	0xbcc28ca2	-0.0237487
136	0x3d80b531	0.062845595
137	0xbd08def0	-0.033415735
138	0xbf16255f	-0.58650774
139	0xbeadd354	-0.33950293
140	0xbe916d03	-0.28403482
141	0xbcb4e9d0	-0.022084147
142	0xbd08ee67	-0.033430483
143	0xbe6c9b82	-0.23106197
144	0xbf09e263	-0.53861064
145	0xbd31bf64	-0.043395415
146	0xbf43be1b	-0.7646195
147	0xbef5835a	-0.47951776
148	0x3cdb1b5b	0.026746443
149	0xbee1d103	-0.44104776
150	0x38c5b7cf	9.427929e-05
151	0xbfa7cc98	-1.3109312
152	0xbd04a140	-0.032380342
153	0xbf4c3a73	-0.79776686
154	0xbf05f70c	-0.5233009
155	0xbd5cf39a	-0.053943254
156	0xbf3d1cd7	-0.7387213
157	0xbc739f70	-0.014869556
158	0xbf149d1c	-0.5805223
159	0xbd5448cb	-0.051827233
160	0x3d02f75a	0.031974174
161	0xbf2af29b	-0.66776437
162	0x3cb6b17b	0.022301426
163	0xbd797407	-0.060901668
164	0x3c3463a0	0.011010081
165	0xbf595f4a	-0.84911025
166	0xbcf011c3	-0.029305344
167	0x3d316288	0.043306857
168	0x3bf139db	0.0073616332
169	0xbf07f8b3	-0.5311386
170	0x3c8b8cdf	0.017034946
171	0x3be0332e	0.0068420386
172	0xc00ac01b	-2.1679752
173	0xbc6b043e	-0.014344273
174	0x3d1fe116	0.039033018
175	0xbecf30ce	-0.40466923
176	0xbc26dc88	-0.010184415
177	0xbbcc7d30	-0.0062405095
178	0xbef62bde	-0.48080343
179	0xbef6443e	-0.4809894
180	0x3d15fda4	0.036618844
181	0xbd1a8c17	-0.037731256
182	0xbbff22cb	-0.00778613
183	0xbd56f8bc	-0.052483305
184	0xbf8e3395	-1.1109492
185	0xbec0a41e	-0.3762521
186	0xbc1786f8	-0.009248488
187	0xbf120ffb	-0.57055634
188	0xbe9c9d8b	-0.30588946
189	0xbeebc4e7	-0.46048662
190	0xbf33aeef	-0.701888
191	0xbde6421e	-0.112430796
192	0xbe026b0c	-0.12736148
193	0xbf761bc6	-0.9613613
194	0xbd17da7c	-0.037073597
195	0xbf458a5d	-0.7716425
196	0xbfbbac67	-1.4661988
197	0xbe6caffa	-0.23114005
198	0xbf626e64	-0.8844969
199	0xbecaad6a	-0.3958543
200	0xbd508dce	-0.050916485
201	0xbd68457e	-0.056706898
202	0xbf113a9f	-0.56730074
203	0xbebc0e0f	-0.36729476
204	0xbcb31cec	-0.021864377
205	0xbf90c907	-1.1311349
206	0xbf1e9948	-0.6195264
207	0x3b8ef588	0.0043627657
208	0x3cebc6ee	0.02878138
209	0xbfb354ee	-1.4010293
210	0xbef15bea	-0.47140437
211	0xbe86d757	-0.26336166
212	0xbf32cc4a	-0.6984297
213	0xbddf6bd0	-0.109092355
214	0xbed73dfa	-0.42039472
215	0xbebd95ef	-0.37028453
216	0xbf11b64b	-0.5691878
217	0xbced86e4	-0.028994985
218	0xbf4ee9b7	-0.8082537
219	0xbd062b66	-0.03275623
220	0x3c3dbeb7	0.0115811145
221	0x3c58b217	0.013226054
222	0xbfc26876	-1.5188129
223	0x3c020a16	0.007936975
224	0xbf8e1238	-1.109931
225	0x3cd3b69e	0.025843915
226	0xbd28ae4b	-0.041181844
227	0x3d3796db	0.0448216
228	0x3c8ace3e	0.016944047
229	0xbec7616e	-0.3894152
230	0x3baaaad0	0.0052083507
231	0xbeddecd6	-0.43344754
232	0xbf992463	-1.1964229
233	0xbf0c083b	-0.5470006
234	0xbeb2f528	-0.34952664
235	0x3eeea661	0.46611312
236	0xba30bdf8	-0.0006742175
237	0xbf914dd8	-1.1351881
238	0xbfb6e37a	-1.428817
239	0xbe03bc8b	-0.12864892
240	0xbd5606a7	-0.052252438
241	0xbc18ebf0	-0.009333596
242	0xbe02d389	-0.12776007
243	0xbd3adfdf	-0.045623656
244	0xbc2d5078	-0.010578267
245	0x3cbe745b	0.023248842
246	0xbd08ff5b	-0.03344665
247	0xbf136063	-0.5756895
248	0x3baf097b	0.0053417063
249	0xbf10c41c	-0.5654924
250	0x3ea8f01b	0.32995686
251	0xbf2b3c0c	-0.668885
252	0xbecac12f	-0.39600512
253	0x3cf3891a	0.029728461
254	0xbd162060	-0.03665197
255	0xbf34fe18	-0.70700216

q.4.bias f4 [10]
0	0x41574e01	13.456544
1	0x3f94737c	1.1597743
2	0x40a7260b	5.223394
3	0x410a1f49	8.632638
4	0x40c64b05	6.1966577
5	0x415dde64	13.866795
6	0x40bc8c60	5.8921356
7	0x40d2c50b	6.586553
8	0x41b13aec	22.15377
9	0x410ebaae	8.920576
