task4/task3_experiment_2_d_target_q1.pt (torch, 281951 bytes, 6 tensors)

q.0.weight f4 [256, 5]
000000 f7 0d de bb 57 79 9a 3c d3 fb 20 bc 5f 21 56 3c
       -0.006776567 0.018856687 -0.009825665 0.01306948
000010 88 c9 f0 3d e4 72 57 bf a3 27 cb 3e 91 22 b5 3e
       0.11757189 -0.84159684 0.39678678 0.35377935
000020 84 7c 0a bf d2 5c 63 be dc dd 98 37 03 3e bb bb
       -0.54096246 -0.22203377 1.8223123e-05 -0.0057141795
000030 26 ba 68 3a 40 40 8c bb ae c7 e4 be e3 40 87 3f
       0.0008877836 -0.00428012 -0.44683594 1.0566677
000040 30 3c a7 be 4a cd 4c 3f 7c a1 92 be c1 25 9c be
       -0.32663107 0.80000746 -0.28638828 -0.30497554
000050 e8 48 79 3b eb 33 26 bb f7 93 50 bb b7 d9 9d bb
       0.003803784 -0.0025360535 -0.0031826475 -0.0048172134
000060 c8 b4 80 3d 94 a9 12 bb a3 92 7d 3b a2 16 00 bb
       0.06284481 -0.0022378908 0.0038692139 -0.001954474
000070 5e 63 d0 3b 3f 1a a3 3d d4 55 2b 3b 8e 67 53 3c
       0.0063595017 0.079639904 0.0026143687 0.012903107
000080 26 2e 6d 3b 40 d0 bf 3c 8f 82 9f bd aa 3e 6a bd
       0.0036190837 0.023414731 -0.07788574 -0.057188667
000090 82 ca c7 3a d3 f3 e9 bc e2 39 6e bc 4c 36 1c 3e
       0.0015242847 -0.028558647 -0.0145401675 0.15255088
0000a0 1f 34 10 3c 5f 84 a0 3c 1f 95 45 3c 56 2b 4a 3c
       0.008801489 0.01959437 0.012059479 0.012339434
0000b0 db 73 bf be 78 de aa 3d c4 16 48 39 99 27 a9 3d
       -0.37393078 0.08343214 0.00019081967 0.08259506
0000c0 21 c7 56 3c 8c 85 d6 bd fc d6 5a 3f 04 dc ef 3c
       0.0131089995 -0.10474691 0.8548429 0.029279716
0000d0 00 29 07 b9 29 9b 58 bc 94 40 d2 be 8f 9e fc be
       -0.00012889877 -0.013220587 -0.41064894 -0.4933972
0000e0 12 02 36 3f 5d 87 b7 3e b1 7d 02 be 00 58 0a ba
       0.7109691 0.3584546 -0.1274326 -0.0005277395
0000f0 14 3b d1 3b 36 95 fe 3c 2b 7d f3 3c 5c f4 60 bd
       0.0063852165 0.031077009 0.02972277 -0.05492054
000100 90 90 dd be 7b 71 d1 3f 98 b5 61 be 09 3b d2 bd
       -0.43274355 1.6362756 -0.22041929 -0.10265166
000110 9c 41 4b 3e 2c 41 85 3e a1 2b aa bf 23 17 cb bd
       0.19849247 0.26026285 -1.3294564 -0.09916522
000120 46 26 d3 3e d8 60 67 be 8b 36 80 be 9c bd 2d 3b
       0.41240138 -0.22595537 -0.25041613 0.002651072
000130 f4 65 0a bc 3b 38 5e bb 94 77 08 3c 70 b1 9e 3c
       -0.008447159 -0.0033908028 0.008329291 0.019371718
000140 46 3a d9 3c 2c 99 ef 3d 58 0b 93 bf 45 3d c5 3f
       0.026517045 0.11699137 -1.1487837 1.5409323
000150 5a 11 93 3e 01 0f 43 be 4d 33 8d 3e 88 41 e9 bb
       0.28724176 -0.19048692 0.27578202 -0.0071184076
000160 26 bb 08 3b d8 a5 8b 3e 2b 73 b8 3e 4e 89 f6 3c
       0.0020863502 0.27274966 0.36025366 0.030094769
000170 ab 6f 1b be 4e a8 48 be 1c b8 9b 3e 1d 2f 5d 3f
       -0.15179317 -0.19595453 0.30413902 0.86400014
000180 e2 5c 28 3f d7 70 12 3f b9 25 96 3e cd a2 df be
       0.6576673 0.5720343 0.29325655 -0.43678895
000190 82 24 8b bd f2 96 18 bc 25 6d 04 3e d9 54 59 3d
       -0.06794073 -0.009313332 0.1293226 0.053059433
0001a0 92 51 bf 3e db e1 9e bc 80 a9 21 bc 8e 5c 4f bc
       0.3736692 -0.019394806 -0.009867072 -0.012656344
0001b0 06 7b c5 bc d2 5f 14 be ea d5 fe 3b 7a 1a 64 3b
       -0.024106514 -0.14489678 0.0077769654 0.003480582
0001c0 3e 3a d8 3b 38 28 27 3a 00 64 66 3d 4f 3e 1c 3c
       0.00659874 0.00063765375 0.05624771 0.00953634
0001d0 2a ad 67 bb 93 6a 10 3c c3 6e a7 bb 44 aa d1 bd
       -0.0035351017 0.008814472 -0.0051096394 -0.10237554
0001e0 bb 9a 1c ba dc 9e 20 bb 8b 89 d8 ba 57 17 13 bb
       -0.00059739844 -0.002450875 -0.0016520483 -0.0022444332
0001f0 37 61 7c be 49 db eb be d1 bd b3 3d e1 b8 87 be
       -0.2464646 -0.4606574 0.08776439 -0.2650824
000200 9b 2e 4f 3d d2 78 2a be df c7 1b bc ca a0 f9 3c
       0.050581556 -0.16647652 -0.009508102 0.030472178
000210 db 11 30 3a ab bd ac 3c dc da 77 3e d6 03 db bd
       0.0006716528 0.021086534 0.24204582 -0.10694091
000220 d0 cc 38 3e 13 98 b5 bd 6b 2f 95 be 40 e0 e8 3b
       0.1804688 -0.088668965 -0.2913774 0.007106811
000230 53 d7 93 3f e3 f9 31 40 ed 3c b7 be b6 94 8b bf
       1.1550087 2.7808769 -0.3578867 -1.0904758
000240 a1 7e cc be 9b c8 54 39 e6 02 f9 3a ab 12 8a 3b
       -0.3994036 0.00020292627 0.0018998056 0.004213651
000250 8f 4b db 3a bb b7 d8 be 5d 04 69 3c ee 9f 92 3c
       0.0016730892 -0.42327675 0.014222232 0.017898526
000260 41 cb 73 bc 4f dc 5b bc b8 32 37 be 35 9c 9b be
       -0.0148800025 -0.013419225 -0.17890441 -0.30392614
000270 22 e9 54 3e fb 3a 17 3f f4 ec a1 be 04 a0 a3 bd
       0.20792058 0.5907437 -0.31626093 -0.07989505
000280 78 93 3c 3d ef af a3 bd 13 06 bb be e8 aa a4 bd
       0.046039075 -0.07992541 -0.36528072 -0.0804041
000290 9c f6 f5 bd 20 3f bc bc 22 8f d6 bc 3f 71 bf be
       -0.12009928 -0.02297932 -0.026191298 -0.37391087
0002a0 ef 5d be 3e 76 cd ee 3d 27 f6 bb bc be 92 b9 bb
       0.3718104 0.11660282 -0.022944523 -0.005663245
0002b0 fc 30 1e bc 46 d0 c6 bb 68 83 1f bd 7d ca c9 3d
       -0.0096552335 -0.0060673086 -0.03894368 0.09853075
0002c0 bd cc 05 bd fd a5 5f ba b7 79 55 3b 70 b5 9a be
       -0.032665957 -0.0008531509 0.0032573768 -0.3021655
0002d0 44 e0 37 3f 8e 2f 38 bf 7d e5 6f 3f af f5 63 3f
       0.7182658 -0.7194756 0.93709546 0.8904676
0002e0 a8 0d f0 bd 98 b9 a7 bd e0 90 d6 3c 10 74 07 bd
       -0.11721355 -0.08189696 0.026192129 -0.03306967
0002f0 39 1d 91 be c0 d0 f0 bd d6 8b df 3d 0c 10 37 be
       -0.28342608 -0.11758566 0.109153435 -0.17877215
000300 56 d8 a5 3e f8 6e 22 be 45 dd c4 be 1a 99 4a bc
       0.32391614 -0.15862644 -0.38450065 -0.012365604
000310 42 db 44 3b d3 36 45 ba 8b 64 94 bc 46 f2 5b 3e
       0.0030037914 -0.0007523123 -0.018114349 0.21479139
000320 84 09 83 3f 29 59 9c 3f 64 c6 d7 3f e4 9c 28 be
       1.0237279 1.221471 1.6857419 -0.16466099
000330 10 a9 35 3e de dd df 3b b4 0c 88 b8 10 f6 b5 3a
       0.17740273 0.0068318686 -6.4873515e-05 0.0013882536
000340 ba d3 51 bb e8 cc 51 3e 67 6e 82 bf 90 a4 b0 bf
       -0.0032017068 0.20488322 -1.0189942 -1.380022
000350 4a 70 93 bd 7b 4f 46 bf 7e cd c3 be 16 0b 20 3d
       -0.07199152 -0.7746503 -0.38242716 0.039073072
000360 83 fb 7b 3c 03 92 e6 3d da 6b 5f 3d b8 69 09 bd
       0.015379789 0.11258318 0.054546215 -0.033548087
000370 7b 07 21 3f 9e a6 12 3c 4d 3f 09 3f 68 1c 6f 3e
       0.6290204 0.008950857 0.53612214 0.2335068
000380 1c d4 47 3e ac 70 d3 bd 6c 62 d8 bd 58 e9 aa 3d
       0.19514507 -0.10324225 -0.105656475 0.08345288
000390 00 f4 7b bc 78 25 db bd 96 9b 04 3b f6 73 d7 bc
       -0.015377998 -0.10700506 0.0020234338 -0.026300412
0003a0 c4 de a0 39 0f 77 4b bc 20 df b5 3d 80 fe af 3e
       0.0003068355 -0.0124185225 0.08880448 0.34373856
0003b0 fc d7 64 c0 ba c2 e0 3d 6b e8 7f bd e0 5d 83 3c
       -3.5756826 0.10974641 -0.06247751 0.016035974
0003c0 49 08 d3 3d f1 90 c7 bc 66 05 36 bd a8 cf 7d 3c
       0.10304315 -0.024361106 -0.044438742 0.015491404
0003d0 ea 4a 90 3e f6 da 86 be 46 4e 73 bd cc d1 88 be
       0.28182155 -0.2633893 -0.05940082 -0.26722562
0003e0 58 13 70 bd 00 cd b0 3d 48 d1 a6 3b 16 a5 02 be
       -0.058612198 0.08632851 0.0050908662 -0.12758288
0003f0 c7 a8 a8 3c 17 77 26 3e a0 49 84 be 67 aa bd 3d
       0.020588292 0.16256367 -0.2583742 0.09261017

q.0.bias f4 [256]
000000 44 dc 96 bc 2c a3 18 3d f0 6d 8b bb 28 9e ea bd
       -0.018415578 0.037264988 -0.004255049 -0.11455947
000010 d8 5c 16 bc bc 6b 99 bb 23 96 c0 bc 00 4a 15 bd
       -0.009177409 -0.0046820324 -0.02350909 -0.036447525
000020 b7 88 73 bc 53 a9 ec 3d 08 44 7a ba 57 c4 88 3e
       -0.014864138 0.115557335 -0.00095468806 0.26712295
000030 a7 9e 82 3b 6f 64 14 3d 38 3a b6 bd 73 82 63 bc
       0.003986198 0.036228593 -0.08897823 -0.013886082
000040 37 21 3e bd 75 f4 42 bd b3 33 ca be af 5e 2d bd
       -0.046418395 -0.047596414 -0.39492568 -0.042326625
000050 8e 61 94 3e 50 76 b4 bc 8b c1 c3 bb 97 3c e2 bb
       0.28980678 -0.022029072 -0.005974 -0.0069041955
000060 94 59 8d bb 1b ad 9f 3b 58 18 a6 bc 72 55 d4 be
       -0.004313657 0.0048729307 -0.02027528 -0.4147144
000070 49 7a 1a 3e 17 0d 4e bb a8 3c 9d bb 9e 99 9e 3d
       0.1508571 -0.0031440908 -0.0047984906 0.07744144
000080 2e 4e aa be 8f f9 cd be ff 28 6d bc 7b f7 33 bc
       -0.3326277 -0.4022946 -0.014475106 -0.010984297
000090 f0 35 80 bc 7e 9d 66 be ab c6 a8 be 7c 6f 8a bc
       -0.01565072 -0.22521016 -0.32964072 -0.016898863
0000a0 56 9c 2d be 68 9a b9 bb b0 f2 e0 3e 36 ff a3 3e
       -0.16954169 -0.0056641586 0.43935156 0.32030648
0000b0 cb c2 05 bb 89 bd b3 be e0 57 de bc a4 d7 81 3e
       -0.0020410295 -0.3510554 -0.027141511 0.25359833
0000c0 75 c7 0b 3e a6 ef 27 be 6f 02 ca 3c c1 6e 8d bd
       0.13650306 -0.16400012 0.024659364 -0.0690589
0000d0 30 92 9a bb bb 54 e2 bb 30 ad e4 be 53 c1 84 ba
       -0.004717134 -0.0069070733 -0.44663382 -0.0010128416
0000e0 3a 24 a8 bc 70 49 3f 3d f0 65 93 bc 84 9a ac be
       -0.020525087 0.046700895 -0.017992944 -0.33711636
0000f0 8b e5 f9 bb 29 89 be be 03 e4 f0 bb 96 da c1 be
       -0.0076262406 -0.3721402 -0.0073514 -0.3786208
000100 07 91 7a bc af a5 50 3e a5 cc 79 3d dc e9 24 3c
       -0.015293366 0.20375703 0.06098618 0.010065522
000110 8e 5d ad be 08 5b 9a bb d8 98 a0 be bf 86 f5 bb
       -0.3386044 -0.004710559 -0.3136661 -0.0074928696
000120 16 c9 2c 3f 10 1d aa 3e d8 6e 27 bb 40 e9 85 3d
       0.6749433 0.33225298 -0.0025548246 0.065386295
000130 1d de 1f 3e c5 fd a0 bb e4 0e 95 be eb 66 e6 bb
       0.15612073 -0.004913064 -0.29112923 -0.0070313117
000140 5c a4 cb bd d8 15 43 3e b0 1a 57 3f 1f f6 57 bd
       -0.099434584 0.19051301 0.84025097 -0.052724954
000150 cd c7 18 3d 50 1d 51 3d 5e 9b b5 be 79 70 c3 bd
       0.03729992 0.051053345 -0.35470098 -0.09542937
000160 53 ab 06 bc 4b d9 c3 be a4 62 b5 bc b8 d1 07 3e
       -0.008219558 -0.3825172 -0.022141762 0.13263595
000170 0b bb cc bc ba af c6 be cf e3 f3 bb 9b b8 69 bc
       -0.024991533 -0.38805944 -0.0074429284 -0.014265205
000180 14 43 94 bc 12 36 fb bc 63 4b f8 bb f8 2a e1 be
       -0.018098392 -0.030665431 -0.007577346 -0.43978095
000190 8f 84 ca bc 38 34 20 bb 50 e4 be bc 94 d3 d4 bc
       -0.024721412 -0.0024445187 -0.023302227 -0.025979795
0001a0 6f e8 ef bc ff 4c d3 bb b4 54 51 bc 67 e7 8c bd
       -0.029285638 -0.0064483876 -0.012776542 -0.06880074
0001b0 b7 e5 61 bb e6 5c d6 be 1c 49 bb bb 4d 1f 1a 3d
       -0.0034469196 -0.4186775 -0.0057155024 0.037627507
0001c0 24 76 9f bb db ec 72 bc 33 be 42 be e7 d4 e5 bb
       -0.0048663784 -0.014826979 -0.19017868 -0.0070139053
0001d0 51 61 17 be 2c 23 15 bc 27 b5 1f 3e fb 90 57 3b
       -0.14783217 -0.009102624 0.15596448 0.0032892812
0001e0 70 b2 23 bc 61 73 d1 be f7 b2 d4 be 60 2f 39 bd
       -0.009991273 -0.4090834 -0.4154279 -0.045211196
0001f0 ea 12 f1 bd 5a 77 c7 bb 5b 18 72 bc 97 2d 5d bc
       -0.11771186 -0.006087226 -0.014776315 -0.013499639
000200 b6 c2 c8 be 2c 33 2d bc 0e 1b d6 3e 88 4c 1c bb
       -0.39211053 -0.010571282 0.41817516 -0.0023849327
000210 3f 4c d5 bb 00 8e 2e be bb b4 c9 bd 4e 56 4d 3d
       -0.0065093334 -0.17046356 -0.09848925 0.050131135
000220 70 bc 8c be fb 4e 69 bc 5c 18 b2 3e 0c 48 a3 3e
       -0.27487516 -0.014240022 0.3478421 0.31890905
000230 14 cf ab bb 98 ee 1e bb ea d8 82 3e 43 6f 7e 3e
       -0.0052431915 -0.00242511 0.25556117 0.2484713
000240 d0 ba 15 bd 37 4c 50 3d f4 73 90 bc f4 fe af ba
       -0.03655511 0.050853934 -0.017633416 -0.0013427422
000250 e8 c3 88 bc 9e 14 a1 be ac e7 b9 bb e6 1a 49 bd
       -0.016694978 -0.31461042 -0.0056733694 -0.049097918
000260 86 a7 26 3e 31 8d 8b 3d f1 d0 8f 3e 17 12 16 3e
       0.16274843 0.068140395 0.28089097 0.14655338
000270 32 d5 74 3e b6 b2 bd bb 8f be 6a bb 80 b5 95 bb
       0.23909453 -0.0057891263 -0.0035819148 -0.0045687556
000280 96 a9 29 bc c0 f6 42 3e 9c 11 67 3d 33 5e b2 be
       -0.010355374 0.1903944 0.056413278 -0.34837493
000290 54 9e 0d bb d8 83 88 bb 5f ad fe bb 8e 00 d6 be
       -0.0021609263 -0.0041661076 -0.0077721323 -0.41797298
0002a0 14 b1 05 bd 88 fa a7 bb 95 b4 06 bc 97 50 81 bc
       -0.032639578 -0.005126301 -0.008221765 -0.015785499
0002b0 a8 55 91 bc 83 8f df bb bf b0 cd bc 90 60 70 be
       -0.01774104 -0.006822528 -0.025108693 -0.23474336
0002c0 57 5c 01 bb 78 fa 87 bd 64 42 a2 bb 25 52 06 bc
       -0.0019738877 -0.0663957 -0.004951762 -0.008198296
0002d0 bd 2d ae bc 1a a3 74 be 64 a4 a3 3d 8a c3 6b bc
       -0.021262044 -0.23890343 0.079903394 -0.014389882
0002e0 cc 26 21 bb 72 36 c5 be b0 0c 7f bc 58 2a a3 bd
       -0.0024589775 -0.385181 -0.01556699 -0.07967061
0002f0 94 b2 bb bb 64 ca 5e 3d 08 d5 0e bb d5 11 da be
       -0.0057280753 0.054392233 -0.0021794457 -0.4259173
000300 a7 5e a7 bd bc d2 96 bb e8 76 32 bc a4 7d 57 3c
       -0.081723504 -0.004602758 -0.010892607 0.013152514
000310 80 44 22 bb 1c b2 36 bc 6a 3f 67 3d cf 0f d3 3b
       -0.0024760067 -0.011150863 0.05645696 0.0064410935
000320 83 5d 01 bd 1b a8 70 3d 18 fb 96 be 62 d2 d8 be
       -0.03158332 0.058754068 -0.29488444 -0.4234801
000330 50 5f 94 bb 72 36 e3 bd 5f e3 e6 be e4 c0 32 bc
       -0.0045279637 -0.11094369 -0.45095345 -0.0109102465
000340 b8 e2 23 bc 73 16 98 3d 1a 4b 09 be 43 97 c7 be
       -0.010002784 0.07426157 -0.13407555 -0.3898259
000350 82 c8 e5 3d 8d 67 b5 3e d4 40 b6 bd 67 5f e0 ba
       0.112198845 0.35430565 -0.08899084 -0.0017118276
000360 10 9a a8 bb b8 f8 58 bd a5 0e 20 bd d0 8d cc 3d
       -0.005145319 -0.05297157 -0.039076466 0.09987986
000370 23 13 c4 3c 07 4c db bb c0 64 97 bc e0 df 8e 3c
       0.023934906 -0.006692413 -0.018480659 0.017440736
000380 e6 56 a8 bc 20 2a 3d bb f0 38 b6 bc f1 4d c0 be
       -0.020549249 -0.002886422 -0.022243947 -0.37559465
000390 13 4f 79 bc bb 10 0c 3d c4 25 3e bc 33 6b 25 3f
       -0.015216607 0.034195643 -0.011605684 0.646167
0003a0 50 ed 97 bb 3c 68 24 bb a9 c5 11 3e d3 96 ae bd
       -0.004636444 -0.0025086543 0.14235558 -0.08524861
0003b0 dd ac c1 3c f0 4b 1e bc 69 a0 4d 3c 8c 0f 14 bc
       0.023641998 -0.00966166 0.012550452 -0.00903691
0003c0 c5 4e b2 be 3c 38 ed ba 4c a3 a9 bb f3 9c 46 bc
       -0.3482572 -0.0018098424 -0.005176937 -0.012122381
0003d0 a9 fd 91 3d b4 61 09 3d cc 0d 3f bb 86 19 90 bd
       0.0712846 0.033540443 -0.002915251 -0.07036118
0003e0 5c 8b a2 bb bf 35 73 bb f4 11 16 3f eb 06 44 bb
       -0.0049604606 -0.0037110893 0.58621144 -0.002991135
0003f0 94 47 b3 bb 57 bd 58 bc b3 aa cb bb eb 8f 02 bc
       -0.0054711793 -0.013228736 -0.0062154173 -0.007968883

q.2.weight f4 [256, 256]
000000 22 e0 b2 3d 50 b9 3c be 6f 7c 72 3d 4f 07 88 3d
       0.08734156 -0.18430066 0.0592007 0.06642019
000010 04 31 0c be 64 93 ba 3d 80 55 16 be 27 81 15 3e
       -0.13690573 0.09110144 -0.14681053 0.14600049
000020 57 e2 b3 3a 7e c2 f1 3d e2 0b f9 3c b8 c4 ad bb
       0.0013724071 0.118046746 0.030401174 -0.0053029917
000030 2a e4 d8 3d 90 a7 22 be dc 4b 23 bd 7b 36 e1 3d
       0.10590394 -0.15884233 -0.039867267 0.109967194
000040 90 18 06 3c 03 d8 da bd 86 e5 29 bd da c8 01 3d
       0.008184567 -0.10685732 -0.041478656 0.031685688
000050 fb ba 43 bd 16 9f 4d 3c 03 94 49 bc d8 f2 9b bd
       -0.04778574 0.012550136 -0.012303355 -0.07614678
000060 9e f7 76 3d 16 91 ef 3c 43 37 20 3d d0 b4 45 bc
       0.06029474 0.029243987 0.0391152 -0.012067035
000070 48 0a 3a be 54 67 12 bc 0f 5c 7f be 2b 10 64 bc
       -0.18167984 -0.008935768 -0.24937461 -0.01391987
000080 00 90 19 b9 20 ba dd 3b bb c1 31 3d 7f 15 42 be
       -0.00014644861 0.0067665726 0.043397646 -0.18953513
000090 97 0d 8a 3d 9c ba 07 bd f2 84 21 3d 27 c1 9b 3b
       0.06740873 -0.03313695 0.039433427 0.00475325
0000a0 f4 8f 82 3b d0 ca 2d be 63 df c8 be c8 06 a7 bc
       0.0039844457 -0.16971898 -0.3923293 -0.020388976
0000b0 c0 7d 1c bd f6 02 02 bd 67 9b 1f bc 6c cf 23 be
       -0.038205862 -0.031741105 -0.009741641 -0.15997094
0000c0 23 02 a0 3d 6c 1e 3c bd a6 3a 77 3a 5a 42 fa bb
       0.078129075 -0.04592745 0.00094310415 -0.0076373043
0000d0 b7 cb 67 bd b0 a2 2a 3e 30 64 23 3c ff 70 be bd
       -0.056590762 0.16663623 0.009972617 -0.09298896
0000e0 df 74 1e 3d 98 c5 1a bd b3 8c df 3d 07 c3 61 be
       0.038685676 -0.037786096 0.10915508 -0.22047053
0000f0 8e de 98 3d fa 56 37 3d 88 f2 16 be 34 24 b7 bc
       0.07464324 0.04476068 -0.14740956 -0.02235613
000100 98 a7 05 3c ef 1a 45 be c4 65 ab bd a3 45 07 3d
       0.008157633 -0.19248556 -0.0836902 0.033025395
000110 7c 38 8b bc df 00 cc 3c d2 d5 5b bd 63 66 b0 3d
       -0.016994707 0.02490276 -0.05367071 0.08613279
000120 cc 12 ab be cb 44 e7 bb 63 7b 25 3c ee d9 ce 3d
       -0.33412778 -0.0070577613 0.0101002185 0.101001605
000130 e8 6c 8f bd b8 fe 07 be 7b d6 43 be 4f 34 0d 3e
       -0.07003194 -0.13280761 -0.19124787 0.13789485
000140 30 31 12 be 54 c1 2b be 07 50 43 be 26 51 b6 3c
       -0.14276576 -0.16772968 -0.19073497 0.022255491
000150 13 2e 27 3d 4a d5 47 3d 40 cc a9 3a b2 cf 62 3d
       0.040815424 0.048787393 0.0012954548 0.055373855
000160 37 34 3e 3e 48 b9 63 bd 5b f8 c6 3d 1a 7a 81 3c
       0.18574606 -0.05559662 0.09715339 0.015805293
000170 77 97 40 3e b6 96 3c bd 08 1b a8 bd 8b 7e 89 3c
       0.18807779 -0.046042167 -0.08208281 0.016783973
000180 eb 95 4b bd 0a e2 e1 3d be 90 4f 3d a8 33 3b bd
       -0.04970352 0.11029442 0.050675146 -0.04570356
000190 54 7f ac bd bc ab 33 be 94 b2 22 3e 1f 3e 0b 3c
       -0.084227234 -0.1754598 0.15888435 0.008498698
0001a0 c3 66 a5 3d 0b 41 53 3e 96 64 6c 3c 53 63 2a 3e
       0.08076241 0.2063028 0.014428278 0.16639452
0001b0 4b 3f db bd a0 84 36 bc 47 90 f2 bd 8e 2a 59 bd
       -0.107054316 -0.011140019 -0.11843925 -0.0530191
0001c0 cb 81 9b 3b 8c 2f 88 be a7 7e c2 bd 9b 3c 9d 3d
       0.004745697 -0.26598775 -0.09496813 0.07677575
0001d0 7f 8e da ba 1f b8 59 bd 20 60 b4 bd 36 5d d6 3c
       -0.0016674547 -0.053154107 -0.08807397 0.026167493
0001e0 5f 71 56 3e ca ba 4a 3d 50 78 ad 3b 30 30 9d 3c
       0.20941685 0.049494542 0.0052938834 0.019188017
0001f0 57 6a d6 bc f4 29 f3 bc 4a 15 e7 3d 8a aa 19 3d
       -0.026173754 -0.02968309 0.112833574 0.037516154
000200 60 15 60 3d 28 9e 2f be 78 a4 8b be 04 6c 12 be
       0.054707885 -0.17150176 -0.27273917 -0.14299017
000210 df d4 05 be a4 ac 98 bd c7 3e fb bc b2 d2 78 3d
       -0.13069485 -0.074548036 -0.030669583 0.06074781
000220 63 e8 35 bd 03 52 77 3d ec 97 17 bd 3c af a3 be
       -0.044411074 0.060380947 -0.03701012 -0.3196963
000230 67 4d 72 3d e4 01 38 be 6c 87 96 be 2b fe b9 3c
       0.059155848 -0.17969471 -0.29400194 0.022704205
000240 dc 41 1e be 78 05 8f bb cf 3b 3a 3e de 48 54 bd
       -0.15454811 -0.0043646656 0.18186878 -0.051827304
000250 1e 8c fb 3d 14 59 0d 3d 1b 6b e9 bc a2 e9 62 3d
       0.122825846 0.03450878 -0.028493455 0.05539859
000260 9b 00 c0 bd cb d9 72 bc 16 27 5c 3d 68 6c 30 bc
       -0.093751155 -0.014822434 0.053748213 -0.010768034
000270 dc 04 b8 bd ae 25 fa 3c 43 7c b0 3e 1f 15 c8 bd
       -0.08985302 0.030535545 0.34469804 -0.097696535
000280 f6 9d 01 3b bc 6d e2 bd c3 f9 b7 3d a0 96 3f 3c
       0.001977799 -0.110560864 0.08983185 0.011693627
000290 ae 26 ea 3b e7 91 6c 3b 3b 6e a3 3c 60 e6 96 bc
       0.0071457243 0.0036097707 0.019950023 -0.018420398
0002a0 87 1d b2 3d e8 c4 0c 3d 9c 16 0c 3e 7e c2 04 3e
       0.08697038 0.034367472 0.136805 0.12964818
0002b0 07 34 a8 3d e7 f5 67 3e b4 0c 97 3e 2c 10 3b 3d
       0.082130484 0.22652398 0.2950188 0.04566972
0002c0 cb 5e 70 bc 0e 95 e9 bd 9e 4d e2 3d cb fa 51 be
       -0.014671038 -0.11405383 0.110499606 -0.20505826
0002d0 fe c1 79 3d 5c 2d 88 bd 53 f8 08 3e 3a b1 fb 3c
       0.06097602 -0.066492766 0.13375978 0.030724157
0002e0 09 8d 05 3e 20 57 36 bb 96 3a ee 3c d0 ca e5 bb
       0.13042082 -0.0027822927 0.02908067 -0.0070127025
0002f0 54 e6 38 bc 6b c2 71 bc 4a e7 16 3d a0 87 26 bb
       -0.011285383 -0.0147558255 0.03684167 -0.0025410429
000300 d7 a2 48 be 66 3f 4e 3d 52 47 55 3c 03 8f 08 3e
       -0.19593368 0.05035343 0.013017492 0.13335805
000310 58 c0 2d be 74 0f b6 3d cb 4d de bd fa f6 43 3d
       -0.16967905 0.08889666 -0.108546816 0.047842957
000320 88 60 26 3e 3e cd c2 39 b8 46 92 3c aa f5 0f bd
       0.16247761 0.0003715548 0.017855987 -0.035146393
000330 67 91 c2 bc eb 9f 78 be 80 56 3a 3d 6b 84 f8 bd
       -0.023750974 -0.24279754 0.04549265 -0.12134632
000340 7b ec 8a bc e8 28 a6 bc 2b a2 ca bc f8 c7 21 3e
       -0.016958466 -0.020283177 -0.02473553 0.15798938
000350 ee bc 57 3b 74 17 15 be 10 6e 89 3e c7 f2 6c bd
       0.0032919007 -0.14559728 0.26841784 -0.057848718
000360 fb 8d cd 3d 8b 68 f9 bd ca 74 6e 3d 4c c8 ac bd
       0.10036846 -0.12178143 0.058216847 -0.08436641
000370 ef eb a8 3d 83 0e cf 3d c8 b0 a7 bd d3 8a 8a 3d
       0.08248126 0.1011019 -0.08188015 0.0676476
000380 82 6e 4e 3d a7 b6 6e bd 5b 07 51 3e 4e 98 76 bd
       0.050398357 -0.05827966 0.20412962 -0.060203843
000390 36 26 e0 3c 40 c6 08 be 14 38 18 be ef 29 13 3d
       0.02736197 -0.13356876 -0.14865142 0.035928663
0003a0 a0 b9 32 be 0c 54 36 be c4 1c ae bd 8a 4e 70 3d
       -0.17453623 -0.17805499 -0.0850158 0.05866865
0003b0 df 9c 5a bc af 32 d9 bd 1b 4f 92 3b c7 84 92 3d
       -0.013343065 -0.1060537 0.0044649965 0.071542315
0003c0 f0 eb 8c 3c 50 67 f9 bc bb ba 15 3d bb d3 38 3c
       0.017202348 -0.030444771 0.036555033 0.011280949
0003d0 78 2c 1f bc 0b 1b 15 3c 2e f3 40 3d 50 2b 8c bb
       -0.009715192 0.009100686 0.047106914 -0.004277624
0003e0 6f 81 f2 bb 4c 6c 38 be 63 96 23 3d 7c cd a9 3d
       -0.0074006836 -0.18010062 0.03993834 0.08291146
0003f0 57 12 6d be d6 c1 fe 3d d3 57 2e 3e 0f 22 8a 3d
       -0.23151527 0.12439315 0.1702569 0.067447774

q.2.bias f4 [256]
000000 48 37 2b be 94 cc ce be b0 b1 d7 be bf e5 c5 be
       -0.16720307 -0.40390456 -0.42127752 -0.38651845
000010 d7 ec dc 3f a2 03 86 3f d4 45 bb be bc 06 9f 3e
       1.7259778 1.0469859 -0.36576712 0.31059825
000020 8b 73 69 be f6 e7 7a bd eb 7a 2f 3e aa 0e e8 3c
       -0.22797982 -0.06125637 0.17136733 0.028327305
000030 a4 af a4 bc b8 9f 39 be 40 d6 ab 3f b0 bc b3 be
       -0.020103283 -0.18127334 1.3424759 -0.35104895
000040 e5 4b 88 3f 14 33 89 bd 9f 57 f6 be 9f e2 ed bc
       1.0648161 -0.066991955 -0.48113725 -0.029038725
000050 b0 75 96 bd 81 b1 cf 3e 6b a5 ad 3e 58 7c 08 be
       -0.07346666 0.40565112 0.33915266 -0.13328683
000060 d6 24 49 3d b7 1c ba 3e 04 84 9f 3f 7f 23 83 bc
       0.049107395 0.36350033 1.2462163 -0.016008137
000070 eb ed 96 3e 03 e5 c8 be 60 b9 9b 3f f8 bb 38 3e
       0.29478392 -0.39237222 1.2165947 0.18040454
000080 40 cb ba bc 17 20 b9 3e d9 be 5e 3d 37 6c 4c bd
       -0.022801995 0.36157295 0.054381225 -0.04990789
000090 c3 e6 77 bd 1a bf 04 bd 9b 4e df 3f 40 b5 28 bc
       -0.060522806 -0.03240881 1.7445863 -0.01029712
0000a0 34 0e 27 bc 4c 8f 90 be bf 2b 19 3e 18 46 98 bc
       -0.010196257 -0.28234327 0.14958094 -0.01858811
0000b0 3e dc db 3c 31 71 f9 bc 3b 85 be 3c aa 76 39 3f
       0.026838418 -0.030449482 0.023256889 0.7244669
0000c0 7d 39 aa 3d 1b a7 23 3e 10 e5 14 be ac 1c 94 3f
       0.08311746 0.15981714 -0.14540505 1.157125
0000d0 a6 7f cb 3c d5 a7 05 bf 0f ac 83 bd 73 30 9f 3e
       0.024841141 -0.52209216 -0.06429302 0.3109165
0000e0 b4 69 2a 3f 48 26 bc be 88 87 98 bd d4 4a 73 3f
       0.6656754 -0.36747956 -0.074477255 0.95036054
0000f0 8c b6 b5 3c 40 d0 b0 be a7 83 33 40 db dd 7d 3a
       0.022181772 -0.34533882 2.8049104 0.0009684243
000100 94 47 ae be dd 29 25 3f 57 21 f7 bd 43 67 e8 be
       -0.34038985 0.64517003 -0.12066906 -0.45391282
000110 ef 57 c4 be 1b 7f 06 bd 3b 6a 8e 3f c4 8b 3c bd
       -0.38348338 -0.03283606 1.1126169 -0.04603173
000120 0b cf bd 3d e8 77 a7 be 0f 52 c3 be 08 9a 17 bd
       0.09268006 -0.3270867 -0.38148543 -0.03701213
000130 57 93 99 3d 57 e1 c8 bc 9c 95 b7 be f3 09 ff be
       0.07498806 -0.024521513 -0.3585633 -0.49812278
000140 08 a1 9a bd cb e5 28 3f 4f 68 79 bd 38 35 ae be
       -0.075502455 0.65975636 -0.060890492 -0.34024978
000150 44 ee 88 3e 76 d0 88 3f ed 91 2e 3f df f3 35 3e
       0.26744282 1.0688617 0.68191415 0.1776881
000160 57 34 81 bd c3 25 d7 be 98 04 84 3f e4 df 4e 3f
       -0.06308811 -0.42020997 1.0313902 0.8081038
000170 fb 03 4b bd 63 87 cb be 73 87 1d 3d 9e 37 d0 3c
       -0.049564343 -0.3975173 0.038459253 0.025417145
000180 b2 06 d4 3c 67 a9 be 3d 8a 86 d6 bd cf 26 ed bc
       0.025882099 0.09309655 -0.1047488 -0.02894917
000190 1f 15 b4 3e fc 71 94 be d3 51 26 3f 36 0d 32 3f
       0.35172364 -0.28993213 0.64968604 0.6955141
0001a0 ee f8 8c 3e 53 3b f0 be 78 b5 9b 3f 0e 06 76 3e
       0.27533668 -0.4692026 1.2164755 0.24025747
0001b0 fb 75 6a bd d2 9a 26 3f da f6 81 3f a7 16 a3 3e
       -0.05724142 0.6507999 1.0153458 0.3185322
0001c0 35 52 80 bd 87 42 04 bf 7e ed fd 3b ae b2 9c 3e
       -0.0626568 -0.5166401 0.0077492585 0.30605072
0001d0 fc da ad be f6 26 cf 3b e7 29 34 3f 2c 2e d4 3f
       -0.33956134 0.006321783 0.7037644 1.657659
0001e0 48 91 82 3c d8 8c 9d bd 57 37 6b bd c2 cf 93 3f
       0.015938416 -0.076928794 -0.057425823 1.1547778
0001f0 b3 49 e6 be d7 64 22 3c f9 e6 94 3f 13 b6 c9 bb
       -0.44978103 0.009911737 1.1632987 -0.006155738
000200 d3 ac 18 3f ab 96 bf 3c d9 2f 58 3f 04 29 9e 3d
       0.5963871 0.023387274 0.8444801 0.07722667
000210 ab 0e bb 3d e2 59 8b 3f 47 52 e5 be d0 5b 4c bd
       0.09133657 1.0886805 -0.44789335 -0.049892247
000220 20 db 85 3f aa a0 0d 3f 51 e5 00 3f ff 6c 00 3f
       1.0457497 0.5532328 0.5034991 0.50166315
000230 90 41 b8 bc 05 89 20 3f 3b 7d c6 be 87 8e 0c 3d
       -0.0224922 0.62709075 -0.38767418 0.034315612
000240 57 57 d5 bd bf 73 e2 be 9c ff 89 bd 1a e0 2c be
       -0.104170494 -0.44228932 -0.06738207 -0.16882363
000250 77 d1 2f 3f 25 16 e0 3e 53 9d 18 3d fb 9d cc bc
       0.68678993 0.43766895 0.03725941 -0.024977675
000260 71 1a ea 3d 54 e8 a2 be ac 26 bc be b6 53 04 3f
       0.114308245 -0.31817877 -0.36748254 0.5169023
000270 3f ea 19 3f 71 fd 47 3f f0 71 0c bd 0f b7 db bc
       0.60123056 0.78121096 -0.034288347 -0.026820688
000280 fe d3 fa 3f 6c 6a a9 ba fe d8 c9 3c a4 c8 ed 3e
       1.9595945 -0.0012925393 0.024639603 0.4644214
000290 d3 ca 3d 3e 6c 47 95 be c5 dc 11 3f d0 5f 2f bd
       0.18534403 -0.29156053 0.5697749 -0.042815983
0002a0 0e f7 76 3f a3 35 ec 3d ce 4b cd 3c 7c ed 9d be
       0.96470726 0.11533668 0.02506056 -0.3084525
0002b0 af 54 6e bd fc e9 99 bc c7 03 66 bb da 69 be 3e
       -0.05818623 -0.01878833 -0.0035097466 0.37190133
0002c0 98 30 9d 3d 19 1b 03 bd ff 2f c3 bd e8 a3 28 bd
       0.07675284 -0.032008264 -0.09530639 -0.04117194
0002d0 e7 bc 0f 3d d0 9b af be 44 51 80 3e bb f2 f3 be
       0.03509226 -0.34298563 0.25062 -0.47646126
0002e0 76 dd d2 3f fb ac c7 be 13 10 fc bd bf b3 b6 3c
       1.6473835 -0.3899916 -0.123077534 0.022302506
0002f0 ec d8 b5 bc 3b 3b 9a 3d 9c 6d 37 bc 9e de 84 3e
       -0.022198163 0.075308286 -0.0111955665 0.25951093
000300 cc 0f 38 bd 67 7c 07 3d a8 39 23 bd 31 9d 37 3f
       -0.04493694 0.033077624 -0.039849907 0.7172423
000310 f8 04 92 bd 39 6b 7e 3e 6b c9 d1 be 6b 4d 8a 3c
       -0.07129854 0.2484559 -0.40973982 0.016882619
000320 c4 a6 b0 bc 43 38 e5 be f8 bf 86 bd 4a 47 d8 3d
       -0.021563895 -0.44769487 -0.06579584 0.10560472
000330 da 15 27 40 e9 6e 80 3c 33 a1 ff 3f e2 e9 59 be
       2.6107087 0.015677886 1.9971069 -0.21280625
000340 74 e7 ab be 12 bf ed 3b d0 49 89 bd a4 f7 9f 3f
       -0.33575022 0.0072554434 -0.06703532 1.2497449
000350 54 5d 85 3f b6 5f 2e 3d 6b 2e 18 3f f4 19 9a be
       1.0419106 0.042571746 0.5944583 -0.30097926
000360 6f be c9 be b3 4b 28 3d c7 a9 cc 3e 7a 4c 4e 3f
       -0.39403102 0.041087817 0.3997328 0.80585444
000370 c9 f2 4b be 8f 1c e7 bc 52 f9 e6 3c 24 6c 3d be
       -0.19916834 -0.02821186 0.028195057 -0.18498284
000380 d5 ca 05 3f 02 61 6d 3d 00 04 bd bc 02 2a f7 3d
       0.5226262 0.057953842 -0.023073196 0.12068559
000390 0c 9d 9f bd 98 31 5a 3f 9b aa 80 3f 40 f0 a9 3f
       -0.07793626 0.85231924 1.0052065 1.3276443
0003a0 a3 c3 f9 bc 39 3d 11 40 f0 c3 1e bd 6b 72 d8 bb
       -0.030488795 2.2693617 -0.03876108 -0.0066054366
0003b0 60 f6 88 bd 3b 9d 58 bd 2b 72 66 bd c3 95 86 be
       -0.06687617 -0.05288432 -0.056261223 -0.26286134
0003c0 3c c3 99 be 7c 97 1e ba d3 92 61 be 6c ac 94 bc
       -0.30031765 -0.00060497946 -0.22028665 -0.018148623
0003d0 bf 7f 5b 3f c2 41 12 be 82 0a d8 3e 86 1b fa 3d
       0.857418 -0.14282897 0.42195517 0.12212281
0003e0 5f bc bc be 96 ea 9d 3d f7 fc 9e bc d3 6f 61 be
       -0.36862466 0.07710759 -0.019407732 -0.22015314
0003f0 15 df 70 3f 0e 93 10 3f 6c 9d b2 be b5 bd be 3f
       0.94090396 0.5647439 -0.34885728 1.4901644

q.4.weight f4 [10, 256]
000000 10 dd 97 bc a8 17 89 be de 62 c9 be 8e f1 c1 be
       -0.018538028 -0.2677586 -0.39333242 -0.37879604
000010 55 f0 83 bf 05 18 ab bf 34 02 ae be c2 61 43 bc
       -1.0307719 -1.3366705 -0.33986056 -0.011925163
000020 6e 5d c6 bd a8 88 2b bd e2 48 4b bd b2 eb fd 3c
       -0.09685789 -0.041878372 -0.049630053 0.030996177
000030 3a 8d d4 3c ea 3a d1 bd 63 0f 31 bf 9b 20 aa be
       0.025946248 -0.10216315 -0.69164103 -0.33228
000040 a6 21 a9 bf 5c d6 f0 3c 0f bc bd be 90 ed 1d bd
       -1.3213394 0.02939909 -0.3705754 -0.038556635
000050 7a 46 52 3d 31 e5 20 bf fc eb 86 bf 47 ec 57 bd
       0.051336743 -0.6284972 -1.0540767 -0.052715566
000060 e7 c5 9f bd 57 69 91 bd 3b 1a 96 bf 8a 17 5c bc
       -0.07801419 -0.0710017 -1.1726755 -0.0134333465
000070 42 4b c3 bd 80 14 39 bf b7 46 b5 bf c0 79 89 bf
       -0.09535839 -0.72296906 -1.4162205 -1.074028
000080 84 d8 6f bc f2 fc 57 bf da 38 ea be 2e b5 82 3b
       -0.014639024 -0.8437034 -0.457465 0.0039888835
000090 e4 1d 84 3c 26 9b 56 bd 94 34 80 be a8 70 41 bb
       0.016127534 -0.052394055 -0.25040114 -0.0029516611
0000a0 c4 1f 86 3c 77 c3 ad bd 78 4a e0 be 0c 17 3d 3d
       0.016372569 -0.084845476 -0.43806815 0.046164557
0000b0 bc d9 c3 3c a5 aa 5e bf 6b 92 95 bd 79 54 c3 bf
       0.023907535 -0.8697913 -0.07303318 -1.5260154
0000c0 4d ac aa bf e3 7e 90 bd 64 6a 98 bd cf 3f a7 bf
       -1.3333832 -0.07055452 -0.074421674 -1.3066348
0000d0 c2 9d 7a 3a 36 3b 5f bf d8 c1 13 3c 7b 0e 52 3a
       0.0009560251 -0.87199724 0.009018384 0.0008013022
0000e0 f9 3c f3 bc 73 ca 8c be b0 4b 80 bd 0b 55 bb bf
       -0.02969216 -0.27498206 -0.06264436 -1.4635328
0000f0 86 1d 4c bf 0c f5 08 be ba d5 71 3e 6d e7 96 bf
       -0.7973255 -0.13374728 0.23616686 -1.1789376
000100 23 f2 f5 bc 10 49 b4 bf aa f0 e2 bc 3f 40 7f bf
       -0.030022686 -1.4084797 -0.027702648 -0.99707407
000110 cc 91 80 be 43 b3 d3 3c 50 50 50 bf a7 c1 59 3d
       -0.25111234 0.025842315 -0.8137255 0.053163197
000120 33 65 48 bd 6c e3 ad bd 98 33 a5 be de 14 42 3d
       -0.048924636 -0.08490643 -0.32265925 0.04738318
000130 34 83 39 bd a7 aa fa bb 13 a7 dd be f3 b5 bc be
       -0.04529114 -0.007649738 -0.4329153 -0.36857566
000140 60 6a 20 3d 44 59 51 bf 43 f9 bf 3c ee ee a0 be
       0.039163947 -0.81776834 0.023434287 -0.3143229
000150 86 c9 c7 bf 00 1d 98 bf 06 e0 87 bf 27 a0 b2 bb
       -1.5608375 -1.188385 -1.0615242 -0.0054512206
000160 d6 4b 59 bd 73 47 b5 be 0b c1 e5 bf 21 d3 f5 be
       -0.05305084 -0.35406074 -1.7949537 -0.4801264
000170 87 9e 15 bd 03 25 a2 be 3b e2 72 bd 02 d5 4e 3d
       -0.036528137 -0.31668863 -0.05929778 0.05049611
000180 3b 11 a1 bd db 9e 8c bd ab 1d 6d be 7c 4a 26 bd
       -0.078646146 -0.06866237 -0.23155849 -0.040598378
000190 37 f2 9b bd 33 13 d9 bd 6e a6 8f bf 13 db 91 bf
       -0.07614558 -0.10599365 -1.1222665 -1.1394981
0001a0 df bd 1b be a8 9b 11 bf 80 de b3 be 81 67 7d bf
       -0.15209149 -0.5687814 -0.35130692 -0.9898606
0001b0 b2 bc fa bc 56 2a 96 bf d5 47 97 bf b7 54 39 bd
       -0.030607555 -1.173167 -1.1818796 -0.045246806
0001c0 e7 aa 08 3d a7 7f 28 bf 9c 14 c3 bc 48 5d 4f bf
       0.03336611 -0.6581978 -0.023813538 -0.8100171
0001d0 c2 d9 43 be 4e 1f 09 3d e9 e9 88 bf ee 24 1f bf
       -0.19126037 0.03347712 -1.0696384 -0.62165725
0001e0 42 d3 7e bd 7b 4f 20 bd e0 33 b7 bc 08 6e 1f bf
       -0.06221319 -0.0391383 -0.022363603 -0.6227727
0001f0 f2 1c d3 be 3e 34 d4 bd 0b 89 5b bf 38 4c 97 bb
       -0.4123302 -0.10361527 -0.85755986 -0.0046172403
000200 7a ab ca bf ee 68 4c bd 47 f0 ad bf e3 7e c7 bc
       -1.583358 -0.049904756 -1.3588952 -0.024352496
000210 66 66 cf bc 71 5d 36 bf 60 a1 a6 be 98 eb 57 3d
       -0.025317382 -0.7123633 -0.32544994 0.052714914
000220 5b 21 20 3e 7a 4d 1b bf 0a 44 a2 bf 27 2f a2 bf
       0.15637724 -0.60665095 -1.2677014 -1.267064
000230 2b a7 85 bd 57 50 72 bf 0d 46 82 be 27 8b 38 bc
       -0.065260254 -0.9465384 -0.2544407 -0.011263645
000240 bb 76 98 bb b3 c7 ae be 77 a2 dd bb 13 ca 8b bf
       -0.0046528256 -0.34136733 -0.006763752 -1.0921043
000250 37 5c 86 bc b9 93 2d bf 57 ef 26 bc 6b 80 2c 3c
       -0.016401393 -0.6780353 -0.010188899 0.010528664
000260 80 32 ee be 07 f0 87 be f4 14 a9 be 0e 7a d2 bd
       -0.46522903 -0.26550314 -0.33023798 -0.10277186
000270 e1 78 cf bf 09 6f a6 be 67 d7 e0 bd 68 ed 1d bd
       -1.6208764 -0.32506588 -0.10978585 -0.038556486
000280 43 cd 1a bf 62 a8 6b bd 3e 51 69 bb 20 65 b6 bf
       -0.60469455 -0.05753363 -0.0035601403 -1.4249611
000290 d3 2d a1 bd 7a 84 40 be 77 db 8b bf d7 ac 34 3d
       -0.078700684 -0.18800536 -1.092635 0.044110145
0002a0 86 fc 74 bf f5 53 02 bd cf f6 10 3d fe eb 00 bd
       -0.9569782 -0.03181835 0.035391625 -0.03147506
0002b0 98 79 96 3c f2 f8 08 3d bb 1c 0e bd 54 e8 f1 bf
       0.018368527 0.033440538 -0.03469537 -1.8899026
0002c0 7b 88 82 bf af 9b 98 bc 04 0e 20 bd 2e 15 fe 3b
       -1.01979 -0.018628923 -0.039075866 0.0077539897
0002d0 6c 5a 83 bd 93 f2 bc be 4b 87 05 3d 38 02 be be
       -0.06413731 -0.3690382 0.03259973 -0.37111068
0002e0 d6 11 0d bf e6 d8 e1 be 67 85 1c bd 7c ab eb 3c
       -0.5510534 -0.44110793 -0.03821316 0.028768294
0002f0 c3 26 9f 3c 2e d0 77 bd 04 d2 85 bc 7b da dd bd
       0.019427663 -0.06050127 -0.016335495 -0.108326875
000300 cc e3 b6 3c 46 ae ca 3c 07 a0 20 bd 55 69 b5 bf
       0.022325419 0.024741303 -0.039215114 -1.417277
000310 d0 65 82 3d 94 0c e4 bf 96 0f e7 be bf 5c 9f 3c
       0.063670754 -1.7816339 -0.4512908 0.019453404
000320 73 10 2b 3d c3 4c 88 be 4a 35 c2 bd 1b 7b 98 3c
       0.041763734 -0.26621065 -0.0948282 0.018613389
000330 84 80 bb 3d c1 39 d1 be 69 7f 09 bf c0 d8 b9 bc
       0.09155372 -0.40864375 -0.5371004 -0.022686362
000340 d8 ca 2f be 72 ed c8 bc cf 2b 27 3d e2 c7 4b bf
       -0.17167222 -0.024527285 0.040813264 -0.7960187
000350 34 a8 a4 bf ee 40 79 bc 8a b5 1a bf e3 fa f0 bb
       -1.2863832 -0.015213234 -0.60433257 -0.007354127
000360 c7 01 68 bf ff 5f b6 bd d5 ff 9c bf 49 bb 83 bf
       -0.9062771 -0.089050286 -1.2265574 -1.029153
000370 22 41 0c bf 5c cd 97 bc 4b b8 19 bd 37 25 43 3c
       -0.54786885 -0.01853054 -0.03752927 0.011910728
000380 76 d9 fb 3b 97 55 b5 bc 32 eb f1 3c 22 ec e7 bd
       0.0076858355 -0.022135539 0.029531095 -0.11324336
000390 00 a7 08 bd ba e2 c8 bf ee 32 8d be b9 4b 2b bf
       -0.03336239 -1.5694191 -0.2757792 -0.6691242
0003a0 c2 c7 55 3d 32 22 a4 3e 07 92 a9 bc 8b 93 bf 3c
       0.052192457 0.3205734 -0.020699514 0.023385784
0003b0 37 96 2c bd f3 63 eb bc 3c 85 c0 bc f6 ab 6a 3c
       -0.042135444 -0.028734183 -0.023501031 0.014323225
0003c0 c4 db 84 be f7 1c 8e 3c 3f 11 72 bd 4e b1 dd 3c
       -0.25948918 0.017347796 -0.05909848 0.027062085
0003d0 ee 8e cc be 54 3f 09 be 4a cc df 3c 5a 2e c3 bc
       -0.39952797 -0.13403064 0.027319092 -0.023825813
0003e0 c9 66 02 bf bf 8a 0a bd a0 bf 89 bd 16 73 6a bd
       -0.5093809 -0.033823725 -0.06726003 -0.05723866
0003f0 c3 5b 95 bf 45 de ae bf 2f 59 bf be 99 56 29 bf
       -1.1668628 -1.3661581 -0.3737273 -0.6614776

q.4.bias f4 [10]
000000 b0 fa 46 40 2c e4 d6 40 55 b5 14 41 5a ab c4 40
       3.1090508 6.715353 9.2942705 6.145917
000010 db d1 24 40 ea 5f ad 40 30 15 91 41 42 48 9d 3f
       2.5753086 5.4179583 18.135345 1.2287676
000020 71 47 3f 41 51 f0 ab 40
       11.954942 5.3730855
