task4/task3_experiment_2_c_local_pi.pt (torch, 281951 bytes, 6 tensors)

q.0.weight f4 [256, 5]
0	0x3e350e0c	0.1768114
1	0x3daa6b53	0.08321252
2	0xbf3035fc	-0.68832374
3	0xbd4f126e	-0.050554685
4	0xbe26aaea	-0.16276136
5	0xbf0464e7	-0.51716465
6	0x3d7218a1	0.05910552
7	0xbe2df70d	-0.16988774
8	0xbe34aa08	-0.17642987
9	0xbeb59145	-0.35462394
10	0x3cca190c	0.024670146
11	0xbeb79e52	-0.35862976
12	0x3e84aee8	0.25914693
13	0x3f067fac	0.5253856
14	0xbd8468f4	-0.06465331
15	0x3f4d9fb2	0.803218
16	0xbe4b73ea	-0.19868436
17	0x3f6dd797	0.9290709
18	0x3e236a67	0.15958558
19	0x3ed3ae24	0.41343796
20	0x3f0e8b26	0.55681074
21	0x3e867df2	0.26267964
22	0xbe10600c	-0.14099139
23	0xbede79ac	-0.43452203
24	0x3e80dd02	0.25168616
25	0xbdba63cc	-0.09101066
26	0x3e965eff	0.2936935
27	0xbe92be07	-0.28660604
28	0x3e0be10e	0.1366007
29	0xbe350512	-0.17677715
30	0x3dd68b92	0.1047584
31	0xbf6ab2fe	-0.9167937
32	0xbd9a8f1b	-0.075468265
33	0xbec93bad	-0.39303342
34	0xbe32a3fa	-0.17445365
35	0x3f11fe46	0.57028615
36	0xbe6ae67c	-0.22939485
37	0x3f544212	0.82913315
38	0xbecf906e	-0.4053988
39	0x3ebad38c	0.36489522
40	0xbf0f686c	-0.5601871
41	0xbf0d092d	-0.55092126
42	0xbee850f8	-0.45374274
43	0xbed16b5b	-0.40902218
44	0x3eb2e270	0.34938383
45	0x3efbc1a3	0.4917117
46	0xbe4f0d47	-0.20219909
47	0x3f3b61ff	0.73196405
48	0x3e7ffc87	0.24998675
49	0x3e60082c	0.21878117
50	0xbe9cc843	-0.30621538
51	0xbf23378d	-0.6375664
52	0x3ed11500	0.40836334
53	0xbf1a4aa4	-0.6027014
54	0x3d301310	0.04298693
55	0x3ecc0585	0.3984796
56	0x3e54b60a	0.20772567
57	0xbeb6946b	-0.3566011
58	0xbe7f3c4b	-0.24925344
59	0xbedde642	-0.43339735
60	0xbeb720a2	-0.35767084
61	0x3ed0b85c	0.40765655
62	0xbe74ae17	-0.23894535
63	0xbe1b88d0	-0.15188909
64	0x3d4ccce0	0.05000007
65	0x3eb1833d	0.3467044
66	0xbe9370da	-0.28797036
67	0x3efeb033	0.49743804
68	0xbea5eeb3	-0.32408676
69	0xbe85af40	-0.26110268
70	0xbf3c624a	-0.7358748
71	0x3eca52d6	0.39516324
72	0xbf8b4f22	-1.0883524
73	0x3ef115bc	0.47086895
74	0xbd0e3828	-0.034721524
75	0xbd1d78ff	-0.03844547
76	0x3e121581	0.14266016
77	0xbe86acf5	-0.2630383
78	0xbf7bc3b0	-0.9834547
79	0x3e91b492	0.28458077
80	0x3e2c1699	0.16805495
81	0x3f262c8b	0.6491172
82	0xbe8ae238	-0.27125716
83	0xbcf7f570	-0.0302684
84	0xbe9bc7ce	-0.30425876
85	0xbde5a763	-0.11213567
86	0xbf3d62ca	-0.73978865
87	0xbe4e6d7a	-0.2015895
88	0xbecb4148	-0.39698243
89	0xbe265f84	-0.16247374
90	0x3e5aea70	0.21378493
91	0x3e2a47f4	0.1662901
92	0x3e00cd6c	0.12578362
93	0x3da28058	0.07934636
94	0xbda0d0f4	-0.07852355
95	0xbde97af9	-0.11400408
96	0xbd8f895a	-0.070086196
97	0x3f325eb3	0.6967575
98	0x3dfe7d92	0.124262944
99	0xba83fc00	-0.0010069609
100	0x3e3bd227	0.18341886
101	0xbdc42324	-0.09577015
102	0x3e922cdb	0.28549847
103	0xbeacc28e	-0.33742183
104	0xbd072600	-0.032995224
105	0x3e0dab90	0.13834977
106	0xbedbbfb7	-0.42919704
107	0xbd9026e9	-0.070386715
108	0xbebaa6df	-0.36455438
109	0x3ed261ec	0.41090333
110	0x3d125bb1	0.035731975
111	0x3f25b6f6	0.647323
112	0x3c920e3a	0.01782905
113	0x3f73daf9	0.95256
114	0xbe0c2426	-0.13685665
115	0xbeda3d27	-0.4262478
116	0x3e91e5bb	0.28495583
117	0xbed86585	-0.42264953
118	0x3f49bacc	0.78800654
119	0xbe9860ee	-0.2976145
120	0x3ec01079	0.37512568
121	0x3e08039b	0.13282625
122	0x3f4a3ccf	0.78999037
123	0x3eae3e0a	0.34031707
124	0x3d22e428	0.039768368
125	0x3e1dcccb	0.15410154
126	0x3dbfe04c	0.09368953
127	0x3f6bd980	0.92128754
128	0xbdb21a32	-0.086964026
129	0x3e43b51c	0.19112056
130	0xbb0aafb2	-0.0021161851
131	0x3ed41373	0.4142109
132	0xbea91798	-0.33025813
133	0x3f51a2de	0.8188914
134	0x3e97fa0e	0.29682964
135	0x3e3a52b4	0.18195611
136	0xbede32bd	-0.43398085
137	0x3ae1fd00	0.0017241538
138	0xbe5491bf	-0.20758723
139	0x3ed56418	0.41677928
140	0xbebbee57	-0.36705276
141	0x3f1dba11	0.6161204
142	0xbd0b5867	-0.034019854
143	0x3ec1ae61	0.37828353
144	0x3e935612	0.28776604
145	0x3efd797f	0.49506757
146	0x3d8d7633	0.0690731
147	0x3b859746	0.004076871
148	0x3e8cee52	0.27525574
149	0xbea4f756	-0.32219952
150	0x3df840f1	0.121217616
151	0xbd9591c8	-0.07303196
152	0x3f73d617	0.9524855
153	0xbf5ba704	-0.8580172
154	0xbeb9e2fc	-0.36305988
155	0x3e3adc43	0.18248086
156	0x3f3e3470	0.74298763
157	0xbe5ef2fc	-0.21772379
158	0xbf4b24d7	-0.7935309
159	0x3ead7926	0.3388149
160	0x3b3b54fa	0.0028584586
161	0x3c18a41d	0.009316471
162	0x3d3428d9	0.043984268
163	0xbc658461	-0.014008612
164	0xbe7baf32	-0.2457855
165	0xbf66272d	-0.8990353
166	0xbc9eddd5	-0.019392887
167	0xbf62772f	-0.8846311
168	0x3ccaaa1e	0.024739321
169	0xbd1c41a0	-0.038148522
170	0x3e84c1c2	0.25929075
171	0xbd932b88	-0.07186037
172	0x3e0a0548	0.13478577
173	0xbd90926c	-0.07059178
174	0x3e617820	0.2201848
175	0xbf13c419	-0.57721096
176	0xbeaf5f5e	-0.34252447
177	0xbf5f576e	-0.8724278
178	0xbe464dd5	-0.19365628
179	0xbe7dbd4c	-0.24779242
180	0xbf298dbf	-0.6623191
181	0x3f227be2	0.6347028
182	0x3e2faf66	0.17156753
183	0xbf55fb93	-0.83586997
184	0x3edba152	0.42896515
185	0xbe076210	-0.13221002
186	0xbf02cbb6	-0.5109209
187	0x3dd45eb9	0.103696294
188	0xbea06e89	-0.31334332
189	0x3e20c698	0.15700758
190	0x3eaf39f2	0.34223896
191	0xba8b8f13	-0.0010647498
192	0x3f6fdd9f	0.9369754
193	0xbf11a045	-0.56885177
194	0xbec73274	-0.3890568
195	0xbdc05dbb	-0.09392878
196	0xbeed57b8	-0.46355987
197	0x3eb1970d	0.34685555
198	0xbf722973	-0.94594496
199	0x3d667080	0.056259632
200	0x3d881be2	0.06645943
201	0x3f52ddd2	0.8236972
202	0xbf409a34	-0.75235295
203	0x3eb678d1	0.3563905
204	0x3da61ba8	0.08110744
205	0xbac74c4e	-0.0015205236
206	0x3c125f4a	0.0089338515
207	0xbf87b83d	-1.06031
208	0x3db2e178	0.08734411
209	0x3e014940	0.12625599
210	0x3eed2c8f	0.46323058
211	0xbd803425	-0.06259946
212	0x3f74d3f3	0.9563591
213	0x3dde0729	0.108412094
214	0x3e540bfc	0.20707697
215	0x3f0d9d94	0.5531857
216	0xbde22851	-0.11042846
217	0x3f3476b4	0.70493627
218	0xbd7da5c6	-0.061925672
219	0x3ed1396e	0.40864128
220	0xbebd0cd0	-0.36923838
221	0xbe25b2d0	-0.16181493
222	0xbe0c181f	-0.13681076
223	0x3f94c523	1.1622661
224	0x3e78eec8	0.24309838
225	0x3e62af74	0.22137243
226	0x3ebf0854	0.3731104
227	0x3da11ee0	0.07867217
228	0xbd97d654	-0.07413927
229	0xbcedca60	-0.029027164
230	0x3ef4648f	0.4773297
231	0x3df9e79c	0.12202379
232	0x3f6ba60a	0.9205023
233	0xbe4b439c	-0.1985001
234	0xbd0d7468	-0.03453484
235	0x3eb64f27	0.35607263
236	0x3e8c9a5c	0.27461517
237	0x3f61a1ac	0.88137317
238	0x3e988b09	0.29793575
239	0x3ecde1b0	0.40211248
240	0x3e0a6bbc	0.1351766
241	0xbe67ace1	-0.22624542
242	0xbcac26e0	-0.02101463
243	0x3e3144a4	0.1731134
244	0x3ca64070	0.020294398
245	0xbe51e828	-0.20498717
246	0xbe75e34f	-0.24012493
247	0xbec13f60	-0.37743664
248	0xbf78373b	-0.96959275
249	0x3cd2dc20	0.02573973
250	0xbf0ff9fc	-0.5624082
251	0xbe4e0c33	-0.20121841
252	0x3f0762d8	0.528852
253	0x3e44dbf2	0.19224527
254	0xbe8aeac1	-0.27132228
255	0x3f05f8f7	0.52333015

q.0.bias f4 [256]
0	0xbe215a77	-0.15757166
1	0xbe1f9820	-0.15585375
2	0xbc968f1b	-0.018378785
3	0xbe433284	-0.19062239
4	0xbdeab41f	-0.114601366
5	0xbe9686a1	-0.2939959
6	0xbe161d1e	-0.14659545
7	0xbc33a17a	-0.010963792
8	0xbe01fa15	-0.12693055
9	0xbe4a5e30	-0.19762492
10	0xbdbd83e0	-0.09253669
11	0xbbb6b23e	-0.0055754473
12	0xbee37d24	-0.44431412
13	0xbd7ce506	-0.06174185
14	0xbd054f79	-0.032546494
15	0xbd92ae1b	-0.07162114
16	0xbea53eb2	-0.32274395
17	0xbe58a8da	-0.21158162
18	0xbec2ffc0	-0.38085747
19	0xbe821797	-0.25408623
20	0xbe893894	-0.26800978
21	0xbea1a7f0	-0.3157344
22	0xbd89dabc	-0.067311734
23	0xbdc1ebaf	-0.09468781
24	0xbd5ccfa6	-0.053908966
25	0xbdcc0b60	-0.09963107
26	0xbe0badd7	-0.13640533
27	0xbee4d94f	-0.44697043
28	0xbe44f9a0	-0.1923585
29	0xbcea1ee6	-0.028579187
30	0xbcfcef61	-0.030875864
31	0xbc2c1b05	-0.010504489
32	0xbd09f981	-0.03368521
33	0xbc390ce2	-0.011294575
34	0xbecd93d1	-0.40151837
35	0xbda3c45a	-0.079964355
36	0xbed84275	-0.42238203
37	0xbd8cfc84	-0.06884101
38	0xbde75dbf	-0.112971775
39	0xbe728269	-0.2368256
40	0xbe3c46d8	-0.183864
41	0xbdfb86b4	-0.12281552
42	0xbd83dab3	-0.06438198
43	0xbd9ac034	-0.07556191
44	0xbe4d3f15	-0.20043595
45	0xbee47cc7	-0.44626448
46	0xbdcd507c	-0.10025117
47	0xbe3e875e	-0.18606326
48	0xbe8d6ef2	-0.27623707
49	0xbc628f3a	-0.013828093
50	0xbb00f189	-0.0019675216
51	0xbe1ed1b7	-0.15509687
52	0xbdd2cdb2	-0.102931395
53	0xbe08138b	-0.13288705
54	0xbd2d5467	-0.04231682
55	0xbd697f29	-0.057006035
56	0x3d866971	0.0656308
57	0xbe0dea8f	-0.13859008
58	0xbde82955	-0.113360085
59	0xbe16c401	-0.14723207
60	0x3ccf8216	0.025330584
61	0xbd28166b	-0.041037004
62	0xbdf6f8a1	-0.12059141
63	0xbddeb7ac	-0.108748764
64	0xbdbd731e	-0.092504725
65	0xbe747df6	-0.23876175
66	0xbedd7471	-0.432529
67	0xbdd8de75	-0.10589305
68	0xbd1e6cfb	-0.03867815
69	0xbe0cc6ef	-0.13747762
70	0xbeef2fdf	-0.4671621
71	0xb9bac537	-0.0003562362
72	0xbd009fc9	-0.031402383
73	0xbe06e844	-0.1317454
74	0xbe5f5169	-0.218084
75	0xbe1828db	-0.14859335
76	0xbe0dde15	-0.13854249
77	0xbe602dd7	-0.21892487
78	0xbd8b81be	-0.06811856
79	0xbe3796d6	-0.17928633
80	0xbe918ec6	-0.2842924
81	0xbe4779fd	-0.19480129
82	0xbcfe160d	-0.031016374
83	0xbe0ea6e1	-0.13930847
84	0xbe0a4b84	-0.1350537
85	0xbe049fc1	-0.12951566
86	0x3d3afa4b	0.045648854
87	0xbd3d4e78	-0.04621741
88	0xbe636594	-0.22206718
89	0xbd78a459	-0.06070361
90	0x3b9f6ebf	0.004865497
91	0xbd52c214	-0.05145462
92	0xbde469f1	-0.11153019
93	0xbe2d4f05	-0.16924675
94	0xbe2c868d	-0.16848202
95	0xbd953cc8	-0.07286984
96	0xbe3f246e	-0.1866624
97	0x3ae64a2e	0.0017569715
98	0xbd9ee82f	-0.07759129
99	0xbdebd451	-0.115151055
100	0xbeb39fa2	-0.35082728
101	0xbda91ee1	-0.08257843
102	0xbe09e1fa	-0.1346511
103	0xbd384833	-0.04499073
104	0xbde87ff7	-0.11352532
105	0xbe35a151	-0.17737319
106	0x3ab93d58	0.0014132662
107	0xbe526d55	-0.2054952
108	0xbde8eec7	-0.11373668
109	0xbd8ea3d0	-0.069648385
110	0xbe2700b5	-0.16308863
111	0xbe9b466a	-0.3032716
112	0xbe249f77	-0.16076456
113	0xbe2654cc	-0.16243285
114	0xbe831d3a	-0.25608236
115	0xbdafd3de	-0.08585332
116	0xbeb401fe	-0.3515777
117	0xbe59bae3	-0.21262698
118	0xbec8e836	-0.39239663
119	0xbe72ae3d	-0.23699279
120	0xbd59eb55	-0.053202946
121	0xbe306353	-0.17225389
122	0xbc215c2f	-0.009848638
123	0xbe389dc9	-0.1802894
124	0xbdfdc5d4	-0.12391248
125	0xbe85bed1	-0.26122144
126	0xbed69fea	-0.4191888
127	0xbdf67c16	-0.12035386
128	0xbed421f1	-0.41432145
129	0xbdc864e2	-0.09784867
130	0xbe06e6f1	-0.13174035
131	0xbd467f1d	-0.04846107
132	0xbe2023f9	-0.15638722
133	0xbe222807	-0.15835582
134	0xbe3d4ec0	-0.18487072
135	0xbe58a643	-0.21157174
136	0xbe15ad71	-0.14616944
137	0xbe3f1d4d	-0.18663521
138	0xbea791ba	-0.32728368
139	0xbd9842bc	-0.074346036
140	0xbe9ef199	-0.310437
141	0xbc4e90a3	-0.012607726
142	0xbe92b62b	-0.28654608
143	0xbe9cfa9b	-0.30659947
144	0xbe07ef42	-0.13274863
145	0xbe5f99a9	-0.2183596
146	0xbdb09e10	-0.08623898
147	0x3bcda983	0.006276311
148	0xbee0c02e	-0.4389662
149	0xbed0a142	-0.4074803
150	0xbe2243c1	-0.15846159
151	0xbe06823c	-0.13135618
152	0xbe93a270	-0.28834867
153	0xbdd646e2	-0.104627386
154	0xbe360b79	-0.17777814
155	0xbe09e58a	-0.13466468
156	0xbd231547	-0.039815214
157	0xbda6727a	-0.081273034
158	0xbd9e055d	-0.07715867
159	0xbe21b043	-0.15789895
160	0xbe7b9506	-0.24568567
161	0xbed8e562	-0.42362505
162	0xbeabc929	-0.3355191
163	0xbe4c0139	-0.19922341
164	0xbe95fb9b	-0.29293522
165	0xbb8892f9	-0.004167911
166	0xbe2a0eae	-0.16607162
167	0xbe2ae3cd	-0.16688462
168	0xbe535f45	-0.20641811
169	0xbe4b5ec2	-0.19860366
170	0xbe2258ed	-0.15854235
171	0xbeb339ed	-0.3500513
172	0xbddb076a	-0.106947735
173	0xbdda5dc3	-0.10662415
174	0xbdd9c543	-0.10633328
175	0xbea8444d	-0.3286461
176	0xbedbfbd5	-0.4296557
177	0xbd87b6d2	-0.06626667
178	0xbdd85008	-0.1056214
179	0xbe38ffa0	-0.18066263
180	0xbddbcd6f	-0.10732543
181	0xbeb004d1	-0.34378675
182	0xbe11a2e1	-0.1422229
183	0xbd938dd0	-0.07204783
184	0xbbfb73d0	-0.007673718
185	0xbe04263c	-0.1290521
186	0xbce199c6	-0.027539145
187	0xbde27b10	-0.110586286
188	0xbe501082	-0.20318797
189	0xbeebe449	-0.46072605
190	0xbe87bb0f	-0.26509902
191	0xbe515afb	-0.20444863
192	0xbda92b37	-0.08260196
193	0xbecf1183	-0.40443048
194	0xbc998f01	-0.018744947
195	0xbc60b11d	-0.013714102
196	0x3ca5e2df	0.020249782
197	0xbeb72746	-0.3577215
198	0xbd5cbc76	-0.053890668
199	0xbe9fc402	-0.3120423
200	0xbe91c41d	-0.28469935
201	0xbe066872	-0.1312578
202	0xbf0f9615	-0.5608838
203	0xbdfed057	-0.124420814
204	0xbdf27e2f	-0.11840474
205	0xbeba5fce	-0.36401218
206	0xbe22b297	-0.15888439
207	0xbe8619a5	-0.2619144
208	0xbe1ef017	-0.15521275
209	0xbe248202	-0.16065219
210	0xbdf440d4	-0.119264275
211	0xbe3f9985	-0.18710907
212	0xbbe432da	-0.00696407
213	0xbe0397b5	-0.1285084
214	0xbd35a63a	-0.04434798
215	0xbe06ed25	-0.13176401
216	0xbdcb6d08	-0.099329054
217	0xbec77056	-0.38952893
218	0xbe28b6bd	-0.16475959
219	0xbe25bd26	-0.16185436
220	0xbecd2365	-0.40066066
221	0xbdd4cc90	-0.1039058
222	0xbecabf04	-0.39598858
223	0xbe3fa277	-0.18714319
224	0xbe2bb680	-0.16768837
225	0xbe056f06	-0.13030633
226	0xbdd688a2	-0.104752794
227	0xbd86e391	-0.065863736
228	0xbec3cd7e	-0.38242716
229	0xbe113eac	-0.14184064
230	0xbd723632	-0.059133716
231	0xbdfb3578	-0.12266058
232	0xbe14fca4	-0.145495
233	0xbea75643	-0.32683
234	0xbec141dc	-0.3774556
235	0xbd241744	-0.04006125
236	0xbead2543	-0.3381749
237	0xbe4d9f8f	-0.20080398
238	0xbe0468fe	-0.12930676
239	0xbe90178a	-0.2814296
240	0xbc59c75a	-0.013292158
241	0xbde63beb	-0.11241897
242	0xbe931569	-0.28727272
243	0xbe055d07	-0.13023768
244	0xbdb8bff5	-0.09020988
245	0xbdbd268d	-0.092358686
246	0xbee3a4a8	-0.4446156
247	0xbe823afa	-0.2543562
248	0xbe60b4a6	-0.21943912
249	0xbe7d85eb	-0.24758117
250	0xbde0f769	-0.1098469
251	0xbd963bbf	-0.073356144
252	0x3c334558	0.010941826
253	0xbe011c5a	-0.12608472
254	0xbed90e7c	-0.42393863
255	0xbd127315	-0.035754282

q.2.weight f4 [256, 256]
0	0xbed392ac	-0.4132284
1	0xbef9fafa	-0.48824292
2	0xbee5a8d9	-0.44855383
3	0x3e4db9e1	0.20090438
4	0xbe0e6463	-0.13905482
5	0xbd48d844	-0.049034372
6	0xbee90cd0	-0.45517588
7	0x3e438df6	0.19097123
8	0xbefe1101	-0.49622348
9	0x3f33305f	0.69995683
10	0xbe6423ab	-0.22279231
11	0x3e7ef0bd	0.24896522
12	0xbd2e00d4	-0.04248126
13	0x3ea70904	0.32624066
14	0x3e179ea1	0.14806606
15	0xbdcee5e3	-0.10102441
16	0xbe007ff8	-0.12548816
17	0x3d7c9484	0.061665073
18	0x3c7610f8	0.015018694
19	0x3d8a61bf	0.06756925
20	0x3d4cc01e	0.049987905
21	0xbce44c1c	-0.027868323
22	0xbf3a6685	-0.7281268
23	0x3c1ef46b	0.0097018285
24	0x3daaf7e9	0.08348066
25	0x3e1aa87a	0.15103331
26	0xbe26b2eb	-0.1627919
27	0xbd49f682	-0.049307354
28	0x3ce2ca93	0.027684486
29	0x3e150bb8	0.14555252
30	0xbd9a7cc6	-0.0754333
31	0xbdb78800	-0.08961487
32	0x3d997978	0.074938715
33	0x3e148151	0.14502455
34	0xbd3163e2	-0.043308146
35	0xbf6dccad	-0.92890435
36	0xbf998f6b	-1.1996893
37	0xbf4504a3	-0.769602
38	0x3ec7e469	0.3904145
39	0xbebd93af	-0.37026736
40	0xbef44ea8	-0.4771626
41	0xbef59ff3	-0.47973594
42	0x3e23ed26	0.16008434
43	0x3e41f5d5	0.18941434
44	0x3d0a89e6	0.033822916
45	0x3d6d127c	0.057878956
46	0x3e9165a6	0.28397864
47	0x3e91b9fb	0.28462204
48	0xbb715180	-0.003682226
49	0xbf157956	-0.5838827
50	0x3c9708f7	0.018436892
51	0xbd4d213b	-0.05008052
52	0xbed8379e	-0.42229933
53	0xbf228c26	-0.634951
54	0xbf70fcbd	-0.9413565
55	0xbd052c57	-0.03251299
56	0xbeac04da	-0.3359745
57	0x3eb5c3cd	0.35500947
58	0xbeb8c7ba	-0.3608988
59	0x3c84e413	0.016222036
60	0xbea2d8ae	-0.31805938
61	0xbe51ef7a	-0.2050151
62	0xbf13b1a4	-0.57692933
63	0xbf03e3a2	-0.51519215
64	0x3ec72783	0.38897333
65	0xbd66e09e	-0.056366555
66	0xbd226ba6	-0.039653443
67	0xbf2b2f39	-0.6686893
68	0xbe8f4a48	-0.2798636
69	0x3e988bde	0.2979421
70	0xbeb15e44	-0.3464223
71	0x3e942a05	0.28938308
72	0x3f6995e4	0.9124434
73	0xbe6418e9	-0.22275127
74	0xbe97796a	-0.2958482
75	0xbe4d0bc4	-0.2002402
76	0xbf25bf14	-0.6474469
77	0x3ed24fa1	0.41076377
78	0xbe6a4dd0	-0.22881246
79	0xbedd0b5e	-0.43172735
80	0xbbdaea40	-0.006680757
81	0x3e9d500b	0.3072513
82	0x3d9600f5	0.07324401
83	0x3da92ed3	0.08260884
84	0xbe6c5d4f	-0.2308247
85	0xbda123b6	-0.078681394
86	0x3e83f4ec	0.25772798
87	0xbe9c440d	-0.3052067
88	0x3d9e01ec	0.0771521
89	0x3e39bf35	0.18139346
90	0x3e8b36dd	0.27190295
91	0xbf1b2651	-0.6060534
92	0x3e19b730	0.15011287
93	0x3e3787ee	0.17922947
94	0xbecac4b9	-0.39603212
95	0x3d9734a0	0.07383084
96	0xbe0e04cf	-0.13869022
97	0x3ea8d9ff	0.32978818
98	0x3d08360f	0.03325468
99	0xbeb3fe33	-0.35154876
100	0xbd32d686	-0.043661617
101	0x3e68da1e	0.22739455
102	0xbf0733fe	-0.5281371
103	0xbe0b83eb	-0.13624541
104	0xbf6fa983	-0.9361803
105	0xbf030c20	-0.51190376
106	0x3eb88fc9	0.360472
107	0x3e4308ec	0.19046372
108	0xbef79347	-0.4835455
109	0xbe7af62b	-0.24507968
110	0xbdec3e24	-0.1153529
111	0xbf791f12	-0.97313035
112	0x3e50f28a	0.20405021
113	0xbd4cff2d	-0.050048042
114	0x3f4d02f1	0.80082613
115	0xbe9e18f1	-0.30878404
116	0x3d091d1c	0.033475026
117	0x3f113f5b	0.567373
118	0xbcaee898	-0.021351144
119	0xbe49c546	-0.1970416
120	0x3e5e339a	0.21699372
121	0xbd1c97f6	-0.03823086
122	0xbe54ba05	-0.20774086
123	0xbe8c6f36	-0.27428597
124	0x3e70a017	0.2349857
125	0x3f150a56	0.58218896
126	0xbd602ad6	-0.05472835
127	0xbf4f1ef5	-0.8090661
128	0x3d624f10	0.05525118
129	0x3de5f2ed	0.11227975
130	0xbd8b99c5	-0.068164386
131	0xbfe2e20f	-1.7725238
132	0x3d21517e	0.039384358
133	0xbf0cf18e	-0.55056083
134	0xbf63f30a	-0.89042723
135	0xbe02ad90	-0.12761521
136	0xbeb88627	-0.3603985
137	0xbeb0565a	-0.3444088
138	0x3cf0f670	0.029414386
139	0xbf10d34b	-0.5657241
140	0x3f4e58ba	0.80604136
141	0x3d634fb7	0.055495944
142	0xbe9abe44	-0.30223286
143	0xbcc4cf7c	-0.024024718
144	0x3eb2553c	0.34830654
145	0xbe9f284b	-0.3108543
146	0x3dfb9bbf	0.122855656
147	0xbd65bf9f	-0.056090947
148	0x3d0c0604	0.034185424
149	0xbd292014	-0.041290358
150	0x3d286e36	0.04112073
151	0xbf312e31	-0.6921111
152	0xbbd86dfa	-0.006604907
153	0xbe71a6c4	-0.23598772
154	0xbe762463	-0.24037318
155	0xbeada4af	-0.33914706
156	0xbc975403	-0.018472677
157	0xbeb37b1d	-0.35054865
158	0xbd222b43	-0.03959204
159	0x3ea3ae16	0.31968755
160	0xbf9af1de	-1.2105062
161	0xbd591bde	-0.05300509
162	0xbeb539c8	-0.35395646
163	0xbfc7c1e1	-1.5606042
164	0xba0296a0	-0.00049815513
165	0x3d3df595	0.046376783
166	0x3eb02f78	0.34411216
167	0xbf2e1409	-0.6799932
168	0xbe7b1f37	-0.24523626
169	0xbf8b16b8	-1.0866308
170	0xbf05606d	-0.5210026
171	0x3d1b72c8	0.03795126
172	0xbe871fcc	-0.26391447
173	0x3e2f8573	0.1714075
174	0x3d701108	0.058609992
175	0xbeaba0a8	-0.33521008
176	0xbdd4a6e8	-0.10383397
177	0x3db79759	0.08964414
178	0xbedd7ffb	-0.43261704
179	0x3ec08b56	0.37606305
180	0xbf0ad2ce	-0.5422791
181	0x3d02414a	0.031800546
182	0xbf1813a7	-0.5940499
183	0xbd8a7880	-0.06761265
184	0x3e41bd07	0.18919764
185	0xbd9fedde	-0.078090414
186	0xbc92154d	-0.017832423
187	0x3e3074df	0.17232083
188	0xbe008cc3	-0.12553696
189	0x3b976280	0.0046198964
190	0x3ed611a3	0.4181033
191	0x3e9c5f20	0.30541325
192	0x3e430e04	0.19048315
193	0x3d48c8be	0.049019568
194	0xbeb66c6f	-0.35629603
195	0x3e1eb73d	0.15499587
196	0xbe27f90c	-0.16403598
197	0xbcd3e6d9	-0.025866913
198	0x3ed74e53	0.42051944
199	0xbf47c98b	-0.78041905
200	0xbf2ce6bd	-0.6753958
201	0xbebef623	-0.37297162
202	0xbe25fab1	-0.16208912
203	0xbcc1b092	-0.023643766
204	0xbe4208a0	-0.18948603
205	0x3b5ac86a	0.0033383616
206	0xbe096930	-0.13419032
207	0x3cb94cac	0.022619568
208	0xbe8b007b	-0.27148804
209	0x3d8a82d3	0.06763234
210	0x3d4429b6	0.04789134
211	0x3ed93ce8	0.4242928
212	0x3f1e6ab2	0.61881554
213	0x3ebcbf81	0.36864856
214	0xbbf53609	-0.007483248
215	0x3eb0bca2	0.34518915
216	0x3e7c51ec	0.24640626
217	0x3db83b4d	0.08995686
218	0xbf046f9f	-0.5173282
219	0xbd2dd9f6	-0.042444192
220	0xbe3c5ac6	-0.18394002
221	0xbe4833e8	-0.1955105
222	0xbd6b6136	-0.057465754
223	0xbdda4e8c	-0.10659513
224	0x3d8b6589	0.06806476
225	0xbc400995	-0.0117210345
226	0x3ee89ba0	0.45431232
227	0xbf5ca197	-0.86184067
228	0xbde50cde	-0.11184095
229	0xbebdc81a	-0.37066728
230	0xbd802d8c	-0.062586874
231	0xbe10e82f	-0.14151071
232	0xbbc4e18d	-0.006008333
233	0x3c9311ac	0.017952763
234	0xbe9ba2dd	-0.30397692
235	0x3e86bf98	0.2631805
236	0xbcfa51a8	-0.030556515
237	0xbe520531	-0.20509793
238	0xbf8e8673	-1.1134781
239	0x3e5e73d7	0.21723877
240	0x3e91caf8	0.28475165
241	0xbf8eff19	-1.11716
242	0x3e56d7a3	0.20980696
243	0xbf0761c2	-0.5288354
244	0xbf111e59	-0.5668693
245	0x3eae5d58	0.3405559
246	0x3c8a91c4	0.01691521
247	0x3d1c4d5c	0.038159713
248	0xb9e36946	-0.0004337525
249	0x3ced7f6f	0.02899143
250	0xbee3c153	-0.44483432
251	0x3d445876	0.047935925
252	0xbf2d2fe2	-0.6765119
253	0xbde01e12	-0.109432355
254	0xbcadb174	-0.02120278
255	0xbd8a8786	-0.0676413

q.2.bias f4 [256]
0	0x3d88cfb3	0.066802405
1	0x3c377a60	0.01119861
2	0xbe033129	-0.12811722
3	0xbc98ad64	-0.018637367
4	0xbd8f7ced	-0.070062496
5	0xbcc9ecb9	-0.024649011
6	0xba60975c	-0.0008567476
7	0xbd202c8f	-0.039104994
8	0xbd8c3aad	-0.06847129
9	0xbc707885	-0.014677172
10	0x3c667454	0.014065821
11	0x3ce8f854	0.028438725
12	0xbd5e5433	-0.054279517
13	0x3e18164f	0.1485226
14	0xbc26a5da	-0.010171378
15	0x3d043b98	0.032283396
16	0x3d40a13e	0.047028773
17	0x3cf7738a	0.03020646
18	0x3c1dbcca	0.00962753
19	0xbe3dca6c	-0.18534249
20	0xbd25eb88	-0.040507823
21	0xbd679d1e	-0.056546323
22	0xbbbb3283	-0.0057128086
23	0xbb05edbc	-0.002043589
24	0xbd8211eb	-0.06351074
25	0x3ddebb32	0.108755484
26	0xbd3bbb34	-0.045832828
27	0xbd3bffde	-0.04589831
28	0x3db1056b	0.086436115
29	0xbd933bf4	-0.071891695
30	0xbf1b716f	-0.6071996
31	0x3c873dc8	0.016508952
32	0xbd52b9f0	-0.051446855
33	0x3cc954a4	0.024576493
34	0x3deb1c8c	0.11480054
35	0x3e1202d3	0.1425889
36	0xbddf5214	-0.10904327
37	0xbd0fa5c2	-0.03507019
38	0x3d6d9098	0.057999223
39	0xbc9cc0b0	-0.01913485
40	0x3d798ec2	0.06092716
41	0xbd8df548	-0.06931549
42	0xbd75c0be	-0.059998266
43	0xbd924ba0	-0.071433306
44	0x3dd842fe	0.10559653
45	0x3dac6518	0.084177196
46	0xbdf0fbc2	-0.11766769
47	0xbd9fce88	-0.078030646
48	0xbd2083b7	-0.039188113
49	0x3d28605b	0.041107517
50	0x3d55e808	0.052223235
51	0x3c9e1ff4	0.019302346
52	0xbd727e72	-0.05920262
53	0x3dff3f41	0.124632366
54	0x3d0d7737	0.03453752
55	0x3d5ea20e	0.054353766
56	0xbd02452d	-0.031804252
57	0xbda7d620	-0.08195138
58	0xbd43769c	-0.047720537
59	0xbd9439c4	-0.072375804
60	0x3dc56d39	0.09639973
61	0x3c666255	0.01406153
62	0x3e296430	0.16542125
63	0x3e23680d	0.15957661
64	0xbd68e366	-0.05685749
65	0xbc91281c	-0.017719321
66	0x3d69ce0b	0.057081264
67	0xbd636281	-0.055513863
68	0xbdf51816	-0.11967485
69	0xbcc0e77c	-0.02354788
70	0x3e1e57f8	0.15463245
71	0x3d619bad	0.055080105
72	0xbc51aa97	-0.012797019
73	0x3ddcd091	0.107819684
74	0xbae58c05	-0.0017513043
75	0x3d8f4623	0.069957994
76	0xbe32ac06	-0.17448434
77	0x3d1417a0	0.036155343
78	0x3b3e234c	0.0029012738
79	0x3e671421	0.22566272
80	0xbd8eeede	-0.06979154
81	0xbbab93d9	-0.0052361307
82	0x3e8677dd	0.26263323
83	0x3e53e04c	0.20691031
84	0xbcaed339	-0.021340953
85	0x3a3dacc4	0.0007235522
86	0xbd876d2e	-0.06612621
87	0xbd291c27	-0.041286614
88	0x3d69113a	0.056901194
89	0x3c780e5f	0.015140145
90	0x3e8e0f78	0.27746177
91	0xbc9727bb	-0.018451562
92	0x3d124856	0.035713516
93	0xbed123eb	-0.40847716
94	0xbb80e167	-0.00393312
95	0xbde6b75b	-0.11265441
96	0xbd28dff1	-0.041229192
97	0xbd1b7479	-0.037952874
98	0x3df1fbd2	0.11815609
99	0x3db541ad	0.08850417
100	0x3d36af52	0.044600792
101	0x3e17cdde	0.14824626
102	0xbcbeffc7	-0.023315324
103	0xbcac4ae0	-0.021031797
104	0x3d87a1f0	0.06622684
105	0x3ccccd48	0.02500023
106	0xbcb66c5c	-0.022268467
107	0xbd1ed49d	-0.038776983
108	0xbd7858e9	-0.060631666
109	0xbc348ed3	-0.01102038
110	0xbc2a079a	-0.010377789
111	0xbdb72f94	-0.08944622
112	0x3e346bde	0.17619273
113	0xbb2213e0	-0.0024731085
114	0xbdb1f2c6	-0.086888835
115	0xbce5cc3c	-0.028051488
116	0xbc6be5a6	-0.014398014
117	0xbcc49f9d	-0.02400189
118	0xbd76f4fd	-0.060292233
119	0xbdae1b49	-0.08501298
120	0x3c1a689f	0.009424358
121	0xbd6be0ef	-0.05758756
122	0xbca09956	-0.019604366
123	0x3df7b0a0	0.120942354
124	0x3dc30672	0.09522714
125	0xbc976311	-0.018479856
126	0x3c9c3ad3	0.019071018
127	0x3d238604	0.03992273
128	0xbc495523	-0.012288365
129	0x3c366f8f	0.011134996
130	0x3daf56d0	0.0856148
131	0x3d8f1535	0.06986467
132	0xbd31c95d	-0.043404926
133	0x3bdb65b2	0.0066954726
134	0xbd6ed1c4	-0.058305517
135	0x3e0214c6	0.12703237
136	0xbd796838	-0.060890406
137	0xbc8a2252	-0.016862068
138	0x3cdf1926	0.027233671
139	0x3e2caa40	0.1686182
140	0xbc64faa1	-0.01397577
141	0xbdb87ff9	-0.09008784
142	0x3e26b02b	0.1627814
143	0xbcbc04c6	-0.022951495
144	0xbe7bef22	-0.2460294
145	0x3d3f00b4	0.04663153
146	0xbe12221d	-0.14270826
147	0x3d2fe860	0.04294622
148	0xbdc9ea37	-0.09859126
149	0x3d2776fe	0.040884964
150	0xbe53f4a5	-0.20698793
151	0x3ddbccd5	0.10732428
152	0xbcb6fd96	-0.022337716
153	0x3cac4108	0.021027103
154	0x3e1338c8	0.14377129
155	0x3dc6a26d	0.09698949
156	0xbc3828f9	-0.011240237
157	0xbd2deb75	-0.042460877
158	0x3e2995be	0.16561028
159	0x3cae913f	0.021309493
160	0xbcb67a09	-0.022274988
161	0xbbdafc59	-0.006682914
162	0xbd5da16c	-0.054109022
163	0xbe2511aa	-0.1612002
164	0xbb92c814	-0.0044794176
165	0x3c596ac2	0.013270082
166	0x3e395ac8	0.18101037
167	0xbd87ddac	-0.066340774
168	0xbd72ddd2	-0.059293576
169	0xbde240e8	-0.11047536
170	0x3e0f1d23	0.13975959
171	0xbd02018f	-0.031739768
172	0xbd450b54	-0.048106506
173	0xbdf6d133	-0.1205162
174	0x3e31e58c	0.17372721
175	0x3dff3065	0.124604024
176	0x3e12db72	0.14341524
177	0x3c1202bc	0.008911785
178	0x3e00b364	0.12568432
179	0xbc2b8e6b	-0.010470967
180	0x3dc21832	0.09477271
181	0x3c9c1b85	0.019056091
182	0x3dd2cee6	0.10293369
183	0x3e12e364	0.14344555
184	0x3d6512d8	0.055926174
185	0x3dcd23e8	0.10016614
186	0xbce3f085	-0.02782465
187	0xbdec655c	-0.1154277
188	0xbdf6c6d7	-0.120496444
189	0x3e2c5a67	0.16831361
190	0x3cea68c2	0.028614406
191	0xbb3bdd12	-0.0028665704
192	0xbb9dc479	-0.004814681
193	0x3df81ad1	0.1211449
194	0xbd106989	-0.035256896
195	0x38b89f2d	8.8034525e-05
196	0x3e2c6b6a	0.1683785
197	0xbf16583f	-0.587284
198	0xbd684708	-0.056708366
199	0x3c00929f	0.007847457
200	0x3e1280cc	0.14306945
201	0xbd1a05e6	-0.03760328
202	0x3de86097	0.11346548
203	0x3d6dec78	0.058086842
204	0x3c56de33	0.0131145
205	0x3defdd96	0.11712186
206	0xbe23e171	-0.16003968
207	0xbc91e451	-0.017809065
208	0x3dcf7be5	0.10131053
209	0xbb15a637	-0.0022834667
210	0x3dcd1f8f	0.10015785
211	0xbd5d815c	-0.054078445
212	0xbe8f3159	-0.27967337
213	0x3cb1bdd6	0.021696966
214	0x3de81eaa	0.11333974
215	0x3a737356	0.0009286901
216	0xbd8081a9	-0.06274731
217	0xbc6f216d	-0.014595372
218	0x3bb7e1a4	0.0056116153
219	0xbd70bb08	-0.058772117
220	0xbd1b81a5	-0.037965436
221	0x3d21450d	0.039372493
222	0x3c9a479e	0.018832978
223	0xbd4940b5	-0.049133975
224	0xbc8ff515	-0.017572919
225	0x3b60f66a	0.0034326562
226	0x3da25467	0.07926255
227	0xbcc33072	-0.023826811
228	0xbd787250	-0.060655892
229	0x3d917a84	0.07103446
230	0x3d12267e	0.03568124
231	0xbcb54cd6	-0.022131365
232	0xbd82cb40	-0.06386423
233	0xbcdcf9fd	-0.026974672
234	0xbe01a431	-0.1266029
235	0xbc14e268	-0.009087183
236	0xbc91c337	-0.017793281
237	0x3d626391	0.055270735
238	0xbcf9f7ff	-0.030513762
239	0x3de6f0df	0.11276411
240	0x3cf1f48b	0.029535552
241	0xbc748ebb	-0.014926608
242	0x3de74be5	0.112937726
243	0xbeb83fdd	-0.35986224
244	0xbea80973	-0.3281971
245	0xbe037814	-0.12838775
246	0x3e4900fd	0.19629283
247	0x3d0f0986	0.03492119
248	0xbc9aa376	-0.018876772
249	0x3dbdbc1b	0.09264394
250	0x3d5ad927	0.05342975
251	0xbc40cdfb	-0.01176786
252	0xbdaed2d7	-0.08536308
253	0xbcde59c9	-0.027142422
254	0xbe189c58	-0.1490339
255	0x3d8dca71	0.06923378

q.4.weight f4 [10, 256]
0	0xbc204e40	-0.009784281
1	0x3d88dc31	0.06682623
2	0x3e9768bb	0.2957209
3	0x3d2b0fb6	0.04176303
4	0x3cd4698f	0.02592924
5	0x3c050eed	0.008121234
6	0x3d8e65c6	0.069530055
7	0xbd4087ae	-0.047004394
8	0x3c178c88	0.009249814
9	0x3f001b31	0.5004149
10	0xbf968010	-1.1757832
11	0xbcc7c436	-0.024385553
12	0xbcd920cf	-0.026504902
13	0xbeacf6c6	-0.33782023
14	0xbd1199f7	-0.035547223
15	0xbbe0b103	-0.006857039
16	0x3e65e6fc	0.22451395
17	0x3e9dacb5	0.30795828
18	0xbe9bbb51	-0.3041635
19	0x3e351aa7	0.17685948
20	0x3e73c911	0.2380717
21	0xbd1b48d2	-0.037911244
22	0x3cc1333b	0.023583999
23	0x3ed994bb	0.42496285
24	0xbc0a0713	-0.008424538
25	0x3ea075ac	0.31339777
26	0x3e634ba4	0.22196823
27	0xbd06f46b	-0.03294794
28	0x3dbdffcd	0.09277306
29	0x3e559819	0.20858802
30	0x3e567fa4	0.20947129
31	0x3e8a42de	0.2700414
32	0xbc2ff0eb	-0.010738592
33	0xbf719fba	-0.9438435
34	0x3e1da82d	0.15396185
35	0x3ef46c7c	0.47739017
36	0x3e5478ba	0.20749179
37	0x3e13244c	0.14369315
38	0x3e2144f4	0.1574896
39	0x3d88e597	0.06684416
40	0x3df3de42	0.11907627
41	0x3d7f7e08	0.062376052
42	0xbd436929	-0.04770771
43	0xbd6e4d9e	-0.05817949
44	0x3eb1b77e	0.34710306
45	0x3ea77082	0.32703024
46	0x3e45a967	0.19302903
47	0x3d5ba0ef	0.053620275
48	0x3d06237e	0.03274869
49	0x3df80f5c	0.121123046
50	0x3e751753	0.23934679
51	0x3e41d67c	0.18929476
52	0xbb3f9d45	-0.0029238027
53	0x3e8f1599	0.27946165
54	0x3e49b4e7	0.19697915
55	0xbdd4ae0e	-0.10384761
56	0xbcacaecc	-0.021079443
57	0x3bd837f3	0.0065984665
58	0x3d7bcf0e	0.06147676
59	0x3d3e922a	0.04652611
60	0xbf17cf53	-0.59300727
61	0xbc316dc7	-0.010829396
62	0xbc933564	-0.017969795
63	0x3ebc9e68	0.36839604
64	0xbc928fb2	-0.017890785
65	0xbda17e49	-0.07885415
66	0x3e929ccb	0.2863525
67	0xbc12974d	-0.008947206
68	0x3ea3fde7	0.3202965
69	0xbd3dcd0f	-0.046338137
70	0xbe6f75af	-0.23384736
71	0x3ecc83b9	0.39944246
72	0x3e889dfd	0.26683035
73	0xbe877a8e	-0.2646069
74	0xbfbf111a	-1.4927094
75	0x3e9eaf42	0.30993086
76	0xbd86eef4	-0.065885454
77	0x3d7d247a	0.061802365
78	0x3e2a33f2	0.16621378
79	0x3d8aacad	0.067712165
80	0x3ce86e2d	0.028372848
81	0x3b93c3b2	0.0045094127
82	0x3ef21668	0.4728272
83	0x3d0720a5	0.032990117
84	0xbd10903c	-0.035293803
85	0xbf9be903	-1.2180485
86	0x3d1dcb03	0.038523685
87	0x3e3c6c5c	0.18400711
88	0xbf45a61d	-0.77206594
89	0xbfa29a46	-1.270333
90	0xbe813256	-0.25233716
91	0xbd99a79a	-0.075026706
92	0x3e754c16	0.23954806
93	0x3e91c49f	0.28470322
94	0xbd883434	-0.06650582
95	0x3ea88893	0.32916698
96	0x3d218c5b	0.039440494
97	0x3c42ae4f	0.011882379
98	0x3dd96451	0.10614837
99	0xbe61f584	-0.22066313
100	0x3e848ce6	0.25888747
101	0xbecee74f	-0.4041085
102	0x3d687782	0.056754597
103	0x3d737b68	0.05944386
104	0xbe6e9439	-0.2329873
105	0x3e4d3319	0.20039023
106	0x3e1dc949	0.15408815
107	0x3d42a969	0.047524843
108	0xbd5538f2	-0.05205626
109	0x3d88dfa2	0.066832796
110	0x3de748a3	0.11293151
111	0x3e150a99	0.14554824
112	0x3f1250b9	0.57154423
113	0x3e14fefd	0.14550395
114	0x3d83c9d8	0.06434983
115	0x3e38fd51	0.18065383
116	0x3d242049	0.040069852
117	0xbd601e54	-0.054716423
118	0x3c535430	0.01289849
119	0xbc1b00e0	-0.009460658
120	0xbf74f85f	-0.95691484
121	0x3ee9e1cf	0.4568009
122	0xbdb87936	-0.09007494
123	0x3e6be572	0.23036745
124	0xbda30ecb	-0.07961806
125	0xbc4fca3d	-0.012682495
126	0x3d839300	0.064245224
127	0xbd9e57e8	-0.077316105
128	0x3dc96ea7	0.098355584
129	0xbf68a705	-0.9087985
130	0x3cbb073f	0.022830604
131	0x3e3508b6	0.17679104
132	0xbc3f825b	-0.011688794
133	0xbdd194a8	-0.10233432
134	0x3d17010e	0.03686624
135	0xbf87930e	-1.0591753
136	0x3cd7cd3c	0.02634298
137	0xbd38a2f6	-0.045077287
138	0x3e252e61	0.16130973
139	0x3c73a3e0	0.014870614
140	0x3dadb849	0.08482415
141	0xbe1bae24	-0.15203148
142	0xbdbb7011	-0.09152234
143	0xbcea1e4f	-0.028578905
144	0x3e3a0a5a	0.18168011
145	0x3e17b03e	0.14813325
146	0x3d857c82	0.065178886
147	0x3e846282	0.25856405
148	0xbd02fd09	-0.031979594
149	0x3edc1e81	0.42992023
150	0x3d62013e	0.055176966
151	0xbe8f6dbb	-0.28013405
152	0xbd1f5801	-0.038902286
153	0xbf32a084	-0.6977618
154	0x3e25e622	0.1620107
155	0x3dcc3c1a	0.09972401
156	0x3d804656	0.062634155
157	0xbed2637b	-0.41091523
158	0xbd89d088	-0.06729227
159	0xbf8b5735	-1.0885988
160	0xbdaf0292	-0.08545412
161	0xbcff0780	-0.031131506
162	0x3d4b6ff7	0.049667325
163	0x3ea54099	0.32275847
164	0x3cf559fb	0.029950133
165	0xbfc09634	-1.5045838
166	0x3ef73bc3	0.48287782
167	0xbd78706d	-0.060654093
168	0xbd43bf86	-0.047790073
169	0x3e0bbe13	0.13646726
170	0x3ef47e4d	0.4775261
171	0xbb50862b	-0.0031818252
172	0x3dd5cc26	0.10439329
173	0x3e840528	0.25785184
174	0x3e3419d0	0.17587972
175	0xbda86c98	-0.082238376
176	0x3ef75500	0.48307037
177	0xbee0ea30	-0.4392867
178	0x3e862e53	0.26207218
179	0x3cf1067f	0.029422043
180	0xbb9bf63d	-0.0047595785
181	0x3e737c71	0.2377794
182	0xbf40e359	-0.75346905
183	0x3dbe5e77	0.092953615
184	0x3cb97fa8	0.022643879
185	0x3ebdf55e	0.37101263
186	0xbbf25175	-0.0073949643
187	0x3df4cd87	0.11953264
188	0x3e91fd2f	0.28513476
189	0x3e9402de	0.28908437
190	0xbe31a3a4	-0.1734758
191	0x3d036284	0.032076374
192	0x3d701bda	0.05862031
193	0xbf1becc1	-0.6090813
194	0xbf1d0aa7	-0.6134438
195	0xbf266629	-0.64999634
196	0x3eba93a3	0.36440763
197	0x3eb1ffb9	0.34765413
198	0x3e4b7978	0.19870555
199	0xbf1d802b	-0.61523694
200	0x3e8a6941	0.27033427
201	0x3d582dad	0.052777935
202	0xbf026a30	-0.5094328
203	0x3b8c9489	0.0042901677
204	0xbcedcdae	-0.02902874
205	0x3d6d7ac2	0.0579784
206	0x3e223785	0.15841492
207	0xbdaf643e	-0.085640416
208	0xbe97a4fc	-0.2961806
209	0x3dd8f7d6	0.10594146
210	0xbfba6a4a	-1.4563687
211	0xbca740b9	-0.020416604
212	0x3e21c7d3	0.15798883
213	0x3e8e01ea	0.27735835
214	0x3d9563d8	0.07294434
215	0x3e9cea93	0.30647716
216	0xbbb9d6de	-0.005671366
217	0xbd5e06ad	-0.054205585
218	0xbe868f27	-0.26281092
219	0xbce4ffc7	-0.027953995
220	0x3d4af838	0.049553126
221	0xbd211d79	-0.039334748
222	0x3e866bb9	0.2625406
223	0xbd5f7cd8	-0.05456242
224	0x3cf2961f	0.029612599
225	0xbe6e1389	-0.2324964
226	0xbdb4cd19	-0.08828182
227	0x3d878f90	0.06619179
228	0x3cac3656	0.021022003
229	0x3ed7dcce	0.42160648
230	0x3d9749bc	0.073871106
231	0x3d88ea59	0.06685323
232	0x3c324663	0.010881039
233	0x3d485a8d	0.04891448
234	0x3dc22caa	0.09481175
235	0x3cc2f975	0.023800591
236	0xbe756592	-0.23964527
237	0x3e9408c4	0.28912938
238	0x3cd3add0	0.025839716
239	0x3e8925c7	0.26786634
240	0x3e55328c	0.20820063
241	0x3bfd0ff1	0.0077228476
242	0x3e6018f6	0.21884522
243	0x3ea5341c	0.3226632
244	0x3d353d66	0.044248007
245	0x3e6bc3b7	0.23023878
246	0x3e8834d4	0.26602805
247	0x3ed9ae55	0.42515817
248	0xbb78650c	-0.0037902026
249	0xbd2e687e	-0.04258012
250	0x3ecc8a0d	0.39949074
251	0x3dacf36b	0.08444866
252	0xbe36e374	-0.17860204
253	0x3d2700b9	0.040772174
254	0x3eac9f3c	0.33715236
255	0x3f0f49aa	0.5597178

q.4.bias f4 [10]
0	0x3e4326ab	0.1905772
1	0xbd80ef3a	-0.06295629
2	0x3d92ed7f	0.07174205
3	0xbc05b0ce	-0.008159829
4	0x3d261b9c	0.040553674
5	0xbe526565	-0.20546491
6	0x3b01a536	0.0019782311
7	0xbdfb4e5d	-0.12270806
8	0x3f0f50c3	0.5598261
9	0x3ebd0a79	0.36922053
