task4/task3_experiment_2_b_local_pi.pt (torch, 281951 bytes, 6 tensors)

q.0.weight f4 [256, 5]
000000 d1 5e 70 bf 9e c4 88 bf 2c c6 5e bd 1f ef 52 3b
       -0.9389468 -1.0685003 -0.05438821 0.0032185984
000010 1e 7a 10 be 57 db ae 3e 30 0c 31 3f fa a9 f9 3e
       -0.14109084 0.34151718 0.6915922 0.48762494
000020 3f f7 fe bc 6c 0b b6 bd 37 a5 53 bf 90 49 6a 3e
       -0.031123755 -0.08888897 -0.8267397 0.22879624
000030 0a fe 74 3f 45 ea a5 be 28 e5 17 3e 55 0b df bc
       0.9570013 -0.32405296 0.1483351 -0.027227083
000040 b8 77 f5 bd 25 0d 84 3e ea 91 b4 be 76 6d af 3e
       -0.11985725 0.25791278 -0.35267574 0.342632
000050 aa ad 2d 3f 74 d0 51 3e 68 d2 71 bd 78 7f 44 be
       0.67843115 0.20489675 -0.05903855 -0.1918925
000060 e0 df 2a bd 79 16 54 3e 5f e4 d9 3d 6b e4 33 bf
       -0.04171741 0.20711698 0.106392615 -0.70270413
000070 3b 22 13 3e 92 2e b6 be 5f 51 de 3d db b2 a8 be
       0.14368527 -0.35582405 0.10855364 -0.32948956
000080 6b 6a 20 3e 2a c8 86 be ae 84 87 be 77 ea fa 3e
       0.15665595 -0.26324588 -0.26468414 0.49007007
000090 d2 e8 9b be cf 8f 29 bf 01 26 ea be 86 80 c4 3e
       -0.30451065 -0.6623506 -0.4573212 0.38379306
0000a0 dd 8e d0 be 9f 8c 79 be 09 05 5d bf 58 ec 4a be
       -0.40733996 -0.24370049 -0.8633581 -0.1981672
0000b0 14 41 b3 3e ad d5 3e 3f e6 05 07 3f d2 6e c5 3e
       0.35010588 0.74544793 0.52743375 0.38561112
0000c0 d5 20 cb 3e 21 9a c3 be 8d 66 25 3d 54 52 10 3f
       0.39673486 -0.3820353 0.040381003 0.5637562
0000d0 da 52 a7 be 64 55 53 3f fa 6a df be ec 43 ad be
       -0.32680398 0.8255217 -0.43636304 -0.33840883
0000e0 00 9f db bd e3 56 96 be 71 83 df be 30 eb bf bd
       -0.10723686 -0.29363164 -0.4365497 -0.0937103
0000f0 6c 02 f2 3e 16 e4 0c be b9 21 5f 3f 45 49 38 be
       0.47267473 -0.13758883 0.8716083 -0.179967
000100 80 0c 58 bb b3 69 5e bf b6 0c 49 be 9e 11 aa 3e
       -0.0032966435 -0.86880034 -0.19633755 0.33216566
000110 be 43 9b be a4 64 9d 3e f7 52 c4 bd 2c 7e 56 be
       -0.3032512 0.30740845 -0.09586137 -0.20946568
000120 cf 96 12 bf 6b bf c5 bd 50 63 76 be e9 9a d6 be
       -0.57261366 -0.09655651 -0.24061322 -0.41915062
000130 88 33 5d be 5e e8 d0 be 2f b6 33 bf a2 4b 45 be
       -0.21601689 -0.40802282 -0.70199865 -0.19267133
000140 d7 76 6e bf fc 06 32 3f 1d 63 1d 3d 41 ba bb bc
       -0.93150085 0.6954191 0.0384246 -0.022915961
000150 fe 72 c5 3e 73 f0 3a 3d 52 b9 5f 3b 9a 5c 10 3d
       0.38564295 0.045639466 0.003413756 0.03524456
000160 75 04 ea 3b f8 bc c2 be cb 89 4f be da 7d 44 be
       0.0071416446 -0.38034797 -0.20267408 -0.19188634
000170 a6 ec 07 bf 44 c9 72 be f2 3a ae 3e 00 85 ca bd
       -0.5309547 -0.23709589 0.34029347 -0.09888649
000180 f3 bb 93 3f 36 96 a7 3c 09 55 13 3d bc 74 bd 3e
       1.1541733 0.020457368 0.035969768 0.37003124
000190 8e 45 5c 3e bf 36 68 bf d7 2e 6e 3e df bc ac be
       0.21510908 -0.90708536 0.23260055 -0.33737847
0001a0 7e 79 d0 3e d9 fe 4d 3d 15 65 ca be e8 9c 59 3f
       0.4071769 0.05029187 -0.39530244 0.85005045
0001b0 fd aa c7 bd a0 70 1b 3c 37 a5 c2 be a2 8a 1f 3f
       -0.0974941 0.009487301 -0.38016674 0.6232091
0001c0 f1 3e e5 3e cd fe 65 3f 80 05 70 3e 10 9b 94 3d
       0.44774583 0.8984192 0.23439598 0.07256138
0001d0 d4 0e 3a 3e 37 70 ca be 48 de 4f 3d 14 2a 17 3e
       0.18169719 -0.39538738 0.050749093 0.14762145
0001e0 3a ef 1f bd 40 3e 14 3e 5a cb 08 bc a9 b7 f1 be
       -0.039046504 0.14476871 -0.008349264 -0.47210434
0001f0 c6 8a 0e be 5d 82 4f be f8 63 45 be fe 5d 3f be
       -0.13920125 -0.20264573 -0.19276416 -0.18688199
000200 40 95 8e be c6 e6 cc 3e db 0d 67 bf e0 e6 2e 3b
       -0.27848244 0.40019816 -0.90255517 0.0026687905
000210 56 76 25 be e3 b9 c9 be 80 09 dd 3e 5c 4f 8e 3d
       -0.16158423 -0.39399633 0.4317131 0.0694873
000220 71 4b c4 3e 63 48 36 3e fc d8 77 bf 3c b6 fd bd
       0.38338807 0.17801051 -0.96815467 -0.12388274
000230 58 1f 2b be 3f 7f 1a bf 0d 5c b9 bb 95 01 5f bf
       -0.16711175 -0.6035041 -0.0056567253 -0.8711179
000240 94 00 a0 bd f8 49 26 be 00 60 62 3c fc 9b 30 3e
       -0.0781261 -0.16239154 0.0138168335 0.17247003
000250 c0 6a e7 3b b4 94 03 be 22 49 30 3e f2 44 2d bd
       0.007062286 -0.12849694 0.17215398 -0.04230208
000260 58 c9 13 3f 4f b8 be 3e f0 a2 81 3e c9 ed 93 bd
       0.577291 0.3724999 0.25319624 -0.07223088
000270 72 aa 3e bf 55 95 d9 bb 31 5a 8c bf 16 93 d6 3e
       -0.7447883 -0.006640116 -1.0965024 0.41909093
000280 5e 7d 83 bc 6e 65 a3 be 3b ed cb be 4a b6 9e be
       -0.01605099 -0.31913322 -0.3982943 -0.3099845
000290 75 2e e0 be 6f 6c 0a 3f 98 a3 4b be 74 9d 10 3f
       -0.43785444 0.54071707 -0.19886625 0.56490254
0002a0 52 e3 45 bf 40 73 12 3e 08 93 11 bf 8f 22 0b 3f
       -0.7729999 0.14301777 -0.56864977 0.5434961
0002b0 bf e8 e2 bc 02 16 c9 3e c8 6b 72 3e 24 74 d6 be
       -0.027698873 0.39274603 0.23673928 -0.41885483
0002c0 37 2b 50 bd 07 23 88 3e 4d 4c 0e be 40 c1 7f 3e
       -0.050822463 0.26589224 -0.13896294 0.24976063
0002d0 75 1c 43 bf ad 59 35 bb 41 b1 59 3c f7 f8 f4 bd
       -0.76215297 -0.002767186 0.0132868895 -0.11961549
0002e0 88 53 2e 3e f7 fd b1 3e 38 cc 15 be 6d 6f 20 3f
       0.17024052 0.34764072 -0.14628685 0.6267002
0002f0 62 bf 39 3d 01 37 97 be 26 d5 13 3f 0f 85 a1 be
       0.045348532 -0.29534152 0.57747114 -0.31546828
000300 cd cd 0c 3f f1 a5 9f 3d d0 ea 60 3e 6e 11 8f be
       0.5500153 0.07795323 0.21964574 -0.27942985
000310 d1 42 82 be c1 ab 1c bf ee 97 46 be 84 ba 00 3e
       -0.25441602 -0.61199576 -0.19393894 0.1257115
000320 77 8a 95 be 41 ec 98 3e d1 d6 df be 0b d8 d1 be
       -0.29207203 0.29867747 -0.4371858 -0.4098514
000330 d0 6c 88 3c 5c 85 dd 3e f7 06 97 be 3a fc 2b 3f
       0.016653448 0.43265808 -0.294975 0.6718174
000340 09 18 ef be 20 67 59 bd cc e0 eb bd 94 30 e4 bd
       -0.46698025 -0.053076863 -0.11517486 -0.11142078
000350 63 3b 43 bf 06 3f f5 be b6 d1 dc 3e ee 42 8e 3e
       -0.7626249 -0.47899646 0.43128747 0.27785438
000360 28 80 83 be 3b 71 09 3e c8 f0 98 be 4c 8d 40 be
       -0.25683713 0.134221 -0.29871202 -0.188039
000370 48 d0 08 bf 38 41 52 bf 05 db 3a 3d a6 0c 8f be
       -0.5344281 -0.82130766 0.04561903 -0.27939337
000380 7c 20 42 3e d6 43 e7 3e c4 07 ba 3e de b4 1f bf
       0.18957704 0.45168942 0.3633405 -0.62385356
000390 24 c3 30 3f 40 78 b6 be 44 18 df 3e 14 16 18 be
       0.6904776 -0.35638618 0.435732 -0.14852172
0003a0 3c 19 00 3e 8c 35 8a bd 10 2b a1 bd e5 8c 81 3e
       0.12509626 -0.067484945 -0.07869542 0.25302806
0003b0 36 3b 56 3d b9 10 e9 3e db 47 8a 3e 26 cf 1d be
       0.05230256 0.4552057 0.27007946 -0.15411052
0003c0 09 6d 24 bd 30 81 10 bf da 81 29 be ad 6b 62 be
       -0.040143047 -0.56447124 -0.1655344 -0.22111388
0003d0 7a c4 82 3e 36 18 f5 3e 7b 7d c9 3e 91 4c 97 3e
       0.25540525 0.47870034 0.39353547 0.29550603
0003e0 22 42 0f bf 24 69 03 be 1c b1 0a bf 95 80 cf 3e
       -0.55960286 -0.12833077 -0.541765 0.40527788
0003f0 bd b9 56 bf 15 30 12 3f 82 11 92 be 0a 66 8f be
       -0.83877164 0.5710462 -0.28528982 -0.28007537

q.0.bias f4 [256]
000000 1f b0 27 be 71 f7 44 be e2 64 e0 be 73 3c a0 be
       -0.16375779 -0.19235016 -0.43826967 -0.3129612
000010 4e 8f 20 be 7e 54 72 be 95 2a 30 be cd e9 85 be
       -0.15679666 -0.23665044 -0.17203744 -0.26154938
000020 88 7c 84 bd 56 5d e9 bd b5 a5 30 be a9 06 cb be
       -0.06469065 -0.113947555 -0.17250712 -0.3965352
000030 16 a9 f9 bc 3f c3 b2 be 90 7c ee bd d3 40 f6 bd
       -0.030476134 -0.34914586 -0.11644852 -0.12024083
000040 63 33 d3 bd ae 8a 38 bd 5c a9 00 3d 40 c4 07 be
       -0.103125356 -0.04505413 0.031411514 -0.13258457
000050 f7 01 69 be 34 c3 3e be 7b 5a 7b be cc d5 dd be
       -0.22754656 -0.18629152 -0.24546234 -0.43327177
000060 fa e2 48 be 7c 41 a2 bd 8c e7 57 be 67 eb ba be
       -0.19617835 -0.079226464 -0.21084422 -0.36507723
000070 75 9d 21 3d 6a 77 bf be 04 f0 15 bd 2f 1c 36 bd
       0.039456803 -0.37395793 -0.03660585 -0.04446047
000080 f5 57 05 be 3b 59 fe bd a4 a9 1d be 25 a0 d3 be
       -0.13021834 -0.12419363 -0.15396744 -0.41333118
000090 26 40 92 be 53 d2 83 bd 32 ad 78 be 74 03 08 be
       -0.28564566 -0.064366005 -0.24284819 -0.13282567
0000a0 86 9a 44 be 56 9a b4 b9 0c f6 b6 bd 1f 0e db bd
       -0.19199571 -0.00034447265 -0.089336485 -0.10696053
0000b0 ca 7e 04 be 11 37 84 be 24 91 ed bd 10 b8 43 bd
       -0.12938991 -0.25823262 -0.11599949 -0.047782958
0000c0 9f 72 19 be 78 06 a9 be 3c 88 09 ba ec d4 36 be
       -0.1498513 -0.33012748 -0.0005246436 -0.17854661
0000d0 b5 d3 1e be 41 9e 57 bd 8b da 00 be f4 09 a4 be
       -0.15510447 -0.052641157 -0.12583368 -0.32038844
0000e0 c8 c5 56 be af dc 95 be 50 79 27 be 58 a2 3a be
       -0.20973885 -0.2926993 -0.16354871 -0.18225992
0000f0 d2 12 30 be f5 5d fb bd f4 1b 5a be 09 73 99 3a
       -0.1719468 -0.1227378 -0.21299726 0.0011707257
000100 48 fc 46 be 44 09 9f be b3 0e b6 be 9c 14 28 bf
       -0.19432175 -0.31061757 -0.3555809 -0.6565645
000110 d5 44 d8 be 66 22 11 bf a0 0b 1b bd 30 52 5e be
       -0.42240015 -0.5669311 -0.037852883 -0.2171104
000120 2a 7c 10 bf 0f 2f 80 be cb a1 83 be 1e 58 41 be
       -0.5643946 -0.25035903 -0.25709376 -0.1888127
000130 e7 43 d8 bd bd 53 11 be 04 2f 4d be b2 33 6d be
       -0.10559826 -0.141921 -0.20037466 -0.23164251
000140 54 cd c2 be 70 4f df bd 61 af 12 bd bf 22 9f be
       -0.38047278 -0.109038234 -0.035811786 -0.31081197
000150 c6 0c e6 be b9 46 8a be 69 89 a4 be 13 4b 0f bd
       -0.4493162 -0.27007082 -0.32136086 -0.034983706
000160 46 38 38 be cc 5c 24 be a2 83 90 be c8 ef 80 be
       -0.17990217 -0.16051024 -0.28225428 -0.2518294
000170 4c 27 dc bd f8 cb 4c be 3f ae a8 bd a4 9a fb bd
       -0.10749683 -0.19999683 -0.0823636 -0.12285355
000180 94 6d a6 be 76 c1 05 be 15 8e 72 be f1 3f 25 bf
       -0.32505476 -0.1306208 -0.23687012 -0.6455069
000190 cc 01 a3 be 9f 0d e3 bd 17 20 82 be 63 a4 94 be
       -0.31837308 -0.110865824 -0.25415108 -0.29031667
0001a0 2a e2 75 be 2d 88 77 3b 73 65 d6 be b8 6b 83 be
       -0.24012056 0.0037770376 -0.41874275 -0.2566812
0001b0 b5 bd ea bd b6 0c 54 be fa 60 96 be a1 4a 9d be
       -0.11461965 -0.20707974 -0.29370862 -0.30721
0001c0 80 81 82 be 93 90 72 be 49 b0 1a be 91 14 af be
       -0.25489426 -0.23687963 -0.1510631 -0.34195378
0001d0 08 54 be bd 95 25 b1 be e4 1c 34 be 87 f9 41 be
       -0.092933714 -0.34598985 -0.17589146 -0.18942843
0001e0 95 22 83 bd 98 33 34 be 5c 66 27 bd e8 c2 8d be
       -0.064030804 -0.17597806 -0.040869102 -0.27687764
0001f0 2b 1f 2a be 5c 4c d0 be e4 1d 8a 3b 6c 8c 18 be
       -0.16613452 -0.40683258 0.004214989 -0.14897317
000200 68 35 2e be 1e 22 0f be 21 b1 1b be ae 0d 8f be
       -0.1701256 -0.13977858 -0.15204288 -0.27940124
000210 2d 2c c6 bd fd c4 73 be 0c f6 da be 6f 72 bc be
       -0.096763946 -0.23805614 -0.42765844 -0.36806056
000220 53 a1 2f be 72 b6 cf bd a8 92 a0 be 15 e2 00 bd
       -0.17151384 -0.101422206 -0.3136189 -0.03146561
000230 cb 88 37 bc 22 f2 cc be 3f 7b 84 bd 23 ed 70 be
       -0.011202048 -0.40028483 -0.0646882 -0.2352796
000240 19 53 86 be 69 63 36 be 0a 56 0d be 21 6e dd bd
       -0.26235273 -0.1781136 -0.13802353 -0.10812021
000250 45 f6 4f be eb c9 dc 3b 67 5c ca bd 8f 06 9a be
       -0.20308788 0.0067379377 -0.098809056 -0.3008313
000260 59 6e 18 be 5a 02 dd bc 15 54 8d be 0f 3a 4c 3c
       -0.14885844 -0.02697866 -0.27603212 0.012465014
000270 50 ad 81 be 2d 08 7f be c6 a7 2f be af 63 a2 bc
       -0.2532754 -0.24905463 -0.17153844 -0.019822923
000280 e7 28 7d be d0 61 16 be dd f0 dc be 71 74 0e be
       -0.24722634 -0.1468575 -0.43152514 -0.13911606
000290 f2 e6 0e be 3b 53 91 be a2 79 65 bd d9 75 85 bd
       -0.13955286 -0.28383812 -0.0560242 -0.06516618
0002a0 0a d8 8d be dd 37 66 be 7a 58 b2 bd 6d 59 ac be
       -0.27703887 -0.22482248 -0.08708282 -0.33661976
0002b0 df 0d b8 bd 7f 92 00 be 7d 59 0e be e5 e1 b5 be
       -0.08987021 -0.12555884 -0.13901325 -0.35523906
0002c0 b5 6b 15 be d4 57 90 be 4c 31 4d be c7 4a bc bd
       -0.14591868 -0.28192008 -0.20038337 -0.0919395
0002d0 e5 10 80 bd d9 42 d3 be d0 64 46 be 5f c9 be be
       -0.062532224 -0.41261938 -0.19374394 -0.3726301
0002e0 95 d2 e3 be 84 fd b1 be 8d 22 e8 bd 3d f5 a3 be
       -0.444966 -0.3476373 -0.11334715 -0.3202304
0002f0 87 be 8c be c8 77 7f be 67 d0 74 be 40 9c 72 be
       -0.2748911 -0.24948037 -0.23907624 -0.23692417
000300 70 c1 d1 bd 43 a8 be be 41 22 91 bd 19 47 34 be
       -0.102419734 -0.37237749 -0.070866115 -0.17605247
000310 73 77 31 be 2a 56 0f be ff 52 df be 0f 97 f6 bd
       -0.17330723 -0.13997713 -0.43618008 -0.12040531
000320 bb ce 05 be 7a c3 b9 be 81 76 a1 bd 71 fa 54 be
       -0.13067143 -0.3628195 -0.07883931 -0.20798661
000330 5b 74 e9 bd 1b ed 48 bd d6 31 b3 be 47 11 84 be
       -0.11399146 -0.049054246 -0.3499896 -0.25794432
000340 b3 cb 15 be 34 a6 f2 bd be a4 7c be cd 8d a6 bd
       -0.14628486 -0.11848107 -0.24672219 -0.08132515
000350 fb 5f b1 be 08 15 0f be f5 6c 39 be f1 e4 e7 bd
       -0.3464354 -0.13972867 -0.1810797 -0.11322964
000360 ac 86 46 be 47 cb 1b be de 52 cb be 6e 6e aa bd
       -0.1938731 -0.15214263 -0.3971166 -0.08321844
000370 66 04 f7 bd 1e 75 a9 bd bf 9c 63 be 05 13 8f be
       -0.12061386 -0.082742915 -0.22227763 -0.27944198
000380 91 6f c8 bd 89 24 bd bd 02 bd 15 be 4d e0 6f be
       -0.097869046 -0.09235484 -0.14622882 -0.23425408
000390 f6 33 dd be 36 77 5e be 50 c0 54 be 62 bf 79 be
       -0.43203706 -0.21725163 -0.20776486 -0.24389413
0003a0 47 44 17 be b4 72 8b bd f3 3a 12 bd 3d 6f de be
       -0.1477214 -0.06808987 -0.03570075 -0.43444243
0003b0 da b9 30 be 01 06 e2 bd 22 7f 6c be 53 7b 4e be
       -0.17258397 -0.110363014 -0.23095372 -0.20164232
0003c0 70 39 41 be 87 c8 e2 bd ae be 00 bd 87 59 15 be
       -0.18869567 -0.11073404 -0.031431846 -0.14584933
0003d0 dd 74 c0 bd b6 46 85 bd 4f 30 14 be 0a 80 33 be
       -0.0939729 -0.06507628 -0.14471553 -0.17529312
0003e0 18 01 5f 3a f5 b6 aa be 94 8d 37 be b6 c2 64 be
       0.0008506938 -0.3334271 -0.17925102 -0.22339901
0003f0 91 36 92 be 78 d0 71 bd 69 82 3e be ef cd 7f be
       -0.28557256 -0.059036702 -0.18604435 -0.24980901

q.2.weight f4 [256, 256]
000000 30 45 d8 bf f0 dd 40 bf a0 75 ba 3e 00 75 99 3a
       -1.6896114 -0.7533865 0.36417866 0.0011707842
000010 e4 2a 1d be 80 e7 d2 be 4a 79 ef be 46 d1 90 be
       -0.15348393 -0.41192245 -0.46772224 -0.28284663
000020 70 17 c5 bd 6f 96 d1 be 69 d1 e4 bc 70 fd 9a bc
       -0.09623611 -0.40935084 -0.027931886 -0.018919677
000030 fc 4a 2b bf 49 a5 1c bf 89 43 d6 3e a6 9d 8a 3e
       -0.6691129 -0.61189705 0.418484 0.270734
000040 80 55 5b 3e a5 be 2f bd a1 a6 ac be 24 e4 99 be
       0.21419334 -0.042906422 -0.33720878 -0.3005687
000050 7a 69 18 bd c9 8c 99 be 69 45 1a bd 6e bd 3b 3d
       -0.037209965 -0.29990223 -0.03766385 0.04583495
000060 12 7f 83 be b7 e8 b9 be 4b 64 48 be b8 51 f7 be
       -0.25682884 -0.3631036 -0.19569509 -0.48304534
000070 06 cc da bd 0c d1 87 bc 6d c8 13 be cd 24 23 3e
       -0.10683446 -0.016579174 -0.14431925 0.15932007
000080 76 6b 46 be 4d 5d 5f be 2a aa 35 3e b6 af 3d bd
       -0.1937693 -0.21812935 0.17740694 -0.04631015
000090 8d 98 2c bf 87 dc a6 3e a1 d1 c0 be 8f d5 3b bd
       -0.67420274 0.32590124 -0.37659934 -0.045857962
0000a0 21 ac b9 be bf 21 74 be aa 87 dc be ba f8 f4 bc
       -0.36264136 -0.23840998 -0.43072253 -0.029903758
0000b0 e8 a5 81 bf 97 ca 81 3d 11 c1 94 3e 07 bd 0d bf
       -1.0128756 0.06337469 0.29053548 -0.5536656
0000c0 ee 81 9b be 7c 92 61 3e f7 98 9b 3e 21 0e f6 bd
       -0.30372566 0.22028536 0.3039014 -0.120144136
0000d0 8f 01 d2 be 18 65 0b be ff 22 8e 3e 04 c1 8a bd
       -0.41016814 -0.13612783 0.27761075 -0.06775096
0000e0 9e 80 3e 3d f9 c8 08 be c2 d6 a4 be 02 6f f0 bc
       0.046509378 -0.13357915 -0.32195097 -0.029349808
0000f0 c3 9f 45 3e a4 91 04 3f b0 54 e7 be 46 6e 8a be
       0.19299226 0.5178473 -0.451818 -0.27037257
000100 e3 2d 26 3e 97 df 4b be ba 08 5b bd 92 f3 b6 be
       0.16228442 -0.19909512 -0.05347512 -0.35732704
000110 08 df 1b 3c 27 4d b7 be 0a bf 2a 3e ec 4e bc 3c
       0.009513624 -0.3580105 0.16674438 0.022986852
000120 a4 a7 bf 3d 14 1d 24 bf 0c 21 8c be 7e df 41 bf
       0.09358147 -0.6410687 -0.27368963 -0.75731647
000130 4f e5 3b bd 6a b7 d7 be ff f9 be 3e f8 fd 19 3d
       -0.045872983 -0.4213212 0.37300107 0.03759572
000140 ee 0f 6f 3e 2c bf 2b be ac 57 dd 3d dd 31 05 bf
       0.2334592 -0.16772145 0.10807738 -0.5202921
000150 4a 7a 80 be ae 47 53 3e 65 d1 ae be 55 84 fb 3c
       -0.250933 0.20632812 -0.3414413 0.03070275
000160 b1 4d c9 3c da 48 91 bd 8d 25 1c bf 91 fb ad be
       0.024573179 -0.070939735 -0.609948 -0.33980992
000170 2f cf 45 be e9 45 d8 be f2 58 a6 3e c1 4d 91 3e
       -0.19317316 -0.42240837 0.32489735 0.28379634
000180 98 1f d4 bc c6 ab 0b be 35 a7 ea be 79 81 2d be
       -0.025893971 -0.13639745 -0.45830694 -0.16943921
000190 af 10 b5 bc 61 5d 1d 3d da 11 ff 3d 47 5c 2b bf
       -0.022102682 0.03841913 0.12454577 -0.6693768
0001a0 c0 27 3b 3c 85 b2 31 bd 54 dc 32 bd a7 4d 31 3e
       0.011423051 -0.04338314 -0.043667153 0.17314778
0001b0 77 95 6d 3d 96 b9 0c be b4 63 b6 be bf 79 09 3d
       0.05800387 -0.1374267 -0.35622942 0.03356337
0001c0 cd 76 66 be 60 96 9b be 90 17 12 bf cf 40 77 3c
       -0.22506256 -0.30388165 -0.57067204 0.015091135
0001d0 45 ad 54 3d fc ca a9 3c f9 c1 a6 3e 76 ac 68 3e
       0.051923055 0.020726673 0.32569864 0.22722039
0001e0 da 07 25 bd 60 68 15 be f8 e7 60 3e b8 85 03 3d
       -0.04029069 -0.14590597 0.21963489 0.032109946
0001f0 9c 32 bd 3d d4 73 f1 3c 4e 42 97 3d cb 11 b1 be
       0.092381686 0.029474176 0.073856935 -0.34583887
000200 2e 88 57 bf 8c 84 7f bf 5d be ce be 32 12 6f 3d
       -0.8419217 -0.99811625 -0.4037961 0.05836696
000210 75 16 79 3e 1e be 27 be 8c 5e 49 3d bc 2f 28 bf
       0.24324973 -0.16381118 0.049162433 -0.65697837
000220 7f 77 bd 3c 71 7b 27 3e cb f2 fa 3d 4b 4c 4b bd
       0.02312827 0.16355683 0.1225334 -0.049633306
000230 e4 a8 db 3d 20 64 2e 3c 91 63 a6 be 47 4c 18 bf
       0.10725573 0.010643989 -0.32497838 -0.5949139
000240 90 76 b9 bd 1e d0 03 be 80 43 32 3e 5d 34 71 be
       -0.09055817 -0.12872359 0.17408562 -0.23555131
000250 f5 4e 10 bf 95 50 e4 bd 08 de be bd b8 f5 56 bd
       -0.5637048 -0.11148182 -0.09319693 -0.05248043
000260 33 10 21 be fa 2b eb bd 10 2b ef 3d b2 a6 cd be
       -0.15728836 -0.11482997 0.116781354 -0.4016624
000270 21 1d cc be 5d fe 88 3e 9d df 4b be e4 e9 ea bd
       -0.39865974 0.26756564 -0.1990952 -0.11470392
000280 58 e3 a4 be bc ab 8b bd 10 ac cf 3b 75 2c 05 3e
       -0.322047 -0.06819865 0.00633765 0.1300524
000290 5c 68 5c be b8 9b 7e be 22 24 0b bf 15 71 2e be
       -0.21524185 -0.2486409 -0.5435201 -0.17035325
0002a0 72 69 b1 be e9 88 42 bf 2b 81 a9 bd 1d bb 78 bf
       -0.3465076 -0.7599016 -0.0827659 -0.9716051
0002b0 ca 2d a6 bd 77 54 87 3e bb 07 5a 3e a8 2e 03 3d
       -0.08114202 0.2643163 0.21292011 0.032026917
0002c0 f1 4c 02 3e 46 06 0c bf 2b 04 69 be af 20 36 be
       0.12724663 -0.5469707 -0.22755496 -0.17785905
0002d0 d8 ba 38 be fc df 54 3d ed eb 1c bd 04 9f b4 bc
       -0.18040025 0.05197142 -0.038310934 -0.02204848
0002e0 68 0c 87 bf c4 bd 2d be 95 b4 36 bd 5e 2f 44 3d
       -1.0550661 -0.16966921 -0.04460581 0.047896735
0002f0 3a 11 f3 bd d8 9c 1c be a4 2e 92 be 19 dd 69 be
       -0.1186852 -0.15294206 -0.2855121 -0.22838248
000300 18 1a 2c bf ec ba 85 bc de 2a bd bd 6b 4d 19 3e
       -0.67227316 -0.016324483 -0.09236692 0.14970939
000310 6f b8 c9 bd 11 fc 15 bd 70 f9 b5 be 1e 75 35 bf
       -0.09849631 -0.036617342 -0.35541868 -0.7088183
000320 e3 64 c9 3d a9 cf a8 be eb ca ab be ec 1c 1d bf
       0.09833696 -0.32970932 -0.33553252 -0.61372256
000330 fc b6 e3 be d4 9b 61 be b0 b1 db bc a9 42 13 bf
       -0.44475543 -0.220321 -0.026818126 -0.5752359
000340 3e 8c 0b 3f c3 73 0b bf 15 bb ce be fd 34 0c bf
       0.5451087 -0.54473513 -0.40377107 -0.54768354
000350 a0 15 41 3c 0d 99 ab be 75 a6 d6 3e f3 7a 3b be
       0.011784941 -0.33515206 0.41923872 -0.1830862
000360 ea 19 82 be 51 ef b8 be c6 e3 10 3d 6d 0b 5f be
       -0.25410396 -0.36120084 0.03537347 -0.21781702
000370 0f 5c 4f bf 69 a5 17 bf 49 8a bc be 7d 18 48 3d
       -0.80999845 -0.5923677 -0.36824253 0.04885148
000380 a4 10 16 be 48 fe 5b bf a3 40 c7 be d9 44 3f bf
       -0.14654785 -0.8593488 -0.389165 -0.7471443
000390 00 a3 85 ba 34 13 8e bd 81 d0 8c be af 47 ec bd
       -0.0010195673 -0.069372565 -0.27502826 -0.1153711
0003a0 6a e4 81 bf 94 36 09 be eb 1a 4e 3d aa 46 35 bd
       -1.0147831 -0.13399726 0.05031864 -0.044256844
0003b0 59 9d 8f bd 87 8d 22 be 71 dc b7 be 7f ac 14 be
       -0.070124336 -0.15874301 -0.3591037 -0.14518927
0003c0 93 7c 2b 3d 5b a8 3f bf 46 83 b2 be 9a f9 25 be
       0.04186685 -0.74866265 -0.3486578 -0.16208497
0003d0 6e f6 d9 3e 4d 4b c0 be 5a 0d 2c 3e 02 88 91 3e
       0.42570823 -0.3755745 0.16801968 0.28424078
0003e0 18 e3 ee 3d 74 9c b3 bc d2 b6 99 3e 37 cb 2d 3e
       0.116644084 -0.021925189 0.30022293 0.16972052
0003f0 a5 3e 90 3c 41 47 d3 3e fb ff d5 bd 4c a3 18 3d
       0.017607996 0.412653 -0.10449215 0.037265107

q.2.bias f4 [256]
000000 27 73 db bc 54 39 87 3d 88 60 2e bd f9 89 3d 3d
       -0.026788307 0.06602731 -0.042572528 0.04627416
000010 dd 6f f8 3c bc b4 04 bf f8 b7 b1 ba 07 5d cc be
       0.030326778 -0.5183828 -0.0013558855 -0.39914724
000020 11 e4 5d bd 88 af 4f be fa 68 53 bd 6e 08 c9 3b
       -0.05417258 -0.20281804 -0.051613785 0.006135038
000030 a4 38 b0 3e 1d a6 0d be 70 2c 0f 3d b1 0e 18 3e
       0.34418213 -0.13832898 0.03495449 0.14849354
000040 73 21 3e bd 88 6b e4 3b b9 e4 00 3e d7 af 4a 3d
       -0.04641862 0.0069708265 0.12587251 0.0494841
000050 13 4f f1 bc 65 62 d3 3c 5d 68 28 3d 78 9e 76 3c
       -0.02945665 0.025803754 0.041115154 0.01505243
000060 bd 94 b6 3c 3a 18 8f bd c6 a3 a2 be 00 85 5b bc
       0.02228772 -0.06987043 -0.31765574 -0.013398409
000070 ec 3f 88 bd 24 0a 36 bd 62 25 34 bd f1 91 9f bd
       -0.06652817 -0.044443265 -0.043980964 -0.07791508
000080 cd c3 8f bc 2f 79 25 3e ca 26 37 bd a7 bd 2c 3e
       -0.01754942 0.16159509 -0.044714727 0.16869222
000090 6f 28 23 bd d0 64 a1 3c 76 f8 4c 3d f7 92 60 bc
       -0.039833482 0.019701391 0.05004164 -0.013706914
0000a0 ce 4c 86 3c 3a 66 88 bc 60 97 8b 3d 4a a0 da bd
       0.016394045 -0.016650308 0.06815982 -0.10675104
0000b0 81 3e 40 bf 11 60 80 3d 80 e1 09 3e 21 d6 13 3d
       -0.75095373 0.06268323 0.13464928 0.03609288
0000c0 54 da 69 39 0d 62 75 3c 52 ae 20 bf d5 dc 72 3d
       0.00022301945 0.01497699 -0.6276599 0.059292633
0000d0 be 66 44 bd ff 63 13 3e c6 82 98 bd 3d 5b 88 bd
       -0.047949545 0.14393614 -0.07446818 -0.06658027
0000e0 d3 12 06 bc bb 36 9c bd 83 4b 9d bd 95 ff b5 bd
       -0.008183199 -0.076276265 -0.07680418 -0.08886639
0000f0 ed 72 db 3d 1e 5e 0e 3d 7e bd 37 be 01 e1 68 bc
       0.1071528 0.034757726 -0.1794338 -0.014213801
000100 3a ab b5 3c d0 4a 21 3e 08 9a 72 bd e5 bf 5a bd
       0.022176374 0.15751195 -0.059228927 -0.05340566
000110 a9 a3 54 3d c8 58 8d bc f1 90 f2 3d 2f 66 4d 3e
       0.05191389 -0.017254248 0.11844052 0.20058511
000120 27 4c 62 bd b6 33 1e be 27 e3 76 bd 18 2f 85 bd
       -0.055248406 -0.15449414 -0.060275223 -0.06503123
000130 d7 d6 42 3d b1 89 bb bb 6b c3 d1 3d 87 92 36 be
       0.04756817 -0.005723201 0.10242351 -0.17829333
000140 80 76 6e bd 33 04 3c bd 46 7b 4e 3d 9d d9 b3 bd
       -0.05821848 -0.045902442 0.05041053 -0.08781741
000150 bf 6f 14 bd 88 b4 35 bd 6f f8 95 3c 53 4e c7 bc
       -0.036239382 -0.04436162 0.018306939 -0.02432934
000160 92 f6 bd 3b 86 f0 6c bd fa 34 2d bc 9f 7a b7 3e
       0.0057972157 -0.05784657 -0.010571713 0.3583574
000170 3a dc f3 3b 46 b5 5b bc 3c 96 91 3c dd e7 24 3c
       0.0074420245 -0.013409918 0.017771833 0.010065046
000180 e6 b2 b5 bc b6 12 ec bb 57 72 7b 3d 39 ea a5 bd
       -0.022180032 -0.007204379 0.06138834 -0.08101315
000190 e3 b1 01 be f4 bf 0e bf 94 37 70 bd 98 90 ba bd
       -0.12665515 -0.5576165 -0.058646753 -0.0910961
0001a0 95 3e ee bc 7a 58 72 be 2d c0 88 3d ca c2 22 be
       -0.029082576 -0.23666564 0.066772796 -0.15894619
0001b0 cf 1d 00 3e c3 5d 1b bd 8b 08 7f bd b8 67 70 bd
       0.12511371 -0.037931215 -0.062264007 -0.058692664
0001c0 64 ef 71 bd 0d c5 29 3d 1c 13 35 bd a2 d8 11 3d
       -0.05906619 0.041447688 -0.044207677 0.035606988
0001d0 68 18 87 3d 8a b2 de bc 34 34 64 bd 37 8a 00 bd
       0.06596452 -0.027184743 -0.055713847 -0.031381812
0001e0 93 3c 97 bc 84 36 77 bd a1 f0 37 be 2f 27 b8 bc
       -0.018461501 -0.060354725 -0.17962886 -0.022479622
0001f0 e7 39 92 be e7 ad a2 3c b6 8b 05 be 99 7a 50 bd
       -0.285598 0.019858314 -0.13041577 -0.05089817
000200 9d ca d1 bc 9d 00 17 3e d5 21 3f bc 47 65 68 3c
       -0.025609309 0.14746328 -0.011665781 0.014184303
000210 6c bd 8a bd 51 71 9f bd 19 52 d8 3c 03 85 85 bd
       -0.067744106 -0.07785285 0.026406335 -0.065195106
000220 c6 66 9e 3d da 5a 01 bc cb 93 99 bc e5 c8 14 bc
       0.07734446 -0.007895196 -0.018747231 -0.0090811
000230 00 a4 71 bd 75 21 25 3e 4c 63 8e bd 45 0c 9d 3d
       -0.058994293 0.16126044 -0.06952533 0.07668356
000240 1a 45 81 3d 03 69 af bb ef 44 d0 bd 55 63 c5 bd
       0.06312008 -0.0053530945 -0.10169398 -0.09638087
000250 5a 52 eb bc 06 ee ba bc 7d 1c f4 3d 79 51 e3 bc
       -0.028725792 -0.022818577 0.11919496 -0.02774881
000260 49 0a bc bd 11 09 5e 3e f8 2e 8c bd 1c 89 2c bb
       -0.09181649 0.21683146 -0.06844896 -0.002632684
000270 ec 87 16 3e 0b 3f c0 3d d7 6d 71 be 5b 0f 87 bd
       0.14700288 0.093870245 -0.23577057 -0.06594726
000280 ac 12 72 3d d1 15 17 3d d2 31 65 bd 18 6b ce 3c
       0.05909984 0.03688604 -0.055955715 0.02519755
000290 2d e2 a4 bd 66 61 e5 3d f9 70 d9 bc 06 d1 84 3d
       -0.08050952 0.11200218 -0.026543127 0.064851806
0002a0 f6 74 8d bc 36 38 12 bd 69 1c 36 3e 3e 6b 1b bd
       -0.017267685 -0.03569814 0.17784275 -0.03794407
0002b0 9c d4 a7 3d ae c5 9c 3c a9 29 7b bd e6 67 50 bc
       0.08194849 0.01913723 -0.061319027 -0.012720084
0002c0 2c 0f 9e bd 6a 51 e0 bb 1e 42 32 bc 99 51 9a bd
       -0.077177376 -0.006845643 -0.010880021 -0.07535095
0002d0 b2 06 37 bd 7e 98 47 bd f0 60 98 3c 2b 4c ec bd
       -0.04468412 -0.048729412 0.01860091 -0.115379654
0002e0 f5 48 db bc 62 91 5f bd 1b 90 0d bd bf dc 5f bd
       -0.026768187 -0.054582007 -0.034561258 -0.05465388
0002f0 a7 29 81 bd ef d5 49 bc cd c0 96 bd 8d ec d7 3d
       -0.06306773 -0.012319072 -0.073609926 0.10543165
000300 5b 07 35 3e 87 b1 05 bd 37 bb 0c bd 2d 36 ec bc
       0.17678587 -0.032640006 -0.03435823 -0.028834427
000310 be 25 56 39 1c 20 6d 3d 83 88 5a 3c 58 b8 ef 3c
       0.0002042269 0.05789195 0.013338211 0.029262707
000320 53 8f 32 bd 5f cb 00 bc fe bb 98 3d f9 a6 14 bd
       -0.043593716 -0.007860987 0.07457732 -0.03629205
000330 62 22 da 3c 91 c5 8a bc 75 f9 e9 bc fb 37 cb 3b
       0.026627723 -0.01693991 -0.028561333 0.0062017418
000340 13 e2 ed bd df e4 53 3e bc ae d7 bc 9b 43 39 3d
       -0.11615386 0.20692776 -0.026328437 0.04523049
000350 eb 5d 07 3c 8e 64 58 bc 45 d2 a9 3d a5 ad 61 bd
       0.008262138 -0.013207568 0.08292059 -0.05509724
000360 0d 73 9b bd c3 41 c2 3d 30 40 77 3d 56 94 fa bc
       -0.075903036 0.09485199 0.06036395 -0.03058831
000370 74 06 e1 bc e2 5e 5e bc cb b9 a6 bb ff 3b ac 3d
       -0.027468897 -0.0135724265 -0.005088066 0.08409881
000380 57 b0 34 3d 2b f2 a4 3c 93 1b 27 3d 7d 2d 1b bd
       0.044113483 0.020135006 0.04079778 -0.037885178
000390 11 3e 31 bd 41 a5 eb 3c ce 2a 58 bd 05 19 93 bd
       -0.04327208 0.028765323 -0.052775197 -0.071825065
0003a0 38 7f c6 bc 21 b1 e0 bc 19 df 15 bd 55 af 7b 3d
       -0.024230585 -0.027428212 -0.036589716 0.061446507
0003b0 eb 28 2e bd 23 31 30 bd d0 02 4e 3e 57 a3 d0 be
       -0.04251949 -0.04301561 0.2011826 -0.40749618
0003c0 6e 51 d8 3e 33 94 6f bd fc 5c 78 bd ea df 94 3d
       0.42249626 -0.058490943 -0.06063555 0.07269271
0003d0 81 9f f9 3d 26 8e 70 bd d9 17 e7 bc 34 81 7a 3d
       0.12188626 -0.058729313 -0.028209614 0.061158374
0003e0 31 1a 95 bd 8d cc ed bc cb 94 a2 bc ab 6e b3 bb
       -0.07280386 -0.029028201 -0.01984634 -0.005475839
0003f0 4a 2c 9b 3d d2 35 5e 3d ee 5e 6b bd 50 83 4f bc
       0.07576807 0.054250546 -0.05746358 -0.012665585

q.4.weight f4 [10, 256]
000000 d7 64 b2 3d be 66 3d 3e c3 a3 3b 3e ba 2c 0e be
       0.0871064 0.18496224 0.18324189 -0.1388425
000010 b8 48 17 3e 46 2f 87 3d 65 8e 00 3e 72 88 1f bd
       0.14773834 0.066008136 0.12554319 -0.038948484
000020 38 fd 8f 3d 68 fb 30 3e 0d 47 f7 bc b5 18 37 3e
       0.070307195 0.17283404 -0.030185247 0.17880519
000030 e2 a5 21 3e 8a ac e3 3d 7c 72 6d bc 6d a0 a7 3e
       0.15785936 0.111168936 -0.014492627 0.32739583
000040 eb 16 8a 3c 2a e4 92 bc 4d fe 19 3e 65 aa 84 3d
       0.016856631 -0.017931063 0.15038414 0.06477813
000050 ea b9 19 3d ce ab d2 3d e3 03 92 bd e3 d3 85 3e
       0.037530817 0.102866754 -0.071296476 0.2613822
000060 fc bb 59 3e 9c ee 5f 3e 63 b6 03 3e 17 06 31 3c
       0.21263117 0.21868366 0.12862544 0.010804675
000070 91 93 34 bc 8f 25 5d bb e2 1b 9b bc 1d 93 6d bd
       -0.011021511 -0.003374431 -0.018934194 -0.058001626
000080 f1 ed a0 3e 6d da e4 be 65 4e 23 3e b7 24 d9 3e
       0.31431535 -0.44697896 0.15947874 0.42410824
000090 7b ab 12 bd ab 98 e1 be 3b 94 00 be b8 b7 ab 3d
       -0.035808068 -0.4406179 -0.12556545 0.08384651
0000a0 e7 36 e0 3c ac 3b 3d 3c 94 9e 9c bd 9a 92 99 3e
       0.02736993 0.011549871 -0.07647434 0.2999466
0000b0 21 a9 f4 3b 97 ef 8d 3d 35 01 92 3d 55 2d 8b 3e
       0.007466451 0.06930464 0.071291365 0.27183023
0000c0 e1 75 e5 bc bb 36 5b be 71 2d 97 3d 7a 91 6a 3e
       -0.02801031 -0.21407597 0.07381714 0.22907057
0000d0 6c 10 10 3d 6e 28 01 3d 88 3f de bc 99 03 73 3d
       0.03517191 0.031532697 -0.027129903 0.059329603
0000e0 1c 00 f7 3d 38 96 c2 3e 37 26 ce 3c 99 bb d3 3d
       0.12060568 0.38005233 0.025164707 0.10338516
0000f0 d7 5e 94 3e c8 b5 cd 3c 0b 7a 5d 3d f7 78 47 3d
       0.28978607 0.025111094 0.054071467 0.048699345
000100 90 40 b7 3d 39 e7 2f bd 40 40 20 bd 1c ff 2a bc
       0.08947861 -0.04294512 -0.039123774 -0.010436799
000110 ad e2 db 3d 89 9b 38 3d 6c fb 36 3d b4 ea 06 be
       0.10736594 0.045070205 0.04467337 -0.1317547
000120 42 fa b7 b8 e5 17 b4 3e d1 46 ab be ae 6d aa 3e
       -8.772734e-05 0.3517448 -0.33452466 0.33286804
000130 02 3f 12 bd 64 45 e0 3e 46 f8 d2 3d 1a bc 9b 3e
       -0.03570462 0.4380294 0.10301261 0.30416948
000140 8f 98 19 3d 4c 3a 30 3e c7 12 6a 3e 71 ad 76 3e
       0.037499007 0.17209738 0.22858725 0.240896
000150 1f e6 4a 3a 6f 20 e8 3d ea c2 b8 bc 6a 8b 65 3c
       0.0007739979 0.11334311 -0.02255388 0.01401029
000160 db f6 ff 3d 09 8d ae 3e b3 8b ab bd bd 61 22 3e
       0.12498256 0.34091976 -0.08376255 0.15857597
000170 ca 27 60 3d 8f 22 23 3c db 95 05 3d 0c a5 63 3e
       0.054725446 0.00995697 0.032613616 0.22230929
000180 11 1f 15 3a 68 72 35 bc 90 47 9b 3e 98 b6 f6 3d
       0.0005688528 -0.01107464 0.30328035 0.12046546
000190 b9 b2 61 3e 0e ec b7 be e3 b4 55 bd ab ca 1b bd
       0.22040834 -0.35922283 -0.05217446 -0.038035076
0001a0 b7 7a 83 bc d3 cc 74 3e 3b 3c 07 3e 6e 03 ca 3d
       -0.016049726 0.23906259 0.1320657 0.098639354
0001b0 68 6f 04 be 1b 12 06 3e fb 38 d2 3e df 05 88 bd
       -0.12933123 0.13092844 0.41059098 -0.06641745
0001c0 d9 3a 82 bc 82 40 a4 3e 1e 93 5e be a3 63 a8 be
       -0.015897201 0.32080466 -0.21735808 -0.32888517
0001d0 29 4e 68 3e e0 e8 db bb a2 dc f7 bd 50 db 0e 3d
       0.22686066 -0.0067111105 -0.12102629 0.03487712
0001e0 04 4b 4b 3e 37 44 a0 3c f9 e2 ef 3d d8 98 09 bd
       0.19852835 0.019563777 0.117132135 -0.03359303
0001f0 54 39 94 3e 5b 5b c4 bb d9 2b b2 3e 02 c8 8d 3c
       0.28949988 -0.0059923357 0.34799078 0.017307285
000200 e1 96 80 3d d1 52 ee bc 13 b1 67 3c 3d b8 a0 3e
       0.06278778 -0.029092224 0.014141339 0.31390563
000210 a6 dd 44 3d 60 20 5d 3d 18 28 8e be 28 89 29 bd
       0.048062943 0.053985953 -0.27764964 -0.041390568
000220 0e 18 8d 3e bd 3c b6 3e 00 f9 4d 3c 45 6f 0c 3e
       0.27557415 0.35593215 0.012571573 0.13714321
000230 df b0 62 3d 71 a9 72 3e 52 38 02 bd b2 48 71 3e
       0.05534446 0.2369745 -0.031791992 0.23562887
000240 f0 1a 9f 3d 33 52 e7 3d 7b 99 9e 3e aa 42 f1 bc
       0.0776881 0.11294975 0.3097647 -0.029450733
000250 ae 7d 97 3d 3b 6a 6f bd 88 c1 0f 3e cd bd 5d bd
       0.073970184 -0.05845092 0.1403867 -0.054136086
000260 78 70 8b 3e 36 61 57 3e 7c b9 3a 3e 5e 34 ba bb
       0.27234244 0.21033177 0.18234819 -0.005682512
000270 9d 6b e9 3d 58 11 88 3e d1 c4 bb 3d e3 20 a9 3c
       0.11397479 0.26575732 0.09168399 0.020645564
000280 c5 cf 0c be b5 73 bc 3d d9 1e 55 be fe dc b8 3d
       -0.13751133 0.09201757 -0.20812549 0.09026526
000290 72 27 f6 3b 71 9c 97 be c2 00 1d 3d 3e a7 3e bd
       0.0075120265 -0.29611543 0.0383308 -0.046546213
0002a0 9b 4a 38 3e 7d 01 62 bc aa ba 03 3e 60 59 4c 3e
       0.1799721 -0.0137943 0.12864175 0.19955969
0002b0 cd 0a 98 3e bb 14 47 3e 7f 39 ad 3e c7 53 1c be
       0.2969574 0.19441502 0.3383293 -0.15266334
0002c0 68 16 5f 3e 75 c4 6d 3e 82 8c 08 bd 32 20 98 3e
       0.21785891 0.23219474 -0.033337124 0.29712063
0002d0 7a 19 1b be 58 e3 5e 3e 0c 2b 21 be 24 92 7f bc
       -0.15146437 0.21766412 -0.15739077 -0.0155988075
0002e0 1e 0b 7c bd a4 3c 8d 3e 16 e4 fb 3c 76 3e f6 bc
       -0.06153404 0.27585328 0.030748408 -0.03005908
0002f0 6a ce 81 3c 5b a7 a3 be 64 0c aa bd d3 f8 45 bd
       0.015845496 -0.3196362 -0.083031446 -0.048333
000300 46 95 75 3e 04 4a 51 bd 01 e0 ff 3b 08 00 9e 3a
       0.23982725 -0.051095977 0.007808686 0.0012054453
000310 a8 53 eb 3c a2 da 75 be d7 71 af 3e ba 12 84 bd
       0.028726414 -0.24009183 0.3426654 -0.06448884
000320 6d 5e 8b 3d a6 f9 af bd 50 2f 68 3e 62 38 16 3e
       0.0680512 -0.085925385 0.22674298 0.14669946
000330 4d 1d ab bc 6f 01 cc 3e 5f 44 ca 3c 60 62 82 3e
       -0.020887995 0.39844844 0.024690805 0.2546568
000340 fa d7 13 3e 6c 52 1a be 16 17 7b be 6e 6f 00 3e
       0.14437857 -0.15070504 -0.24520525 0.12542507
000350 e2 bb da 3e 5c 7e 27 3d 8d 47 0e be 91 72 cf 3c
       0.42721468 0.04089199 -0.13894482 0.025323184
000360 ef 5a f7 3c 48 8a f4 3e b8 59 3a 3d d7 99 08 be
       0.030194728 0.4776175 0.04549572 -0.13339935
000370 aa c8 1c 3e 3e 0e e5 3c b5 d0 88 3d a3 d9 ee bb
       0.15310922 0.027960893 0.06680433 -0.007289128
000380 03 ff 5f 3e 41 f5 b0 3e 5f a2 84 bc c6 a7 0a 3c
       0.21874623 0.34562114 -0.016190706 0.008462852
000390 43 be 60 be 2c 3c 37 3e 10 19 9b 3c 39 b2 57 3e
       -0.21947579 0.17894047 0.01893285 0.2106408
0003a0 dc 05 d2 3e 00 11 43 3e 19 90 53 3d d1 0f 89 be
       0.41020095 0.19049454 0.051651094 -0.2676988
0003b0 c4 df ba bc 10 88 19 bd 98 e6 90 3d 6f 7e 52 3d
       -0.022811778 -0.037483275 0.07075232 0.051390108
0003c0 6e c3 c6 3d 26 b8 ad bc 63 0a 12 bd 63 43 49 3d
       0.09705244 -0.021205973 -0.035654437 0.04913653
0003d0 be 9e a9 3e 86 8f d9 3b 22 3e a5 3c 9b 37 17 be
       0.33128923 0.006639424 0.020171229 -0.14767306
0003e0 8e ba 8e be 5e 59 0a bb b5 81 02 3e 23 8c 79 bd
       -0.27876705 -0.0021110396 0.12744792 -0.06092466
0003f0 36 df 8f bd b1 e6 45 3e 57 8b 52 bd f2 7e 05 3d
       -0.07024996 0.19326283 -0.051402416 0.032591768

q.4.bias f4 [10]
000000 ac 83 30 3d 56 42 13 be 67 46 c3 3d 31 2a a4 bd
       0.043094322 -0.14380774 0.095349126 -0.0801586
000010 30 90 4d 3d b6 ce 27 be 81 c1 c3 3c e3 be 07 be
       0.050186336 -0.16387448 0.02389598 -0.13256411
000020 76 e4 b0 3e f8 c3 b8 3e
       0.34549302 0.36087012
