task4/task3_experiment_2_c_local_q1.pt (torch, 281951 bytes, 6 tensors)

q.0.weight f4 [256, 5]
000000 28 e7 95 3d 65 e1 43 3d ff 35 11 3d 38 4d 56 bc
       0.0731948 0.047822375 0.035451885 -0.013079934
000010 28 e7 b8 3e 24 f9 cf 3e 20 f4 4a 3e 22 a7 8e 3e
       0.36113858 0.40619767 0.19819689 0.27861887
000020 c0 cb b3 3e 00 11 07 be 99 ad 44 3f a8 92 8f bc
       0.35116386 -0.13190079 0.7682739 -0.017525986
000030 06 69 00 40 5f 6a 6a be 90 b4 f1 3c 0c 4c 33 3b
       2.0064101 -0.2289214 0.029505044 0.002735856
000040 8e 47 a8 be 65 9f b4 bd c4 9e 10 be 00 9b af 3c
       -0.32867092 -0.088194646 -0.14123064 0.021436214
000050 45 aa 22 3e 37 a9 a8 be 37 cf 3c 3d 5e 73 c1 3e
       0.15885265 -0.329416 0.046096053 0.3778333
000060 02 16 dc 3e 34 ad 08 bc ec de 26 3b 7a 3a 43 bc
       0.4298554 -0.008342076 0.0025462462 -0.011915797
000070 33 5b bd bb 4c f2 ca 3e a1 13 0e be 82 4f 17 3f
       -0.005778694 0.39637983 -0.13874675 0.59105694
000080 27 8e c4 3d 79 26 7f 3c e0 6f 49 3e a0 35 92 3e
       0.09597426 0.015573137 0.19671583 0.28556538
000090 7d ea 17 3c 6b b9 e9 bd b3 99 5b 3e e0 87 54 3e
       0.009272215 -0.11412319 0.2144535 0.20754957
0000a0 ab 50 12 bd 72 0a 5b bf 01 92 0c 3b fd 70 29 bd
       -0.035721462 -0.85562813 0.002144933 -0.04136752
0000b0 b0 6a 62 bd 8c 8a 1b bf 09 e1 cd 3e 14 0f cf bd
       -0.055277526 -0.6075828 0.4021075 -0.10110298
0000c0 f6 67 c9 3d 7b cf 5f be 0c da 05 bd 0c 75 4b 3e
       0.09834282 -0.21856491 -0.03267865 0.19868869
0000d0 98 08 e9 be cc dd 9b 3d 0e e1 d1 3e 75 b0 ca bb
       -0.4551437 0.07610664 0.40992016 -0.006185586
0000e0 7f 27 02 3c cf 03 8f bb 13 7b 26 3c 4a b7 a4 be
       0.007943987 -0.0043644677 0.010161179 -0.32171088
0000f0 e1 2c 46 3e 76 9c 3e 3e 39 13 e3 3c 33 43 c2 3d
       0.19353057 0.18614373 0.027719127 0.094854735
000100 b0 c7 bd 3e e6 13 fc b9 61 8f 1f bb d6 6d 85 ba
       0.37066412 -0.0004808001 -0.0024346935 -0.0010179828
000110 fa 2d 06 ba 9a c0 8d be 40 87 f0 3d 89 05 d3 3e
       -0.00051185454 -0.27686006 0.11744547 0.4121516
000120 0a 6a e8 3c 76 38 8c 3d e4 47 5c 3e 64 19 d3 be
       0.028370876 0.068467066 0.21511799 -0.4123031
000130 e0 4a cf bd 1d 13 3c 3e 9c d6 1e be d0 88 9e 3e
       -0.10121703 0.18366666 -0.15511554 0.30963755
000140 84 0d 48 3e df 4d c4 3d 92 b0 80 3e 89 0f c8 3d
       0.19536406 0.09585165 0.25134712 0.09768588
000150 5a f7 20 be 2e 39 8e 3e 68 d7 91 3e 44 cf 90 3e
       -0.15719357 0.27778 0.28484654 0.2828313
000160 2a ca 89 3e 90 80 5b 3e 84 63 9c 3e 81 1a 89 3f
       0.2691205 0.21435761 0.30544674 1.0711213
000170 75 04 87 3e e2 be 8c 3f 22 b0 c9 3e c1 87 97 be
       0.26370588 1.0995753 0.3939219 -0.2959576
000180 73 1b 90 3d 60 e5 41 3d ce 09 1c bd 98 8e 30 be
       0.070364855 0.04733789 -0.038095288 -0.17241895
000190 a3 94 40 be 27 ac 94 3c 74 1e 86 bc ef 7d 5c 3d
       -0.188067 0.018148495 -0.016371943 0.053831037
0001a0 7a bf 31 be 37 19 81 3d 4d fd 35 be 13 4f f8 3d
       -0.17358199 0.063036375 -0.17772408 0.12124457
0001b0 2f 81 20 be 94 1e c7 be 36 e9 be 3f 69 a8 91 bf
       -0.1567428 -0.38890517 1.491492 -1.137952
0001c0 16 8c bd bf 50 90 94 3f 00 a4 dc 3e 49 0f d4 bc
       -1.4808376 1.1606541 0.43093872 -0.025886195
0001d0 f9 7c 46 bf 27 f9 62 bc 5d b3 bb bd ac 69 60 be
       -0.77534443 -0.013853348 -0.0916507 -0.2191531
0001e0 95 da 12 3c c3 67 ac bc d6 5b ae 3b 19 a6 f3 3b
       0.008963247 -0.021045571 0.0053210063 0.007435572
0001f0 14 f8 0e 3e e6 22 74 bc c0 77 f9 3a d0 cc a7 3b
       0.13961822 -0.014900899 0.0019032881 0.005120851
000200 c2 20 2e 3b 18 16 57 3e 22 71 19 be 81 59 9e be
       0.0026569818 0.21004522 -0.14984563 -0.3092766
000210 9a cb 32 3e 6c 6e a5 3f 45 4b 63 be 67 f9 5e bd
       0.1746048 1.2924323 -0.22196682 -0.054437067
000220 d2 40 22 3d 20 eb 88 bd 4f 1d 83 3d ad 07 a6 be
       0.0396126 -0.066854715 0.064020745 -0.3242773
000230 a6 c1 60 bd 1c bb bf 3c 43 a8 19 3e 6c ad f5 3c
       -0.054872178 0.02340465 0.15005593 0.02998992
000240 88 81 bb be a1 0a ab bd 05 fc bc 3d 09 6b b1 3d
       -0.36622262 -0.08351637 0.092277564 0.086629935
000250 8d 16 e0 bc 08 0c 9a 3e 7d 86 8c 3e 76 d1 76 bd
       -0.027354503 0.30087304 0.27446356 -0.06025835
000260 04 2a 3b be 29 cf 55 3d f2 e9 0f be 0e 96 2c 3e
       -0.18277746 0.052199516 -0.14054087 0.16854116
000270 b2 d9 03 3d a1 1a c4 bd 6e c7 8f bf 10 3a bc 3d
       0.032190032 -0.095753916 -1.1232736 0.09190762
000280 56 57 23 bd 44 43 80 3d 02 a0 2e 3d d7 ad 83 3d
       -0.039878212 0.0626283 0.042633064 0.06429642
000290 c0 7f 63 3c 2b 51 a2 bd 74 bd 90 3c c4 c5 3e be
       0.013885438 -0.07925638 0.017668463 -0.18630129
0002a0 d0 7a c1 bb d8 57 39 3e d8 e5 89 bd de 89 60 3d
       -0.005904533 0.18099916 -0.06733292 0.05481898
0002b0 8e 38 67 bd 1e 4b 68 bc f8 5e 77 be 0b ae ce 3e
       -0.05645042 -0.014178066 -0.24157321 0.4036716
0002c0 79 e5 3a be 56 cd 26 3f b4 27 02 be e6 d1 85 3e
       -0.182516 0.6515707 -0.12710458 0.26136702
0002d0 eb 34 78 be 30 07 01 3e 66 fe 1c 3e 7b c5 72 3d
       -0.24238937 0.12600398 0.1533142 0.059270363
0002e0 dc 4b c2 be c9 e9 12 be 62 2b 90 bd 48 35 1a 3b
       -0.379485 -0.14346994 -0.070395246 0.0023530293
0002f0 d6 d0 c7 bc fc 3e 0c 3e 5c 8b 6f 3e c0 cd a3 bc
       -0.024391573 0.13695902 0.23393005 -0.01999557
000300 9c d2 40 3e a6 69 b1 be e9 06 e4 be 6b 43 c2 bc
       0.18830341 -0.34650916 -0.44536522 -0.023713788
000310 a5 73 e0 be 37 dc 27 3d 55 d2 4d be 9a 35 07 be
       -0.4383823 0.040981498 -0.20099767 -0.13204041
000320 00 2a d0 3a b0 5e 0a be 40 7a 61 3c ce cf 9f 3e
       0.0015881658 -0.13512683 0.013762057 0.3121323
000330 c6 55 95 be 2f 6c 9a 3e 30 ed 01 be f7 07 c5 3e
       -0.29167002 0.30160663 -0.12688136 0.3848264
000340 f9 6c 1d be 10 9e 9e 3d a0 81 a2 3c 97 f4 42 bd
       -0.15373601 0.07744992 0.0198372 -0.04759654
000350 88 db 0b be ed 73 a1 3e ba f1 d8 3e 66 46 42 3e
       -0.13657963 0.31533757 0.42371923 0.18972167
000360 ec 31 78 3e fa 37 d7 be 0d 50 71 3e 00 a1 a8 3c
       0.24237794 -0.42034894 0.23565693 0.020584583
000370 af 2b c2 bb ea 42 87 bb 4f f7 16 bc 12 52 0f 37
       -0.0059256176 -0.00412785 -0.009214236 8.542573e-06
000380 b2 f6 a3 3e 9a 8d ee bd 18 dc ce be 51 2d e2 bc
       0.3202415 -0.11648102 -0.40402293 -0.0276095
000390 77 97 a5 bf 92 18 31 be 5f 65 52 bd 3e 68 34 be
       -1.2936848 -0.17294529 -0.051366206 -0.1761789
0003a0 0b b5 ef be 15 0e 19 be 40 21 7b bd cb 82 86 3e
       -0.46817812 -0.14946778 -0.061311007 0.26271662
0003b0 cd 49 39 bf 1b 4c 4f 3f 00 68 39 be a1 f2 a9 be
       -0.72378236 0.809755 -0.18106079 -0.33192924
0003c0 80 21 0e 3f 51 32 7f 3d 91 da b1 be 1a 8a 7b be
       0.55519867 0.062303845 -0.34737065 -0.245644
0003d0 e8 26 f8 3d 6b af 55 3e 4b 84 5c be b5 c9 d8 3e
       0.12116796 0.20867698 -0.21534841 0.4234139
0003e0 c2 08 23 be 00 60 e1 3b 7d d4 15 3f 2a 76 37 bd
       -0.1592131 0.006877899 0.58527356 -0.044790424
0003f0 f0 45 93 bd 31 44 75 3c 58 40 20 3d 29 38 f6 3b
       -0.07191074 0.014969871 0.039123863 0.007514019

q.0.bias f4 [256]
000000 da 90 ac 3d e3 41 e4 be 79 d5 a7 bd db ad 6b 3e
       0.08426066 -0.44581518 -0.081950136 0.2301554
000010 c6 b5 de be 79 04 2c bc 12 fb c9 3e 3c 0f 5a 3e
       -0.43498057 -0.010499113 0.39449364 0.21294874
000020 42 5d e0 3e 0d 1e d3 3e 74 f6 d4 3e 2c 5d 04 bc
       0.4382115 0.41233864 0.4159428 -0.0080788545
000030 66 09 18 3e bb bd 39 bb 7c b1 84 3e 1b f0 a3 3e
       0.14847335 -0.0028341848 0.2591666 0.32019123
000040 b1 16 75 3d 92 13 9e be a6 6d 95 bc 22 0e 6c 3e
       0.059836093 -0.30874306 -0.018240761 0.23052266
000050 5f ed 0b 3e 3c e4 f3 3d 87 b4 ef 3a b5 49 c5 3e
       0.13664769 0.119087666 0.0018288054 0.38532797
000060 62 90 99 bc d7 90 42 bc 2b 92 82 3e 31 aa 85 bd
       -0.018745605 -0.011875353 0.25502142 -0.06526602
000070 fb bd e4 3d f8 20 68 3e 79 49 84 3e 6d eb b0 3e
       0.111690484 0.22668827 0.25837305 0.34554616
000080 76 36 62 3d 53 6e 16 bc 0e 3c 96 3c b6 4b 96 bd
       0.05522772 -0.009181577 0.018339183 -0.073386595
000090 79 3f 6c 3e b4 8f 39 3e 13 c5 a0 be 65 95 17 3d
       0.23071088 0.18121225 -0.31400356 0.037007708
0000a0 40 42 c0 be 15 1d 03 bb b1 3e 19 3e aa 87 b3 bc
       -0.37550545 -0.0020006348 0.14965321 -0.021915276
0000b0 4b 5a a6 bc 85 65 64 3e f0 91 8b 3e 39 2a ca bc
       -0.020306727 0.22304352 0.2725978 -0.024678336
0000c0 5b 84 d6 3d dc ae fa 3d 13 06 ae 3e 63 d1 0c bc
       0.104744636 0.12240383 0.3398901 -0.008594844
0000d0 0c af 68 3e 1c b7 8b 3c 36 ce c0 be 90 e1 92 bc
       0.22723025 0.017055087 -0.37657326 -0.017929822
0000e0 53 3a 3a 3d 95 34 de 3e 9e 22 be be 3a a3 bd 3e
       0.04546578 0.43399492 -0.37135786 0.37038594
0000f0 ef f3 a8 3d 05 be 8d 3e 3f 1f 70 3e 88 bb 66 3e
       0.08249652 0.27684036 0.2344942 0.22532475
000100 68 fa 3d 3e 0d b1 4b 3e 82 21 87 3c 07 40 9d bc
       0.18552554 0.19891758 0.01649547 -0.01919557
000110 ca 06 3a bd d9 9e 75 bc a6 70 b7 3e 40 06 d1 bc
       -0.04541663 -0.0149914855 0.3582813 -0.025515676
000120 27 f5 c1 be 08 56 93 be 15 ee 6d 3d 54 56 0c 3e
       -0.3788235 -0.28776574 0.05808838 0.13704807
000130 24 b1 d4 bc 94 3b 88 bb 1f 1f cf 3e 72 b2 23 3d
       -0.025963373 -0.004157493 0.4045343 0.0399651
000140 38 2a bc bb bd ae e3 3e 63 06 35 bb 1d 2e 09 3f
       -0.0057423376 0.44469252 -0.0027622215 0.5358599
000150 91 01 01 3d 8f c7 6a 3b 22 43 d7 3e 0f d2 4f bd
       0.031495634 0.0035824513 0.42043406 -0.050737437
000160 be f6 51 3e 32 95 60 bc b8 b7 87 be 2d a0 57 3e
       0.20504281 -0.013707446 -0.26507354 0.21057196
000170 28 92 eb 3d 0e 70 a0 be 13 93 79 3d 81 72 67 bc
       0.115024865 -0.3133549 0.060931277 -0.014126421
000180 84 f7 c0 be bf e9 20 3e 3a 48 32 bb 82 ec 27 bd
       -0.3768884 0.15714167 -0.0027203695 -0.040997036
000190 1e 68 e9 3e 48 e0 5f bc 83 1d a9 bc cb 85 86 3e
       0.45587248 -0.013664313 -0.020643955 0.2627395
0001a0 99 6b aa bc 03 de cf 3e 75 66 af 3d d9 9e c5 3d
       -0.02080326 0.4059907 0.08564464 0.096494384
0001b0 9c 4b 96 bc 1e 85 89 bc 80 55 01 3e ac 6d 8e bc
       -0.0183466 -0.016787108 0.12630272 -0.01738628
0001c0 37 8c bf 3c 04 7f e9 3d 2b f1 09 3e af bb c0 be
       0.02338229 0.114011794 0.13470905 -0.3764319
0001d0 5b 3a 88 3e 3b a1 9e bc 2b 75 63 3e 9c c9 df 3e
       0.26607022 -0.01936399 0.22212665 0.43708503
0001e0 b2 15 b4 3e c4 6e f6 3e ed 27 31 3e 2a b2 2e bd
       0.35172802 0.48131382 0.17300387 -0.04265038
0001f0 39 46 d0 bc f0 8b c8 be 79 5a c3 3e 0c ff 13 bd
       -0.02542411 -0.39169264 0.38154963 -0.036131904
000200 5d e4 c4 bb 13 ad e1 bb 20 95 61 bc 37 b9 8b 3e
       -0.0060086683 -0.006887087 -0.013768464 0.27289745
000210 d3 03 83 3e 95 e1 1f bc 00 74 4e 3e 24 f5 24 bc
       0.25588855 -0.009758373 0.20161438 -0.010068212
000220 e4 20 22 3e ed 65 1b bd 25 bb dc 3d b3 e6 61 3d
       0.1583286 -0.037939 0.107778825 0.055151653
000230 b9 50 1f 3e 3a 8d e3 3e 07 bc 7b bc 02 53 a0 3e
       0.15558137 0.44443685 -0.015364653 0.3131333
000240 3b 98 16 bc 46 e0 95 3e 53 28 db 3e de 79 6f 3e
       -0.009191568 0.2927267 0.42804202 0.23386332
000250 10 70 b2 3d 98 99 14 3e e9 ce 2b 3d 0d 59 b3 3e
       0.087127805 0.14511716 0.04194537 0.35028878
000260 96 cb c1 be 8e 6e c3 bc 6e d1 ab 3e 94 4c 40 3e
       -0.37850636 -0.023856428 0.3355822 0.18779212
000270 b2 49 a6 3e c2 9d 0a 3f ac da aa bb 66 9b a4 be
       0.324781 0.5414697 -0.005214056 -0.3214981
000280 53 76 87 be 41 b6 10 be 16 d7 36 3e ed 47 ab bc
       -0.26457462 -0.14132024 0.17855486 -0.02090832
000290 ad 60 1f 3e c3 15 16 3e 97 cb ca be 65 55 36 bc
       0.15564223 0.14656739 -0.39608452 -0.011128758
0002a0 95 14 a2 bc 31 66 5f 3e 34 95 b9 3e 83 79 b4 3e
       -0.019785205 0.21816327 0.36246645 0.35248956
0002b0 80 c4 11 3c d6 0f c0 be 44 1f 8a bc 7d cc 81 3e
       0.008896947 -0.37512082 -0.016860612 0.25351325
0002c0 23 9d dd 3e 3b b8 17 3e ff da a5 be 25 a4 2a 3e
       0.43283948 0.14816372 -0.32393643 0.16664179
0002d0 00 87 c8 be d9 ed 50 3e 04 45 a9 3c 5b 8b d1 3c
       -0.39165497 0.20403232 0.020662792 0.025579145
0002e0 96 bb 02 3d 22 45 b8 be 72 cf 41 3e e8 5d b7 3e
       0.031917177 -0.35990244 0.1892679 0.35813832
0002f0 5c af 19 3e 79 27 e9 bb 11 a9 d5 be 37 40 3f bd
       0.150083 -0.007115301 -0.4173055 -0.0466921
000300 ce 2a ce be b4 bb 69 3e a2 e3 c1 3e df 4b 1b bc
       -0.40267032 0.2282551 0.37868983 -0.009478538
000310 3a 67 b4 bb 49 10 b0 3e 64 6e 9b 3e 75 f4 d2 3e
       -0.0055054696 0.34387425 0.3035766 0.4120213
000320 53 2f 83 bb 8a 2d 81 3e 1d e8 c5 3d e4 0b 06 bd
       -0.004003444 0.25230056 0.09663413 -0.032726184
000330 b1 e5 de be 80 a6 d9 bb b4 29 e7 3d a2 8f fc 3e
       -0.43534616 -0.006642163 0.11287251 0.49328333
000340 31 57 63 3e 6d d1 1c 3e 5c c7 eb 3d 84 2e 36 bd
       0.2220123 0.15314265 0.11512634 -0.044477955
000350 97 c0 25 bd ae ac 58 3d 6d a6 ea 3e de a9 b1 be
       -0.04046687 0.052899055 0.45830098 -0.3469991
000360 fe 93 90 3e b9 55 dc be b1 18 04 bd ee 9c c1 3e
       0.2823791 -0.4303415 -0.03225011 0.3781504
000370 6e e0 c5 3e 31 71 b7 bb 43 7f c8 3d b0 b5 41 3f
       0.3864779 -0.0055982103 0.09789898 0.7566786
000380 63 70 db bb 86 f4 bc 3e f7 c5 aa be 10 12 88 3d
       -0.006696747 0.36905307 -0.3335416 0.0664407
000390 b5 61 10 3d 0b c4 a8 bb 0e 51 a7 be 18 d9 ac bb
       0.03524943 -0.0051503233 -0.32679027 -0.005274903
0003a0 5d 8a ad 3a 1a be c5 3d 39 43 bb 3e cd e6 8d bd
       0.0013240088 0.096553996 0.36574724 -0.069287874
0003b0 68 29 b7 bc 4e d1 ff 38 c6 f8 51 bd 5d 4d 9b 3c
       -0.022358611 0.000121983336 -0.05126264 0.018957788
0003c0 a5 13 b7 3c 6b fd 90 3e 8a 18 6c bc b8 90 7f bb
       0.022348234 0.28318343 -0.014410147 -0.0038996171
0003d0 54 5e 92 bb 98 c6 c1 3d 6b 41 a5 be 11 10 e7 3c
       -0.004466811 0.09461707 -0.32276472 0.028205903
0003e0 c4 f8 97 3e 65 1c 19 bc f9 2a 83 3e 87 73 b2 3e
       0.2968198 -0.009345149 0.25618723 0.34853765
0003f0 b5 fd 79 bc 2a 76 d1 3d e8 f6 56 3e 07 8c ac 3e
       -0.015258242 0.10227616 0.20992625 0.33700582

q.2.weight f4 [256, 256]
000000 25 ae 85 3d be 5e 0b bd e3 67 a5 bc f4 c8 39 3e
       0.06527356 -0.0340259 -0.020191139 0.18143064
000010 90 7c 2a 3d b7 1d d6 3e b7 74 2e 3e b4 53 bf 3e
       0.0416227 0.41819546 0.1703671 0.37368548
000020 34 1f 65 3d e6 f3 9e 3c 9d 91 2b 3e 13 a4 85 3e
       0.05593796 0.01940341 0.16754766 0.2610174
000030 ee 67 fd 3d f1 21 3b 3d ed d4 63 3e 2e 52 25 bc
       0.12373339 0.045686666 0.22249193 -0.010090394
000040 e3 fa 09 3d 50 33 1e bc c1 62 b7 3c 18 65 67 3e
       0.03368653 -0.009655789 0.022385957 0.22597158
000050 cb 5b 18 3e e7 e4 58 3e 13 92 f2 bd 11 79 22 3e
       0.14878766 0.2118107 -0.11844268 0.15866496
000060 54 84 e3 3d 4a 8d be 3d 75 86 f0 bd 8a 13 b1 bd
       0.11109224 0.093042925 -0.11744396 -0.08646305
000070 f7 11 34 3e 3f 63 90 3e d7 47 f9 3d 58 36 37 3e
       0.17584978 0.2820072 0.121719055 0.17891824
000080 5c 4f 01 3e d1 25 70 3e ca 12 99 be a3 3c cf 3d
       0.1262793 0.23451926 -0.29897147 0.101189874
000090 a4 6b 74 3e 99 64 3b 3e 16 be 02 bd 26 06 a7 be
       0.23869187 0.18300094 -0.03191956 -0.32621878
0000a0 e0 d7 9b bc 63 fb 0e 3e ea 03 1f 3e 9b fa 2e bf
       -0.019023836 0.13963084 0.15528837 -0.68351144
0000b0 92 4f 5e be 43 f3 6a bc a3 c4 17 3e da 44 f0 3d
       -0.21710041 -0.014340225 0.14821105 0.117318824
0000c0 4a 76 53 bf cc 04 d6 3d 78 0e ac 3e 05 0a 84 3d
       -0.8260237 0.10450134 0.3360479 0.064472236
0000d0 21 54 11 3e 2d 4e 8f 3d b2 01 19 3d 2e 61 0a be
       0.14192249 0.06997333 0.037355132 -0.13513634
0000e0 0a da 69 bc 01 b6 a4 3c 18 1b 29 3c 8b c9 d5 bd
       -0.014273176 0.020106317 0.010321401 -0.10438832
0000f0 5f ea 35 3e 3a dd 39 3e af 67 e2 3d 0d be 42 3e
       0.17765187 0.18150797 0.11054932 0.19017811
000100 d4 de 1b 3e 71 0f b7 3d e6 d4 b6 bd 87 50 71 be
       0.15221721 0.08938492 -0.08927326 -0.23565875
000110 20 4d af be c3 37 2c bf 09 1b 86 3e e6 69 59 3e
       -0.3423853 -0.67272586 0.261925 0.21231803
000120 7c c0 01 3d 62 27 27 bd a3 32 29 3e 7f 5d 53 3e
       0.031677708 -0.040809043 0.16523223 0.20641135
000130 fb 3e 8b 3d 03 38 93 be 93 ec ae 3e f3 00 92 3e
       0.06799122 -0.2875367 0.34164867 0.2851635
000140 2e 24 b0 bc 36 8c e1 3d 64 86 c6 3d f7 f1 5b 3e
       -0.021501627 0.11013071 0.09693602 0.21479021
000150 47 53 1b 3e 77 f4 7f be d0 02 8a be de 82 4e bf
       0.15168487 -0.249956 -0.2695527 -0.8066844
000160 5d 66 65 3e 60 6d 4f bc 3c f0 2c 3d e8 d0 5e 3e
       0.2240233 -0.012660354 0.042221293 0.21759379
000170 55 f7 c6 3d 10 09 67 bc 3c 4c e2 3d 5f 7a 32 3d
       0.097151436 -0.014101282 0.11049697 0.043573733
000180 7c b0 52 bd d3 d2 33 3e 03 b2 af 3b 21 58 32 bd
       -0.05143784 0.17560892 0.005361797 -0.043541078
000190 6d 6b 1f 3e 9c 46 ac be 8a 04 9d 3c b9 2d 4c 3e
       0.15568323 -0.3364762 0.019167203 0.19939317
0001a0 86 1a 11 3e cd ec 8b 3e 8b 3c 46 3e 33 28 aa 3e
       0.14170274 0.27329102 0.19359033 0.33233795
0001b0 fb b4 b2 be 20 d7 df be 86 1f f1 3e 03 4a 9e be
       -0.34903702 -0.43718815 0.47094363 -0.3091584
0001c0 50 11 dc be 9c 97 7d 3d d4 73 17 3e 00 11 65 3c
       -0.42981958 0.061912164 0.14790279 0.013981104
0001d0 b7 2e 85 3e 0e 86 31 bf e4 06 44 3d 44 c0 25 3c
       0.26012203 -0.69345176 0.047858134 0.0101166405
0001e0 a6 09 59 bd 44 c6 31 bf 5e 2c 42 3e 07 27 ca be
       -0.052987717 -0.69443154 0.18962237 -0.394829
0001f0 d9 6b b9 be ef 23 08 bd 96 dc a1 3e a8 9e e8 3d
       -0.36215094 -0.033237394 0.31613606 0.11358386
000200 cb ab 9c 3d 5b fa 84 be 92 96 3a be f7 ee 65 3e
       0.076499544 -0.25972256 -0.182215 0.22454439
000210 7b 5d b9 3d 6f 04 9a bc f5 0d 37 be e3 55 b9 bd
       0.09051033 -0.018800942 -0.17876418 -0.09049585
000220 52 20 e0 3d f5 3f 3c bd 3a 1c 1e bb d1 d2 35 3e
       0.109436646 -0.04595943 -0.002412571 0.17756201
000230 1c ad 6d 3e 3a 36 39 3e e9 54 32 bf 2f 06 66 3e
       0.23210567 0.18087092 -0.6966081 0.22463296
000240 cd 76 b4 bd 17 4e 4a 3e 79 ec 55 3e cb 21 3d be
       -0.08811722 0.19756351 0.20890988 -0.18469922
000250 87 88 0f 3e ea 41 25 3e 0d 2d bd 3e e3 e2 f7 3d
       0.14016925 0.16138425 0.36948434 0.12103822
000260 ec 87 1d 3d 8e 13 3e bf dd 07 ab 3e 72 89 4c 3e
       0.038459703 -0.7424859 0.33404437 0.19974306
000270 56 d1 59 3e ec 41 86 3e f1 2b ce 3c 3c 87 66 3d
       0.21271262 0.2622217 0.025167437 0.056281313
000280 d2 86 7d bc 9d 8a 9c 3c 29 d5 68 bd 6f 98 2b bf
       -0.015474038 0.019109065 -0.05684391 -0.6702947
000290 21 5b 37 3e 82 24 68 3e 33 08 14 bb af 6a 82 be
       0.17905857 0.22670177 -0.0022587895 -0.25472018
0002a0 6b 1a 38 be 9d b6 85 3e 29 af 64 3e 89 cc 8b bd
       -0.17978828 0.26115885 0.22332443 -0.06826121
0002b0 0d d1 56 bd 08 03 c4 3c 54 10 fa bd 79 e5 fe 3d
       -0.05244546 0.023927227 -0.122101456 0.12446112
0002c0 e9 77 5c 3e 8b 11 2b 3e 3e 4a 29 3d 8a 6d 21 3e
       0.21530117 0.16705911 0.04133057 0.15764442
0002d0 9a 29 13 bd f3 26 7c 3e c6 df 53 be 8c 1d 01 3e
       -0.035928346 0.24624233 -0.20690832 0.12608927
0002e0 79 f1 4e 3d 60 e4 2d bb f3 73 11 3e da dd 1d 3e
       0.050523255 -0.0026533827 0.14204387 0.15416661
0002f0 69 c7 87 3e 2b de 95 bc 06 c1 05 bd e1 dd 41 bf
       0.26519325 -0.018294415 -0.032654785 -0.75729185
000300 6a 96 29 bd ee 2a 0c 3e 2c cc a8 3e 46 3c f7 bd
       -0.04140321 0.13688251 0.3296827 -0.12072043
000310 91 57 77 bd fc cc f2 3d 61 9a 1c 3e 16 32 e6 3d
       -0.060386244 0.11855504 0.15293266 0.11240022
000320 ad fd ea 3d 5d 7f a8 3d 3a da 64 3d 5c 69 94 be
       0.11474166 0.082274176 0.05587218 -0.28986633
000330 54 c1 97 3c ef c5 c0 be 2f cf e7 bd 0e 57 26 3e
       0.018524803 -0.3765101 -0.11318814 0.16244146
000340 1c c0 83 3e 3c 2f 19 3e 69 db 70 3e fc f5 c7 be
       0.25732505 0.14959425 0.23521198 -0.3905486
000350 3c f6 aa bc e8 ef 45 bb c2 6e 16 bd f4 d2 79 bd
       -0.020869367 -0.003020281 -0.03672672 -0.060992196
000360 63 b2 ad 3e 08 bc 96 bc d7 41 46 bf 85 17 e4 3d
       0.3392516 -0.018400207 -0.77444214 0.111372985
000370 58 7a cd 3c 18 35 34 3e f8 7f 14 3e 5a 8b 92 3d
       0.025082752 0.17598379 0.14501941 0.071554855
000380 0b ef c7 bd 96 b6 87 3e a4 a4 36 3d 01 14 fd 3d
       -0.09762391 0.2650649 0.044590607 0.12357331
000390 55 7d d6 bd 44 d5 9d 3d 20 77 1f bd 44 eb 52 3d
       -0.10473124 0.07706693 -0.038931966 0.051493898
0003a0 3e fa e5 bd df cd f8 3d a3 bc 41 3e 99 7a 93 3e
       -0.112293705 0.12148642 0.18919615 0.28804472
0003b0 f5 b4 03 be f0 39 82 be 3c 5f 41 be ea 79 f3 be
       -0.12861998 -0.25434828 -0.18883985 -0.4755395
0003c0 bf 02 ef bd e1 55 77 3e bd 4c f9 bb cd ef c5 3d
       -0.11670446 0.24153854 -0.007608025 0.09664879
0003d0 42 16 eb be 37 d5 81 3b c0 83 f4 bc 87 71 c3 bd
       -0.4591542 0.003962185 -0.02984798 -0.09543138
0003e0 85 74 82 3e 94 04 4d bd 70 c3 43 3e 81 8c 50 3e
       0.25479522 -0.050053194 0.19117522 0.20366098
0003f0 f0 48 f6 3c 7f 03 05 3e a9 98 2a 3e de 12 32 3e
       0.030064076 0.12989615 0.16659798 0.1739001

q.2.bias f4 [256]
000000 28 df c6 c0 c3 04 19 3d 44 c6 49 3d b3 f8 94 bf
       -6.2147408 0.037358057 0.049261346 -1.1638397
000010 5f 21 8e bf 1d c5 22 3c 56 69 34 bd 08 31 26 3d
       -1.1103934 0.009934691 -0.04404577 0.040574104
000020 4d 60 17 3d 1b e9 5e bf 9b dc 0f c0 f7 c8 85 bb
       0.036957074 -0.8707444 -2.2478397 -0.0040827948
000030 d4 03 75 bf f8 dc 8f bd ce 4a 6b c1 4b c6 5e bc
       -0.95708966 -0.07024568 -14.705763 -0.013597081
000040 cf 39 0b bc e2 fb 39 3d 9e b5 84 bf 99 a7 86 3c
       -0.008497669 0.04540623 -1.0367925 0.016437339
000050 75 e7 19 bb 99 54 47 bf aa d8 81 c0 13 62 66 bf
       -0.0023483906 -0.7786346 -4.0576982 -0.899934
000060 8a 35 ce bc 2d 78 54 3d 11 f2 d4 bf 3e 2d 6e c1
       -0.025172014 0.05187242 -1.6636373 -14.886045
000070 a2 8c ca 3c d7 c1 6a bf 19 76 7c bf 54 0a bb bc
       0.024725262 -0.91702026 -0.986177 -0.022832073
000080 56 72 5b bf 91 ea 62 bf 19 ad 71 bf 15 f2 5e bf
       -0.8572134 -0.8863917 -0.9440475 -0.8708814
000090 ee b9 37 bd 3a b3 0f c0 6c 21 0c 3d cb 44 56 bd
       -0.04485505 -2.2453141 0.03421156 -0.0523117
0000a0 5e ce 17 3d 4b 19 c5 3c 42 36 8c bd 2f 24 3e 3d
       0.03706204 0.024059912 -0.06846286 0.046421226
0000b0 ba a3 92 bf 31 ec 1c bf 92 52 d7 3a 4e dc a1 bf
       -1.1456215 -0.612979 0.0016427806 -1.2645357
0000c0 07 4a 3f bd b1 9f 50 3d af 26 64 bf 3a 09 82 bb
       -0.046701457 0.050933544 -0.89121526 -0.003968385
0000d0 f1 12 f2 3c 68 20 40 3d a0 ff ac bd 06 48 80 bd
       0.029550048 0.046905905 -0.08447194 -0.062637374
0000e0 74 1f 8b 3c 97 e5 ca bf 05 ef a0 bf bf f6 6c bd
       0.016982771 -1.5851315 -1.2572943 -0.057852503
0000f0 8c 0a 83 bf 5b c4 09 c1 cf bb 2e bc 14 72 b4 bb
       -1.0237594 -8.610438 -0.010664894 -0.0055067632
000100 2c 4f 60 bf 84 87 20 bd 8c 0a 42 bf 57 f6 e5 bc
       -0.87620807 -0.039191738 -0.75797343 -0.028071566
000110 ce 54 0d bd 75 70 40 c1 7f f5 ca be 4a 61 40 3d
       -0.034504704 -12.027455 -0.39640424 0.046967782
000120 9a dc 4a bf dd 5d fc bd 1b fc 1d 3d 0c 2c 71 bf
       -0.7924286 -0.123225905 0.038570505 -0.94207835
000130 9b eb 93 bf 3b 6c 88 bd f4 b3 ed bc 51 0e 68 bc
       -1.1556276 -0.06661268 -0.029016472 -0.01416357
000140 ce b0 52 40 fa 95 36 bd db ae 20 bd b5 88 9b c0
       3.2920413 -0.044576623 -0.039229255 -4.860438
000150 d6 af 47 bd 5e bc 53 40 e6 0f 91 bf 46 53 95 bd
       -0.048751675 3.308372 -1.1332977 -0.07291274
000160 30 01 06 be fc e9 24 c1 c4 af 3f 3b 0e 16 15 c0
       -0.1308639 -10.307125 0.0029249052 -2.329471
000170 d7 15 5b bf c3 ab af bf e7 de 54 be 7b bf fa 3c
       -0.855802 -1.3724293 -0.20788155 0.030608883
000180 bf a1 6e bf be 4e 25 be e5 d5 a0 3d cd a5 05 3d
       -0.93215555 -0.16143319 0.07853297 0.032628823
000190 7d 66 d5 bb e6 31 17 bf 3a b3 25 bd 29 ed 5b bd
       -0.0065124617 -0.59060514 -0.040454127 -0.05369297
0001a0 8d 96 63 bf b4 db 31 3d 77 62 99 bd cf 69 77 bf
       -0.889016 0.043422416 -0.07489484 -0.96645826
0001b0 a6 ce 76 ba b6 3c a2 bc c2 e8 81 bf 02 43 5f bd
       -0.0009414948 -0.01980434 -1.0149157 -0.054507263
0001c0 fe 43 ce 3b 94 e6 70 bf be b7 27 be 05 db 7f c0
       0.0062947264 -0.94101834 -0.16378686 -3.997743
0001d0 02 08 5f bf 84 96 76 bc 95 09 82 c0 d6 53 2d c0
       -0.87121594 -0.015050534 -4.0636697 -2.708242
0001e0 64 87 50 bf 72 2e 37 bf 09 68 09 bd 0c 2d 69 40
       -0.8145659 -0.71555245 -0.03354648 3.6433744
0001f0 6f 97 29 c0 d0 4f 01 bc cb 3b cd bc ff bd c2 be
       -2.6498678 -0.007892564 -0.025052926 -0.3803558
000200 ad ca 13 bd 39 d6 32 ba 94 4d af bf 86 0b 3b bf
       -0.03608196 -0.0006822083 -1.369555 -0.7306446
000210 49 30 86 be c3 07 b8 bc 76 eb 84 bf 9c e4 72 bc
       -0.26208714 -0.022464639 -1.0384357 -0.014825013
000220 07 55 67 bf 67 58 79 bf 54 c2 13 be 1a 90 f6 bb
       -0.90364116 -0.97400516 -0.14429599 -0.0075245025
000230 08 51 66 bf 8a 64 19 be 28 1f cd c0 de ee b3 bb
       -0.89967394 -0.14979759 -6.4100533 -0.0054911217
000240 56 22 01 c0 de 3c 7b bf ca 3c 58 bf 84 43 c7 3b
       -2.0177207 -0.9813975 -0.84467757 0.0060810465
000250 40 a2 80 bd 47 be 0b bd 15 29 70 bf 9c 96 49 bd
       -0.06280947 -0.03411701 -0.93812686 -0.049215898
000260 f1 86 2a 3d 93 0b 3d bd 30 4c 27 c0 c5 d2 a0 bd
       0.041632596 -0.046153616 -2.614025 -0.07852701
000270 23 c4 71 bf 84 ec 17 bd 75 0e 01 c1 78 3e 31 c0
       -0.94439906 -0.037090793 -8.06603 -2.7694378
000280 01 34 a4 3d 94 d9 99 bf f5 a1 88 bf 5d 3a 18 c1
       0.080177315 -1.2019525 -1.0674425 -9.514249
000290 ad a7 0f bd 53 c9 a1 bf 9c a3 6c bf 3b a5 9c bb
       -0.035072017 -1.2639564 -0.9243715 -0.004780439
0002a0 28 cf 6b 40 22 01 8d bf 98 0f 95 bf 64 23 88 bd
       3.6845188 -1.1015971 -1.1645384 -0.06647375
0002b0 4e d1 00 3c ec 02 db 3c 30 1e 80 bf 1c 15 0e c1
       0.007862402 0.026734792 -1.0009212 -8.880154
0002c0 1d db 87 bd 99 7b b2 c0 00 00 b6 37 4a ad 02 bd
       -0.066335894 -5.5775876 2.169609e-05 -0.031903543
0002d0 aa 37 f6 3b 1d 2d e3 c0 53 1e 08 3c 06 59 41 bd
       0.00751396 -7.099257 0.008308011 -0.04720404
0002e0 2b 4a db c0 0c c6 8a bd 61 76 11 c0 8a 8a 9d 40
       -6.8528037 -0.06776056 -2.2728503 4.9231615
0002f0 ec 42 f4 bc ca 96 79 bf c0 a8 41 3c b0 f9 89 bf
       -0.029817067 -0.9749571 0.011820018 -1.0779324
000300 72 80 82 be 42 df e1 3a 04 57 10 c1 ae cc a4 bb
       -0.2548862 0.0017232674 -9.021244 -0.0050292825
000310 91 19 dd 3c 5f eb 6b bf 42 4b 0c be 24 e8 f9 bd
       0.02698973 -0.9215602 -0.13700584 -0.122024804
000320 92 c2 8e bb 98 60 60 bf 9a d7 fb 3b 5d e8 4c bf
       -0.0043566907 -0.8764739 0.007685614 -0.8004206
000330 7b 26 6f bf 7c 4e 1b c1 00 55 73 bf 98 ff 57 bf
       -0.9341809 -9.706661 -0.95051575 -0.8437438
000340 d9 9a 2c 3d 6b 42 d0 bf ef a3 18 be d8 ab 08 be
       0.04213986 -1.6270269 -0.14906286 -0.13346803
000350 cb 6a 12 c1 45 22 e4 c0 15 a0 bc 3c 43 1e 23 bd
       -9.1510725 -7.1291833 0.023025552 -0.03982378
000360 2d 47 1a bd a6 d8 33 3d db 65 3c bd 82 05 b3 bf
       -0.037665535 0.043907784 -0.045995574 -1.3986056
000370 27 c8 2e bd dc 8a 87 bc 1a 06 62 bc 73 3e 8b bf
       -0.04267135 -0.016545705 -0.0137954 -1.0878433
000380 31 b4 f2 c0 84 bb f6 bd 22 fa 9f 3b d8 c7 a3 c0
       -7.584496 -0.120474845 0.004882113 -5.118145
000390 e8 16 37 bd b8 de b0 bf de 43 77 bf b4 05 c8 bc
       -0.04469958 -1.3817968 -0.9658793 -0.024416782
0003a0 80 d8 2d bf 70 1a 8f bc 10 18 33 3d 78 90 57 bf
       -0.6790848 -0.017468661 0.04372412 -0.84204817
0003b0 33 9e 1a bc 67 8c 4f bb dc 07 5d bd 6c a7 28 be
       -0.009437132 -0.003166938 -0.053962573 -0.16470116
0003c0 71 97 a8 bd db c8 a3 bb bb 52 70 bf 58 45 0f c0
       -0.0823201 -0.004998309 -0.93876237 -2.2386074
0003d0 27 3d 55 bf 6d cc 78 bf 42 b6 22 bd f2 35 fa bf
       -0.83296436 -0.9718693 -0.039724596 -1.9547713
0003e0 90 13 f9 bc e8 7a 09 bd 71 19 df 3c 33 b6 37 bd
       -0.030404836 -0.03356448 0.027233811 -0.044851493
0003f0 52 83 2e bf fa b7 0b bd f6 2c 14 39 0a 89 af bf
       -0.6816913 -0.034111 0.00014131129 -1.3713696

q.4.weight f4 [10, 256]
000000 ce ae 86 bf 80 f0 50 3a 59 78 3c 3d a2 f0 15 bf
       -1.0522096 0.00079704076 0.04601321 -0.585703
000010 07 68 00 bf d3 4e b3 bc 04 89 f1 3c 80 db ec bb
       -0.50158733 -0.021888172 0.02948428 -0.007228315
000020 71 3f 40 3d f4 78 11 bf 20 96 b1 be 7e d1 97 3b
       0.046935502 -0.56825185 -0.3468485 0.0046331277
000030 7f 29 03 bf ec c1 c5 3c 58 b5 b9 bf db b3 a3 bc
       -0.51235193 0.02414032 -1.4508467 -0.019983223
000040 08 0f 26 bd a2 fe ce bc fd 94 b7 be 85 2e fa ba
       -0.04054168 -0.025267903 -0.35855857 -0.001908735
000050 6c 42 d2 bc b6 47 0a bf b6 2b 26 bf 92 36 02 bf
       -0.025666438 -0.5401567 -0.6491045 -0.5086452
000060 16 07 25 3d f3 82 58 3c f9 7b 28 bf d8 07 a5 bf
       0.04028996 0.0132148145 -0.6581417 -1.2893019
000070 f6 66 54 3d da 1d dd be e9 29 12 bf ff 2b cd bc
       0.051856004 -0.43186837 -0.570952 -0.025045393
000080 6b 07 cb be ff ad f9 be f0 10 fc bd 79 61 f5 be
       -0.39654097 -0.4876556 -0.12307918 -0.47925928
000090 f2 ff 02 bd 0d 44 2e bf 04 6d 6f bd 64 81 19 3d
       -0.03198237 -0.6807259 -0.058453575 0.037476912
0000a0 b2 b8 8c bc fc 00 fe 3c 8e 9e 6a bd 21 0e 35 3d
       -0.017177913 0.031006329 -0.057280116 0.044202928
0000b0 84 8c 28 bf c9 4e bd be b8 df ae bc 97 98 f9 be
       -0.6583941 -0.3697417 -0.021346912 -0.4874923
0000c0 17 e9 a0 bb e9 92 65 bb 66 1b e0 be c6 72 62 bd
       -0.004910599 -0.0035030192 -0.43770903 -0.055285238
0000d0 13 dd 97 3b 83 53 5f bd 04 b6 89 bc e5 8e 8e bc
       0.0046345084 -0.054523002 -0.016810425 -0.017402122
0000e0 f5 df ff 3c 7c d0 08 bf bf a2 24 bf ce 35 6c bc
       0.03123472 -0.5344312 -0.6431083 -0.014417125
0000f0 c4 6d 0c bf 6d 76 b8 bf 80 8d 82 bc 23 9d 62 3d
       -0.5485499 -1.4411141 -0.015936613 0.05532564
000100 fd 9e 12 bf 76 b5 7c 3d 7b 3b a4 be ba 51 69 bb
       -0.57273847 0.061696492 -0.3207663 -0.0035601691
000110 a1 2c 06 bd 2d 71 3b bf 9e 13 83 bd 31 fb ed bc
       -0.032757405 -0.7321957 -0.06400226 -0.029050441
000120 a3 8d 53 bf a1 f9 56 bc 6a 2b 68 bd 36 5a e5 be
       -0.82637995 -0.01312104 -0.056682028 -0.44795388
000130 8c f4 19 bf 41 f9 79 bd a8 04 8c bd ac 87 be 3c
       -0.60138774 -0.061028723 -0.068368256 0.023258053
000140 18 e6 90 3d ed 42 3e bc 23 37 3c bd d4 d5 da be
       0.07075137 -0.011612636 -0.04595102 -0.42741263
000150 30 8c d6 bc 7f 60 83 bd 63 86 1e bf 04 e9 72 bd
       -0.026189893 -0.064148895 -0.6192381 -0.059304252
000160 9b 8b b9 be e9 ba 47 bf f2 47 71 3d 41 b2 a8 be
       -0.36239323 -0.7801958 0.058906503 -0.32948497
000170 a9 6e ef be b3 53 04 c0 e0 10 00 be 77 b0 14 bd
       -0.46764114 -2.0676086 -0.12506437 -0.036301102
000180 36 34 e8 be 71 7e 96 bd 1e 06 e6 bc 4a 46 47 3c
       -0.45352334 -0.073483355 -0.028079089 0.012162754
000190 5c c6 0c 3d ae 1f fb be 8a be 53 bd 85 7e 06 bc
       0.034368858 -0.49047607 -0.051695384 -0.008208876
0001a0 38 23 07 bf da 15 ac bc e8 07 24 bd 11 e2 0c bf
       -0.52788115 -0.021006513 -0.040046602 -0.5503245
0001b0 30 d6 58 bc 38 53 1d 3c 5c 30 23 be 4c c2 91 bc
       -0.01323466 0.00960236 -0.15936416 -0.017792843
0001c0 c9 c5 a4 bd dd 7e f8 be 96 72 ea bb 86 54 40 bf
       -0.08045537 -0.4853429 -0.007154773 -0.7512897
0001d0 47 93 14 bf b9 a5 84 3b f0 a8 46 bf 49 e6 15 bf
       -0.5803723 0.004048076 -0.7760153 -0.5855451
0001e0 f4 f2 00 bf e5 f3 f7 be e4 81 92 bd 4b 07 60 3e
       -0.5037072 -0.48428264 -0.07153681 0.21877782
0001f0 f9 73 ad be c4 ec 5e 3d 39 03 10 3d 0e 77 8c be
       -0.33877543 0.054425016 0.035159323 -0.27434582
000200 f6 22 70 bc 65 cc 12 3d c7 d0 0d bf ac f5 06 bf
       -0.014656773 0.035839457 -0.55396694 -0.52718616
000210 b3 5d 7f bd b0 9e b5 bc 71 1d 0b bf 94 f2 38 3d
       -0.062345218 -0.022170395 -0.543418 0.045153216
000220 2d 66 00 bf 2a d2 17 bf 0e c3 37 bd a0 9e 06 bc
       -0.5015591 -0.5930506 -0.044863753 -0.00821653
000230 7e 31 0e bf 04 cc 32 be 56 1d 9c be 14 00 64 3d
       -0.5554427 -0.17460638 -0.30491132 0.055664137
000240 31 57 bf be 5f 20 e7 be 9a fe 09 bf 49 b0 9d bc
       -0.3737121 -0.45141885 -0.53904116 -0.019249098
000250 a0 b1 c3 bb 40 e9 ac ba 69 33 d9 be c2 3e 0c 3d
       -0.0059721023 -0.0013192073 -0.42422035 0.034239538
000260 28 bc 0f 3d c9 52 f7 3c b8 31 28 bf 2f 70 02 3d
       0.03509155 0.030190842 -0.65700865 0.031845268
000270 5c d1 0d bf e4 41 05 bc 8c a7 3b bf d8 46 f3 3c
       -0.5539758 -0.008133385 -0.7330253 0.029696867
000280 3b ff c8 3b 34 3c dd be 85 e9 02 bf d9 6e 08 bf
       0.0061339415 -0.43209994 -0.5113757 -0.5329414
000290 68 ed 96 bc 27 9f 0d bf ba 8a 09 bf 5e 16 ca bc
       -0.018423751 -0.5532097 -0.53727305 -0.024668869
0002a0 1e db 0d 3f d6 44 6a bd 1e 2c 33 bf b0 66 ff be
       0.5541247 -0.057194553 -0.6998919 -0.49883032
0002b0 5a 32 e3 bc 54 fc 26 bd be 8c d3 bd cd 02 8c bf
       -0.02773397 -0.040767983 -0.10329579 -1.0938355
0002c0 46 a9 25 3d 70 99 56 be c0 91 e3 3c d6 04 f4 3c
       0.040444635 -0.2095697 0.02777946 0.029787462
0002d0 99 c3 f6 3a 43 93 d6 be 45 c8 0e bd b7 b4 0a bc
       0.0018826603 -0.41909227 -0.03485896 -0.008465937
0002e0 37 87 8a bf ee a0 7d bd 77 36 27 be 1a 1c 37 3f
       -1.0822514 -0.061921053 -0.1632937 0.71527255
0002f0 46 61 23 3d 40 4d 00 bf fc d9 db bc e0 8d 04 bf
       0.03988769 -0.50117874 -0.026837341 -0.51778984
000300 d1 41 96 bd 28 b6 1a bd d0 9d 8e bf e4 ad 9c 3c
       -0.07336772 -0.037771374 -1.114191 0.019125886
000310 fc 4d a7 bd a7 f1 0b bf bb 50 37 be 90 bc 5d bd
       -0.08169171 -0.5466561 -0.1790189 -0.054134905
000320 40 7b 17 3d d3 80 da be e3 be 0a 3d c4 a8 02 bf
       0.036982775 -0.4267641 0.03387345 -0.51038766
000330 f4 47 e0 be cc f9 a3 be 6d 64 0e bf 2e 57 e4 be
       -0.43804896 -0.32026517 -0.5562199 -0.44597763
000340 b6 72 a8 bc b3 c6 5a bf 62 c2 bc bd dd 01 0a be
       -0.020562511 -0.8545944 -0.09216763 -0.13477273
000350 2a bf 10 bf a4 4e 25 bf 92 95 d0 3b 0e cf 96 bb
       -0.56541693 -0.6457312 0.0063654864 -0.0046023196
000360 1b fe bc bc 10 90 30 bc 52 fa 35 bd be 5b 23 bf
       -0.023070386 -0.010776535 -0.044428177 -0.6381186
000370 a8 e8 f9 bc 5b 7d eb bb fa 99 43 3d b9 47 0f bf
       -0.030506447 -0.0071865744 0.047754265 -0.55968815
000380 60 7e 47 3e 74 a1 40 3c ee 06 1b bd 9c c3 ca be
       0.19481802 0.011757243 -0.037848406 -0.39602363
000390 94 9f f3 3c cb d5 e7 be fc 4d fe be 6e d3 47 bd
       0.029739179 -0.452803 -0.49668872 -0.04878562
0003a0 29 39 94 be be 92 cd ba ab 30 36 ba 1d 12 af be
       -0.2894986 -0.0015683991 -0.0006950001 -0.34193507
0003b0 24 72 d3 3c 44 03 c2 bb 22 08 31 3d 2f 99 dd bd
       0.025811262 -0.0059207994 0.043220647 -0.10820233
0003c0 51 96 30 bd 82 84 7b bc bb 39 05 bf b9 c2 eb be
       -0.043112103 -0.015351417 -0.52041215 -0.46047
0003d0 fb a2 05 bf 5f de c1 be 13 c3 01 bd 01 96 ad be
       -0.52201813 -0.37864968 -0.031680178 -0.33903506
0003e0 28 38 57 bc e8 51 a2 3c d2 3b aa 3c 88 c8 6e 3c
       -0.013135947 0.019814447 0.020780478 0.014574178
0003f0 a4 02 90 be b6 fe 0c bd 9c c5 96 3c 61 99 36 bf
       -0.28127015 -0.0344226 0.018404774 -0.7132779

q.4.bias f4 [10]
000000 f0 13 df 40 f1 67 ae 40 d7 66 6d 40 c5 72 3e 41
       6.971184 5.450188 3.7094018 11.90302
000010 1a c5 93 40 e7 0f a7 40 4d a2 bd 40 1f 8e ff 40
       4.6178102 5.220691 5.926062 7.986099
000020 56 f1 86 41 cf 07 5a 41
       16.86784 13.626906
