task4/task3_experiment_2_c_target_q1.pt (torch, 281951 bytes, 6 tensors)

q.0.weight f4 [256, 5]
0.07320675 0.047638528 0.035948142 -0.013214309 0.36113858 0.40619767 0.19819686 0.27861887
0.35116386 -0.13190079 0.76870453 -0.017911458 2.0058508 -0.22870725 0.029505044 0.0028354719
-0.32892364 -0.0877097 -0.14120916 0.021436214 0.15885274 -0.329416 0.046096027 0.37783343
0.4298554 -0.008342069 0.0025462469 -0.011915812 -0.0057786927 0.39637983 -0.13874777 0.5908123
0.09649941 0.015492451 0.19671583 0.28571486 0.00905799 -0.113633424 0.21444969 0.20754957
-0.035697285 -0.8559329 0.0026789445 -0.041340638 -0.05527752 -0.6074774 0.4018009 -0.10058416
0.09837595 -0.21856491 -0.032595415 0.1985435 -0.4546735 0.07595855 0.40992016 -0.0061855866
0.007943997 -0.0043644607 0.010161183 -0.32171088 0.19350712 0.1858769 0.028248802 0.0947682
0.37066412 -0.00048079956 -0.002434693 -0.0010179835 -0.0005118539 -0.27686006 0.11749553 0.41200763
0.028841607 0.06832921 0.21511799 -0.4122963 -0.10153735 0.18422848 -0.15510164 0.30963755
0.19543827 0.09624536 0.25101 0.096953966 -0.15719357 0.27778 0.28484654 0.2828313
0.2691205 0.21435761 0.305088 1.0706127 0.26422688 1.0998652 0.3939219 -0.29586467
0.07019158 0.047771677 -0.038269673 -0.17241895 -0.18795873 0.017831828 -0.015885983 0.053855848
-0.17358199 0.0630796 -0.17785399 0.121665925 -0.15692143 -0.38890517 1.4907527 -1.1378498
-1.4812777 1.1599038 0.43093872 -0.025812002 -0.7755462 -0.013370178 -0.09161933 -0.2191531
0.00896326 -0.021045594 0.0053210035 0.0074355705 0.13961822 -0.014900906 0.0019032866 0.0051208525
0.0026569855 0.21004522 -0.1495201 -0.3093843 0.17426044 1.2923822 -0.22196682 -0.054437093
0.03961253 -0.06685471 0.06402077 -0.3242773 -0.05482918 0.023185244 0.15053067 0.029919123
-0.36622262 -0.08341729 0.09206424 0.087151974 -0.02740193 0.30087304 0.27453908 -0.060365178
-0.18229222 0.052081913 -0.14054087 0.1691989 0.031933617 -0.09552342 -1.1233177 0.09190762
-0.03983876 0.062491182 0.043069843 0.06412138 0.013885438 -0.080151536 0.017940424 -0.1863274
-0.0060594557 0.18099914 -0.06765379 0.054745167 -0.05643235 -0.013524169 -0.24157321 0.40458202
-0.18288708 0.651832 -0.12656617 0.26136702 -0.24232706 0.1257592 0.15377718 0.05918251
-0.379485 -0.14339587 -0.070662335 0.002835919 -0.024400016 0.13695902 0.23393005 -0.01999557
0.18830338 -0.34650916 -0.44536522 -0.023046866 -0.43872005 0.040402066 -0.2001747 -0.13204041
0.0015881658 -0.13512681 0.013762057 0.3121323 -0.29167002 0.30186775 -0.12706496 0.38471785
-0.15208746 0.07744992 0.019821545 -0.0477028 -0.13601403 0.31520817 0.42371923 0.18993491
0.24123639 -0.41999322 0.23652132 0.020584583 -0.005925617 -0.0041278573 -0.009214251 8.542564e-06
0.3202415 -0.11595555 -0.40362215 -0.027331626 -1.2942418 -0.17294529 -0.05119632 -0.17648599
-0.46766904 -0.14931528 -0.061311 0.26283607 -0.72376865 0.8093908 -0.18105546 -0.33192924
0.55597705 0.061682153 -0.3480123 -0.24452844 0.12116794 0.20848672 -0.21548884 0.42387566
-0.15926966 0.006877899 0.58529305 -0.0450014 -0.071410425 0.014855364 0.039123863 0.007514025
00000000: 6ced 953d 9e20 433d 5c3e 133d d480 58bc
00000010: 28e7 b83e 24f9 cf3e 1ef4 4a3e 22a7 8e3e
00000020: c0cb b33e 0011 07be d2c9 443f 0dbb 92bc
00000030: dc5f 0040 3c32 6abe 90b4 f13c 53d3 393b
00000040: ae68 a8be 25a1 b3bd 2299 10be 009b af3c
00000050: 4baa 223e 37a9 a8be 30cf 3c3d 6273 c13e
00000060: 0216 dc3e 2cad 08bc efde 263b 8a3a 43bc
00000070: 305b bdbb 4cf2 ca3e e513 0ebe 7a3f 173f
00000080: 7ca1 c53d 0dd4 7d3c e06f 493e 3849 923e
00000090: f767 143c a4b8 e8bd b398 5b3e e087 543e
000000a0: 5137 12bd 6b1e 5bbf 3b91 2f3b cd54 29bd
000000b0: ae6a 62bd a483 1bbf d9b8 cd3e 11ff cdbd
000000c0: 5479 c93d 7bcf 5fbe c582 05bd fd4e 4b3e
000000d0: f7ca e8be 2890 9b3d 0ee1 d13e 76b0 cabb
000000e0: 8a27 023c c003 8fbb 177b 263c 4ab7 a4be
000000f0: bb26 463e 8456 3e3e 086a e73c d415 c23d
00000100: b0c7 bd3e d313 fcb9 5f8f 1fbb dc6d 85ba
00000110: ef2d 06ba 9ac0 8dbe 7fa1 f03d aaf2 d23e
00000120: 3c45 ec3c 2ff0 8b3d e447 5c3e 8018 d3be
00000130: d0f2 cfbd 64a6 3c3e f7d2 1ebe d088 9e3e
00000140: f820 483e 4a1c c53d 6284 803e cd8f c63d
00000150: 5af7 20be 2e39 8e3e 68d7 913e 44cf 903e
00000160: 2aca 893e 9080 5b3e 7f34 9c3e d609 893f
00000170: bf48 873e 62c8 8c3f 22b0 c93e 937b 97be
00000180: 9ac0 8f3d 3cac 433d a9c0 1cbd 988e 30be
00000190: 4178 40be 0e14 923c 5223 82bc f397 5c3d
000001a0: 7abf 31be e12f 813d 5b1f 36be fc2b f93d
000001b0: 03b0 20be 941e c7be fcd0 be3f 10a5 91bf
000001c0: 829a bdbf ba77 943f 00a4 dc3e b173 d3bc
000001d0: 328a 46bf 970e 5bbc eaa2 bbbd ac69 60be
000001e0: a3da 123c cf67 acbc d05b ae3b 16a6 f33b
000001f0: 14f8 0e3e ee22 74bc b377 f93a d3cc a73b
00000200: d220 2e3b 1816 573e cc1b 19be 9e67 9ebe
00000210: 5471 323e c86c a53f 454b 63be 6ef9 5ebd
00000220: c040 223d 1feb 88bd 521d 833d ad07 a6be
00000230: 9094 60bd fbee bd3c b624 1a3e f318 f53c
00000240: 8881 bbbe afd6 aabd 2d8c bc3d bc7c b23d
00000250: 037a e0bc 080c 9a3e 6390 8c3e 7a41 77bd
00000260: d0aa 3abe d853 553d f2e9 0fbe 7a42 2d3e
00000270: d3cc 023d c8a1 c3bd e0c8 8fbf 103a bc3d
00000280: f82d 23bd c1f6 7f3d 016a 303d 1252 833d
00000290: c07f 633c 7d26 a4bd ccf7 923c 9ccc 3ebe
000002a0: 668e c6bb d757 393e 128e 8abd 783c 603d
000002b0: 9c25 67bd 7a94 5dbc f85e 77be 6025 cf3e
000002c0: c046 3bbe 76de 263f 909a 01be e6d1 853e
000002d0: 9624 78be 05c7 003e c477 1d3e 5c69 723d
000002e0: dc4b c2be 5ed6 12be 6ab7 90bd d3da 393b
000002f0: 8be2 c7bc fc3e 0c3e 5c8b 6f3e c0cd a3bc
00000300: 9ad2 403e a669 b1be e906 e4be c8cc bcbc
00000310: ea9f e0be a37c 253d 99fa 4cbe 9a35 07be
00000320: 002a d03a af5e 0abe 407a 613c cecf 9f3e
00000330: c655 95be 698e 9a3e 511d 02be bdf9 c43e
00000340: d1bc 1bbe 109e 9e3d cb60 a23c 0364 43bd
00000350: 4347 0bbe f762 a13e baf1 d83e 4c7e 423e
00000360: ac06 773e 5a09 d7be a532 723e 00a1 a83c
00000370: ae2b c2bb fa42 87bb 5ff7 16bc 0852 0f37
00000380: b2f6 a33e 1a7a edbd 90a7 cebe 93e6 dfbc
00000390: b7a9 a5bf 9218 31be 3cb3 51bd beb8 34be
000003a0: 5172 efbe 1be6 18be 3e21 7bbd 7392 863e
000003b0: e748 39bf 3c34 4f3f 9a66 39be a1f2 a9be
000003c0: 8354 0e3f 6da6 7c3d ab2e b2be aa65 7abe
000003d0: e626 f83d 8b7d 553e 1ba9 5cbe 3b06 d93e
000003e0: 9617 23be 0060 e13b c4d5 153f 6353 38bd
000003f0: a13f 92bd ea63 733c 5840 203d 3638 f63b

q.0.bias f4 [256]
0.08428859 -0.44581518 -0.08176371 0.23005818 -0.43498 -0.010499105 0.39453715 0.2128644
0.43819788 0.41229182 0.41587684 -0.008078844 0.148489 -0.002834184 0.25908664 0.32016936
0.06011908 -0.30874306 -0.018302986 0.23043767 0.1366743 0.119030505 0.002090551 0.38532326
-0.018745564 -0.011875338 0.25466692 -0.06526592 0.11168658 0.22660118 0.25823057 0.34546614
0.0551777 -0.008860799 0.018227715 -0.072640345 0.2307391 0.18117909 -0.31400356 0.037148725
-0.37550545 -0.0028396507 0.14970936 -0.021929683 -0.020306721 0.22253439 0.27247772 -0.024339415
0.10468129 0.1225291 0.3398808 -0.00859483 0.22723651 0.01716774 -0.37657282 -0.0179298
0.04563812 0.43404117 -0.37135786 0.3699088 0.08244221 0.2768184 0.23442523 0.22526875
0.18551421 0.19890484 0.017043391 -0.019195542 -0.04541661 -0.014991469 0.35823935 -0.025515644
-0.37882346 -0.28776574 0.058171943 0.13699214 -0.02596335 -0.0041574836 0.4045653 0.039935462
-0.005742334 0.44468352 -0.0027622208 0.5358535 0.031560075 0.003515925 0.42047685 -0.051392607
0.20507029 -0.013707436 -0.26507354 0.21048476 0.11498597 -0.3133549 0.06111689 -0.0141264
-0.3768884 0.15708695 -0.0031266662 -0.041017752 0.45585278 -0.013664297 -0.020643935 0.26269236
-0.020803228 0.4059402 0.08553368 0.096684426 -0.018346585 -0.016787067 0.12597887 -0.017386243
0.02408663 0.11409434 0.1347106 -0.3764319 0.2660467 -0.019363962 0.22193737 0.43714315
0.35150647 0.48210257 0.17285065 -0.042650357 -0.025424076 -0.39169213 0.3814099 -0.03615278
-0.0060086637 -0.007092558 -0.013768456 0.2728679 0.25594953 -0.009758368 0.20166814 -0.0100682005
0.15839261 -0.037938982 0.10775552 0.05516447 0.15558985 0.44453743 -0.01521398 0.31304425
-0.009375051 0.29277226 0.4280295 0.23368417 0.08712941 0.14511438 0.04196089 0.35014558
-0.37850636 -0.024475703 0.33556783 0.18771525 0.32476166 0.5414143 -0.0052140504 -0.32149756
-0.26457453 -0.14132005 0.17872056 -0.021831281 0.15564828 0.14638482 -0.3960844 -0.011128753
-0.019355131 0.2180729 0.3624931 0.35244268 0.00894405 -0.37512082 -0.016860604 0.25348204
0.4328392 0.1481297 -0.32393643 0.16665716 -0.39165497 0.20395817 0.020508613 0.02504175
0.03217697 -0.35990244 0.18924724 0.35814708 0.15002051 -0.0071152984 -0.4173054 -0.046692073
-0.40267032 0.22814386 0.37868807 -0.009478524 -0.0055054612 0.3438811 0.30346173 0.411933
-0.003810835 0.25230062 0.09663155 -0.032726128 -0.43534598 -0.0066421586 0.11327855 0.49324593
0.22198282 0.15308896 0.11505109 -0.04447791 -0.04025869 0.052854136 0.45826417 -0.3469991
0.28240246 -0.4303415 -0.032250073 0.37818742 0.38635433 -0.0055982023 0.09779003 0.7566061
-0.0066967434 0.3690618 -0.3335416 0.066511646 0.035103586 -0.00515032 -0.32679027 -0.0052748937
0.0017950896 0.09652619 0.36574942 -0.06928778 -0.022358574 -0.0003588882 -0.051262558 0.018294405
0.022120023 0.28311777 -0.014410137 -0.0038996122 -0.0044668037 0.094578944 -0.32276416 0.027834123
0.29677176 -0.00934514 0.25613502 0.3485834 -0.015258237 0.102353714 0.20983264 0.33699098
00000000: 7f9f ac3d e341 e4be bb73 a7bd 5f94 6b3e
00000010: b3b5 debe 7004 2cbc c600 ca3e 20f9 593e
00000020: 795b e03e ea17 d33e cfed d43e 215d 04bc
00000030: 800d 183e b8bd 39bb 01a7 843e 3ded a33e
00000040: 6d3f 763d 9213 9ebe 25f0 95bc daf7 6b3e
00000050: 59f4 0b3e 44c6 f33d a001 093b 1749 c53e
00000060: 4c90 99bc c790 42bc b463 823e 23aa 85bd
00000070: efbb e43d 240a 683e cc36 843e f0e0 b03e
00000080: 0302 623d e22c 11bc 4a52 953c 76c4 94bd
00000090: df46 6c3e 0387 393e 13c5 a0be 4329 183d
000000a0: 4042 c0be 6f19 3abb 694d 193e e1a5 b3bc
000000b0: 485a a6bc 0ee0 633e 3382 8b3e 7463 c7bc
000000c0: 2563 d63d 89f0 fa3d db04 ae3e 54d1 0cbc
000000d0: b0b0 683e 5ca3 8c3c 27ce c0be 84e1 92bc
000000e0: 0aef 3a3d a53a de3e 9e22 bebe b064 bd3e
000000f0: 76d7 a83d 24bb 8d3e 2b0d 703e daac 663e
00000100: 70f7 3d3e b6ad 4b3e 959e 8b3c f83f 9dbc
00000110: c406 3abd c79e 75bc 266b b73e 2f06 d1bc
00000120: 26f5 c1be 0856 93be b445 6e3d ab47 0c3e
00000130: 17b1 d4bc 803b 88bb 2f23 cf3e 5e93 233d
00000140: 302a bcbb 8fad e33e 6006 35bb b22d 093f
00000150: 2345 013d 6f6b 663b be48 d73e 0e81 52bd
00000160: f2fd 513e 2795 60bc b8b7 87be 5189 573e
00000170: c47d eb3d 0e70 a0be b455 7a3d 6b72 67bc
00000180: 84f7 c0be 67db 203e c1e8 4cbb 3b02 28bd
00000190: 8965 e93e 37e0 5fbc 781d a9bc 9d7f 863e
000001a0: 886b aabc 65d7 cf3e 482c af3d 7c02 c63d
000001b0: 944b 96bc 0885 89bc 9b00 013e 986d 8ebc
000001c0: 5351 c53c 4baa e93d 93f1 093e afbb c0be
000001d0: 4637 883e 2ca1 9ebc 8d43 633e 3ad1 df3e
000001e0: a8f8 b33e 26d6 f63e c3ff 303e 24b2 2ebd
000001f0: 2746 d0bc df8b c8be 2948 c33e f014 14bd
00000200: 53e4 c4bb b068 e8bb 1795 61bc 57b5 8b3e
00000210: d10b 833e 90e1 1fbc 1882 4e3e 18f5 24bc
00000220: ac31 223e e865 1bbd edae dc3d 24f4 613d
00000230: f252 1f3e 699a e33e 0f44 79bc 5647 a03e
00000240: d099 19bc 3fe6 953e af26 db3e e74a 6f3e
00000250: e770 b23d dd98 143e 2fdf 2b3d 4846 b33e
00000260: 96cb c1be 4581 c8bc 8ccf ab3e 6d38 403e
00000270: 2947 a63e 219a 0a3f a0da aabb 549b a4be
00000280: 5076 87be 34b6 10be 8602 373e 84d7 b2bc
00000290: 4362 1f3e e7e5 153e 93cb cabe 6055 36bc
000002a0: a78e 9ebc 814e 5f3e b298 b93e 5e73 b43e
000002b0: 118a 123c d60f c0be 401f 8abc 66c8 813e
000002c0: 1a9d dd3e 50af 173e ffda a5be 2da8 2a3e
000002d0: 0087 c8be 69da 503e ae01 a83c 5b24 cd3c
000002e0: 00cc 033d 2245 b8be 07ca 413e 0e5f b73e
000002f0: fa9e 193e 7327 e9bb 0ea9 d5be 3040 3fbd
00000300: ce2a cebe 8b9e 693e 67e3 c13e d04b 1bbc
00000310: 2867 b4bb 2f11 b03e 565f 9b3e e2e8 d23e
00000320: 34bf 79bb 8c2d 813e c3e6 c53d d50b 06bd
00000330: abe5 debe 77a6 d9bb 96fe e73d bb8a fc3e
00000340: 774f 633e 5ac3 1c3e e89f eb3d 782e 36bd
00000350: 4ce6 24bd 947d 583d 9aa1 ea3e dea9 b1be
00000360: 0e97 903e b955 dcbe a718 04bd c8a1 c13e
00000370: 3cd0 c53e 2071 b7bb 2446 c83d f0b0 413f
00000380: 5b70 dbbb abf5 bc3e f7c5 aabe 4237 883d
00000390: c7c8 0f3d 04c4 a8bb 0e51 a7be 04d9 acbb
000003a0: 3649 eb3a 86af c53d 8243 bb3e c0e6 8dbd
000003b0: 5429 b7bc 2929 bcb9 b0f8 51bd 26de 953c
000003c0: 0d35 b53c d0f4 903e 7f18 6cbc a390 7fbb
000003d0: 445e 92bb 9bb2 c13d 5841 a5be 6304 e43c
000003e0: 78f2 973e 5c1c 19bc 2124 833e 8679 b23e
000003f0: affd 79bc d39e d13d 5ede 563e 158a ac3e

q.2.weight f4 [256, 256]
0.06527358 -0.0340259 -0.020191126 0.18143068 0.041622624 0.4181959 0.17036717 0.37368557
0.055938013 0.019403411 0.16754787 0.26101774 0.123733476 0.04568669 0.22249201 -0.010090385
0.03368656 -0.009655789 0.022385953 0.22597173 0.1487879 0.21181086 -0.11844253 0.15866499
0.111092225 0.093043044 -0.11744385 -0.086463146 0.1758499 0.28200766 0.12171914 0.17891835
0.12627947 0.23451933 -0.29897118 0.101189956 0.23869196 0.18300097 -0.03191956 -0.32621825
-0.019023836 0.13963084 0.15528838 -0.6835119 -0.21710019 -0.0143402135 0.14821123 0.117318824
-0.82602304 0.10450144 0.33604822 0.06447227 0.14192264 0.06997337 0.037355132 -0.13513607
-0.014273158 0.020106336 0.010321401 -0.1043882 0.17765205 0.18150817 0.110549375 0.19017825
0.15221725 0.089384966 -0.089273214 -0.23565869 -0.34238482 -0.67272586 0.26192522 0.2123181
0.031677708 -0.040809043 0.16523223 0.20641157 0.06799122 -0.28753662 0.34164867 0.28516373
-0.021501644 0.1101308 0.09693612 0.2147902 0.15168498 -0.24995576 -0.2695521 -0.8066837
0.22402325 -0.012660367 0.042221293 0.217594 0.09715144 -0.014101282 0.11049707 0.043573707
-0.05143784 0.1756091 0.0053618043 -0.043541 0.15568326 -0.33647618 0.019167192 0.19939312
0.14170241 0.27329108 0.19359031 0.33233786 -0.34903726 -0.43718833 0.47094363 -0.30915877
-0.42981943 0.061912186 0.14790277 0.013981104 0.26012218 -0.6934527 0.047858156 0.010116647
-0.05298766 -0.69443035 0.18962243 -0.39482853 -0.36215088 -0.03323744 0.3161361 0.11358385
0.07649963 -0.25972283 -0.1822148 0.2245445 0.09051045 -0.018800922 -0.17876399 -0.090495706
0.109436706 -0.045959383 -0.0024125697 0.17756204 0.23210564 0.180871 -0.6966071 0.22463301
-0.08811718 0.19756356 0.2089099 -0.18469912 0.14016937 0.16138445 0.36948463 0.1210383
0.0384597 -0.7424848 0.3340443 0.1997433 0.21271268 0.26222205 0.02516744 0.056281313
-0.015474042 0.01910904 -0.05684386 -0.67029405 0.17905872 0.22670189 -0.0022587895 -0.2547205
-0.179788 0.261159 0.22332439 -0.06826109 -0.052445408 0.023927227 -0.1221015 0.1244611
0.2153013 0.16705911 0.04133057 0.15764455 -0.035928346 0.24624237 -0.20690809 0.12608933
0.050523303 -0.0026533827 0.14204393 0.15416662 0.2651932 -0.018294394 -0.032654785 -0.7572917
-0.04140321 0.13688275 0.32968304 -0.12072032 -0.060386233 0.118555024 0.15293281 0.11240025
0.11474167 0.08227428 0.055872224 -0.28986654 0.018524801 -0.3765102 -0.11318808 0.16244154
0.25732523 0.14959435 0.23521194 -0.39054832 -0.020869352 -0.003020276 -0.0367267 -0.06099219
0.33925197 -0.018400207 -0.7744412 0.11137296 0.025082763 0.17598401 0.1450194 0.07155497
-0.09762382 0.26506504 0.044590607 0.12357329 -0.104731075 0.07706692 -0.038931966 0.05149389
-0.112293564 0.12148653 0.18919626 0.28804502 -0.12862015 -0.25434858 -0.18883982 -0.47553918
-0.11670445 0.24153867 -0.0076080146 0.09664883 -0.45915386 0.003962187 -0.02984797 -0.09543126
0.2547953 -0.050053176 0.19117543 0.20366111 0.030064072 0.12989628 0.16659807 0.17390023
00000000: 28ae 853d be5e 0bbd dc67 a5bc f7c8 393e
00000010: 7c7c 2a3d c61d d63e bb74 2e3e b753 bf3e
00000020: 421f 653d e7f3 9e3c ab91 2b3e 1ea4 853e
00000030: fa67 fd3d f721 3b3d f2d4 633e 2452 25bc
00000040: ebfa 093d 5033 1ebc bf62 b73c 2265 673e
00000050: db5b 183e f2e4 583e ff91 f2bd 1379 223e
00000060: 5284 e33d 5a8d be3d 6786 f0bd 9713 b1bd
00000070: ff11 343e 4f63 903e e247 f93d 5f36 373e
00000080: 684f 013e d625 703e c012 99be ae3c cf3d
00000090: aa6b 743e 9b64 3b3e 16be 02bd 1406 a7be
000000a0: e0d7 9bbc 63fb 0e3e eb03 1f3e a3fa 2ebf
000000b0: 834f 5ebe 37f3 6abc afc4 173e da44 f03d
000000c0: 3f76 53bf da04 d63d 830e ac3e 0a0a 843d
000000d0: 2b54 113e 334e 8f3d b201 193d 1c61 0abe
000000e0: f7d9 69bc 0bb6 a43c 181b 293c 7bc9 d5bd
000000f0: 6bea 353e 47dd 393e b667 e23d 16be 423e
00000100: d7de 1b3e 770f b73d e0d4 b6bd 8350 71be
00000110: 104d afbe c337 2cbf 101b 863e ea69 593e
00000120: 7cc0 013d 6227 27bd a332 293e 8e5d 533e
00000130: fb3e 8b3d 0038 93be 93ec ae3e fb00 923e
00000140: 3724 b0bc 428c e13d 7286 c63d f6f1 5b3e
00000150: 4f53 1b3e 67f4 7fbe bc02 8abe d382 4ebf
00000160: 5a66 653e 6e6d 4fbc 3cf0 2c3d f6d0 5e3e
00000170: 56f7 c63d 1009 67bc 4a4c e23d 587a 323d
00000180: 7cb0 52bd dfd2 333e 13b2 af3b 0c58 32bd
00000190: 6f6b 1f3e 9b46 acbe 8404 9d3c b62d 4c3e
000001a0: 701a 113e cfec 8b3e 8a3c 463e 3028 aa3e
000001b0: 03b5 b2be 26d7 dfbe 861f f13e 0f4a 9ebe
000001c0: 4b11 dcbe a297 7d3d d373 173e 0011 653c
000001d0: bc2e 853e 1e86 31bf ea06 443d 4bc0 253c
000001e0: 9709 59bd 30c6 31bf 622c 423e f726 cabe
000001f0: d76b b9be fb23 08bd 97dc a13e a69e e83d
00000200: d7ab 9c3d 64fa 84be 8496 3abe feee 653e
00000210: 8b5d b93d 6404 9abc e80d 37be d055 b9bd
00000220: 5a20 e03d e83f 3cbd 341c 1ebb d3d2 353e
00000230: 1aad 6d3e 3f36 393e d854 32bf 3206 663e
00000240: c876 b4bd 1a4e 4a3e 7aec 553e c421 3dbe
00000250: 8f88 0f3e f741 253e 172d bd3e eee2 f73d
00000260: eb87 1d3d 7c13 3ebf db07 ab3e 8289 4c3e
00000270: 5ad1 593e f841 863e f22b ce3c 3c87 663d
00000280: d686 7dbc 908a 9c3c 1bd5 68bd 6498 2bbf
00000290: 2b5b 373e 8a24 683e 3308 14bb ba6a 82be
000002a0: 581a 38be a2b6 853e 26af 643e 78cc 8bbd
000002b0: ffd0 56bd 0803 c43c 5a10 fabd 76e5 fe3d
000002c0: f277 5c3e 8b11 2b3e 3e4a 293d 936d 213e
000002d0: 9a29 13bd f626 7c3e b7df 53be 901d 013e
000002e0: 86f1 4e3d 60e4 2dbb f773 113e dbdd 1d3e
000002f0: 67c7 873e 20de 95bc 06c1 05bd dedd 41bf
00000300: 6a96 29bd fe2a 0c3e 37cc a83e 373c f7bd
00000310: 8e57 77bd facc f23d 6b9a 1c3e 1a32 e63d
00000320: aefd ea3d 6b7f a83d 46da 643d 6369 94be
00000330: 53c1 973c f2c5 c0be 27cf e7bd 1357 263e
00000340: 22c0 833e 432f 193e 66db 703e f3f5 c7be
00000350: 34f6 aabc d3ef 45bb bc6e 16bd f2d2 79bd
00000360: 6fb2 ad3e 08bc 96bc c741 46bf 8217 e43d
00000370: 5e7a cd3c 2735 343e f77f 143e 6a8b 923d
00000380: ffee c7bd 9bb6 873e a4a4 363d fe13 fd3d
00000390: 3f7d d6bd 43d5 9d3d 2077 1fbd 42eb 523d
000003a0: 2bfa e5bd eecd f83d aabc 413e a37a 933e
000003b0: 00b5 03be fa39 82be 3a5f 41be df79 f3be
000003c0: be02 efbd ea55 773e a74c f9bb d2ef c53d
000003d0: 3716 ebbe 3cd5 813b bb83 f4bc 7771 c3bd
000003e0: 8874 823e 8f04 4dbd 7ec3 433e 8a8c 503e
000003f0: ee48 f63c 8803 053e af98 2a3e e712 323e

q.2.bias f4 [256]
-6.2147365 0.037358057 0.0492614 -1.1638389 -1.1103926 0.009934704 -0.04404577 0.0405741
0.036957067 -0.8707432 -2.247836 -0.004082789 -0.9570889 -0.07024562 -14.704773 -0.013597074
-0.008497655 0.045406178 -1.036791 0.016437344 -0.0023483876 -0.7786349 -4.0572233 -0.89993393
-0.025171986 0.051872455 -1.6636356 -14.884985 0.024725284 -0.91701907 -0.98617595 -0.022832058
-0.85721296 -0.8863906 -0.9440462 -0.8708803 -0.044854984 -2.2453089 0.03421156 -0.05231167
0.037062045 0.02405991 -0.06846298 0.04642124 -1.1456189 -0.6129782 0.0016427815 -1.264535
-0.046701387 0.050933532 -0.891215 -0.003968381 0.029550057 0.046905898 -0.08447191 -0.06263728
0.016982792 -1.5851291 -1.2572918 -0.057852443 -1.0237578 -8.61006 -0.01066488 -0.005506756
-0.87620777 -0.039191723 -0.7579724 -0.028071528 -0.034504637 -12.026765 -0.39640388 0.046967812
-0.7924275 -0.1232258 0.038570564 -0.94207805 -1.1556253 -0.06661257 -0.029016448 -0.01416356
3.2920423 -0.044576555 -0.0392292 -4.8607864 -0.048751675 3.308374 -1.133295 -0.07291263
-0.13086368 -10.306951 0.0029249087 -2.329475 -0.8558015 -1.3734821 -0.20788144 0.030608896
-0.9321551 -0.16143304 0.078533046 0.032628857 -0.0065124533 -0.5906038 -0.040454075 -0.053692933
-0.8890156 0.043422457 -0.074894786 -0.96645755 -0.0009414942 -0.019804329 -1.0149138 -0.054507263
0.0062947283 -0.9410171 -0.16378653 -3.997024 -0.8712153 -0.015050515 -4.063665 -2.7082367
-0.81456465 -0.71555185 -0.033546418 3.6433764 -2.649867 -0.007892552 -0.025052924 -0.38035533
-0.036081925 -0.00068220706 -1.3695558 -0.73064375 -0.26208678 -0.022464668 -1.0384338 -0.014825004
-0.9036402 -0.9740047 -0.14429581 -0.0075244936 -0.8996729 -0.14979732 -6.4100533 -0.005491119
-2.0177226 -0.98139685 -0.8446769 0.0060810456 -0.062809385 -0.034116983 -0.93812627 -0.049215898
0.041632604 -0.046153545 -2.6140232 -0.078527085 -0.94439787 -0.037090734 -8.066392 -2.7692177
0.08017739 -1.2019501 -1.0674415 -9.513326 -0.035072 -1.2639556 -0.9243707 -0.004780436
3.6845222 -1.1015972 -1.1645374 -0.06647369 0.007862413 0.026734818 -1.0009197 -8.880146
-0.06633586 -5.5775776 2.169609e-05 -0.03190358 0.00751396 -7.099285 0.008308019 -0.047204
-6.852802 -0.06776041 -2.2728462 4.9231944 -0.02981705 -0.974956 0.011820016 -1.0779319
-0.25488594 0.0017232688 -9.019986 -0.005029276 0.02698974 -0.92155975 -0.13700557 -0.12202477
-0.004356684 -0.8764736 0.0076856213 -0.8004193 -0.93418044 -9.706596 -0.9505145 -0.8437435
0.042139914 -1.6270287 -0.14906298 -0.13346773 -9.151609 -7.128476 0.023025548 -0.039823756
-0.03766547 0.043907784 -0.04599552 -1.3986049 -0.042671293 -0.016545668 -0.01379539 -1.087843
-7.5845194 -0.12047475 0.0048821173 -5.1169014 -0.04469958 -1.3817964 -0.9658782 -0.024416758
-0.67908454 -0.017468646 0.04372413 -0.84204715 -0.009437118 -0.003166936 -0.053962495 -0.16470087
-0.082320035 -0.0049983 -0.93876165 -2.2386045 -0.8329634 -0.97186846 -0.039724514 -1.9547732
-0.030404836 -0.03356445 0.02723382 -0.044851482 -0.68169045 -0.03411095 0.00014131142 -1.3713679
00000000: 1fdf c6c0 c304 193d 52c6 493d acf8 94bf
00000010: 5821 8ebf 2bc5 223c 5669 34bd 0731 263d
00000020: 4b60 173d 07e9 5ebf 8cdc 0fc0 ebc8 85bb
00000030: c703 75bf f0dc 8fbd c046 6bc1 43c6 5ebc
00000040: c039 0bbc d4fb 393d 91b5 84bf 9ca7 863c
00000050: 68e7 19bb 9e54 47bf c6d4 81c0 1262 66bf
00000060: 7b35 cebc 3678 543d 03f2 d4bf e628 6ec1
00000070: ae8c ca3c c3c1 6abf 0776 7cbf 4c0a bbbc
00000080: 4f72 5bbf 7fea 62bf 03ad 71bf 03f2 5ebf
00000090: dcb9 37bd 24b3 0fc0 6c21 0c3d c344 56bd
000000a0: 5fce 173d 4a19 c53c 5236 8cbd 3324 3e3d
000000b0: a4a3 92bf 24ec 1cbf 9a52 d73a 48dc a1bf
000000c0: f449 3fbd ae9f 503d ab26 64bf 3109 82bb
000000d0: f612 f23c 6620 403d 9cff acbd f947 80bd
000000e0: 7f1f 8b3c 83e5 cabf f0ee a0bf aff6 6cbd
000000f0: 7f0a 83bf cec2 09c1 c0bb 2ebc 0472 b4bb
00000100: 274f 60bf 8087 20bd 7b0a 42bf 43f6 e5bc
00000110: bc54 0dbd a16d 40c1 73f5 cabe 5261 403d
00000120: 87dc 4abf cf5d fcbd 2bfc 1d3d 072c 71bf
00000130: 88eb 93bf 2c6c 88bd e7b3 edbc 470e 68bc
00000140: d2b0 5240 e895 36bd ccae 20bd 908b 9bc0
00000150: d6af 47bd 66bc 5340 d00f 91bf 3853 95bd
00000160: 2101 06be 45e9 24c1 d3af 3f3b 1e16 15c0
00000170: cf15 5bbf 43ce afbf dfde 54be 82bf fa3c
00000180: b7a1 6ebf b44e 25be efd5 a03d d6a5 053d
00000190: 6b66 d5bb d031 17bf 2cb3 25bd 1fed 5bbd
000001a0: 8796 63bf bfdb 313d 7062 99bd c369 77bf
000001b0: 9bce 76ba b03c a2bc b2e8 81bf 0243 5fbd
000001c0: 0244 ce3b 7fe6 70bf a8b7 27be 3ecf 7fc0
000001d0: f707 5fbf 6f96 76bc 8b09 82c0 c053 2dc0
000001e0: 4f87 50bf 682e 37bf f867 09bd 142d 6940
000001f0: 6c97 29c0 c34f 01bc ca3b cdbc efbd c2be
00000200: a4ca 13bd 24d6 32ba 9b4d afbf 780b 3bbf
00000210: 3d30 86be d307 b8bc 66eb 84bf 93e4 72bc
00000220: f754 67bf 5f58 79bf 48c2 13be 0790 f6bb
00000230: f750 66bf 7864 19be 281f cdc0 d8ee b3bb
00000240: 5e22 01c0 d33c 7bbf bf3c 58bf 8243 c73b
00000250: 35a2 80bd 40be 0bbd 0b29 70bf 9c96 49bd
00000260: f386 2a3d 800b 3dbd 284c 27c0 cfd2 a0bd
00000270: 0fc4 71bf 74ec 17bd f10f 01c1 dd3a 31c0
00000280: 0b34 a43d 80d9 99bf eca1 88bf 9536 18c1
00000290: a8a7 0fbd 4cc9 a1bf 8fa3 6cbf 34a5 9cbb
000002a0: 36cf 6b40 2301 8dbf 900f 95bf 5c23 88bd
000002b0: 5ad1 003c fa02 db3c 231e 80bf 1415 0ec1
000002c0: 18db 87bd 847b b2c0 0000 b637 54ad 02bd
000002d0: aa37 f63b 582d e3c0 5b1e 083c fb58 41bd
000002e0: 274a dbc0 f8c5 8abd 5076 11c0 cf8a 9d40
000002f0: e342 f4bc b796 79bf bea8 413c acf9 89bf
00000300: 6980 82be 4edf e13a dd51 10c1 a0cc a4bb
00000310: 9619 dd3c 57eb 6bbf 304b 0cbe 1fe8 f9bd
00000320: 84c2 8ebb 9360 60bf aad7 fb3b 47e8 4cbf
00000330: 7326 6fbf 384e 1bc1 eb54 73bf 93ff 57bf
00000340: e79a 2c3d 7a42 d0bf f7a3 18be c4ab 08be
00000350: fe6c 12c1 7a1c e4c0 13a0 bc3c 3c1e 23bd
00000360: 1c47 1abd a6d8 333d cc65 3cbd 7c05 b3bf
00000370: 18c8 2ebd c88a 87bc 0f06 62bc 703e 8bbf
00000380: 62b4 f2c0 77bb f6bd 2bfa 9f3b a8bd a3c0
00000390: e816 37bd b4de b0bf cb43 77bf a705 c8bc
000003a0: 7cd8 2dbf 681a 8fbc 1318 333d 6790 57bf
000003b0: 249e 1abc 5f8c 4fbb c707 5dbd 58a7 28be
000003c0: 6897 a8bd c8c8 a3bb af52 70bf 4c45 0fc0
000003d0: 173d 55bf 5fcc 78bf 2cb6 22bd 0236 fabf
000003e0: 9013 f9bc e07a 09bd 7619 df3c 30b6 37bd
000003f0: 4483 2ebf ecb7 0bbd ff2c 1439 fc88 afbf

q.4.weight f4 [10, 256]
-1.0522083 0.00079704076 0.046013247 -0.5857031 -0.5015875 -0.021888144 0.02948428 -0.007228305
0.04693555 -0.568252 -0.346848 0.004633128 -0.5123521 0.02414034 -1.4493173 -0.019983217
-0.04054168 -0.025267875 -0.35855794 -0.0019087347 -0.025666438 -0.54015565 -0.6484671 -0.5086442
0.04028996 0.013214821 -0.65814066 -1.2879066 0.051856004 -0.4318686 -0.5709521 -0.025045363
-0.39654094 -0.48765558 -0.123079024 -0.47925967 -0.03198237 -0.68072486 -0.058453575 0.037476897
-0.017177887 0.031006329 -0.05728009 0.04420298 -0.6583934 -0.36974213 -0.021346932 -0.4874917
-0.0049105976 -0.0035030222 -0.4377087 -0.055285197 0.004634516 -0.054522928 -0.016810391 -0.017402112
0.031234745 -0.53443116 -0.6431083 -0.01441714 -0.5485492 -1.4411392 -0.015936593 0.05532565
-0.57273793 0.061696492 -0.32076678 -0.003560164 -0.032757346 -0.73069096 -0.06400229 -0.029050423
-0.8263806 -0.013121037 -0.056682028 -0.44795412 -0.6013875 -0.0610287 -0.06836823 0.023258053
0.07075136 -0.011612631 -0.045951035 -0.42724162 -0.026189893 -0.064148776 -0.6192379 -0.05930419
-0.36239347 -0.7777839 0.058906548 -0.32948515 -0.46764097 -2.0675478 -0.12506443 -0.036301117
-0.45352358 -0.0734832 -0.028079053 0.012162762 0.034368813 -0.4904755 -0.051695384 -0.008208866
-0.5278818 -0.021006515 -0.040046528 -0.5503242 -0.0132346405 0.00960236 -0.15936415 -0.017792843
-0.080455445 -0.48534235 -0.007154768 -0.7507467 -0.5803732 0.0040480783 -0.77601475 -0.5855457
-0.5037065 -0.48428255 -0.07153666 0.21877776 -0.33877572 0.054425016 0.035159245 -0.27434608
-0.014656788 0.03583941 -0.55396605 -0.5271868 -0.062345214 -0.022170372 -0.5434172 0.045153227
-0.5015595 -0.59305114 -0.0448637 -0.00821653 -0.555443 -0.17460626 -0.30327344 0.05566413
-0.37371182 -0.45141894 -0.53903985 -0.019249074 -0.0059721 -0.0013192073 -0.42422074 0.034239538
0.03509159 0.030190844 -0.6570093 0.03184528 -0.5539767 -0.008133391 -0.7322759 0.030947233
0.0061339447 -0.4320993 -0.51137525 -0.53321344 -0.018423736 -0.5532102 -0.5372731 -0.024668884
0.55412567 -0.057194483 -0.6998913 -0.4988297 -0.027733942 -0.040767968 -0.10329579 -1.0938367
0.040444635 -0.20956972 0.02777946 0.02978747 0.00188266 -0.41936105 -0.034858912 -0.008465952
-1.0822496 -0.061921053 -0.16329388 0.71527284 0.03988769 -0.5011787 -0.026837338 -0.5177893
-0.073367566 -0.037771344 -1.1146808 0.019125886 -0.08169165 -0.5466561 -0.1790188 -0.054134827
0.03698277 -0.4267635 0.033873495 -0.51038814 -0.43804902 -0.31824267 -0.55622023 -0.44597763
-0.0205625 -0.85459507 -0.09216747 -0.13477248 -0.5646984 -0.6434397 0.00636549 -0.004602311
-0.023070365 -0.010776535 -0.04442814 -0.6381194 -0.03050645 -0.0071865814 0.047754265 -0.5596869
0.19568884 0.011757245 -0.037848454 -0.3941749 0.029739179 -0.45280296 -0.4966881 -0.04878562
-0.28949878 -0.0015683969 -0.00069500104 -0.3419348 0.025811281 -0.0059208022 0.043220647 -0.1082023
-0.04311207 -0.015351406 -0.52041245 -0.4604699 -0.5220188 -0.37865 -0.03168014 -0.33903444
-0.013135947 0.01981446 0.020780466 0.014574162 -0.28127035 -0.0344226 0.018404737 -0.7132785
00000000: c3ae 86bf 80f0 503a 6378 3c3d a3f0 15bf
00000010: 0a68 00bf c44e b3bc 0489 f13c 6bdb ecbb
00000020: 7e3f 403d f778 11bf 1096 b1be 7fd1 973b
00000030: 8229 03bf f6c1 c53c 3b83 b9bf d8b3 a3bc
00000040: 080f 26bd 93fe cebc e894 b7be 822e faba
00000050: 6c42 d2bc a447 0abf f101 26bf 8236 02bf
00000060: 1607 253d fa82 583c e87b 28bf 20da a4bf
00000070: f666 543d e21d ddbe eb29 12bf ef2b cdbc
00000080: 6a07 cbbe fead f9be db10 fcbd 8661 f5be
00000090: f2ff 02bd fc43 2ebf 046d 6fbd 6081 193d
000000a0: a4b8 8cbc fc00 fe3c 879e 6abd 2f0e 353d
000000b0: 788c 28bf d74e bdbe c3df aebc 8398 f9be
000000c0: 14e9 a0bb f692 65bb 5b1b e0be bb72 62bd
000000d0: 23dd 973b 6f53 5fbd f2b5 89bc e08e 8ebc
000000e0: 02e0 ff3c 7bd0 08bf bfa2 24bf de35 6cbc
000000f0: b86d 0cbf 4077 b8bf 758d 82bc 269d 623d
00000100: f49e 12bf 76b5 7c3d 8b3b a4be a451 69bb
00000110: 912c 06bd 900e 3bbf a213 83bd 27fb edbc
00000120: ae8d 53bf 9ef9 56bc 6a2b 68bd 3e5a e5be
00000130: 88f4 19bf 3bf9 79bd a404 8cbd ac87 be3c
00000140: 17e6 903d e842 3ebc 2737 3cbd 6abf dabe
00000150: 308c d6bc 6f60 83bd 6086 1ebf f3e8 72bd
00000160: a38b b9be d81c 47bf fe47 713d 47b2 a8be
00000170: a36e efbe b452 04c0 e410 00be 7bb0 14bd
00000180: 3e34 e8be 5c7e 96bd 0b06 e6bc 5246 473c
00000190: 50c6 0c3d 9b1f fbbe 8abe 53bd 7b7e 06bc
000001a0: 4323 07bf db15 acbc d407 24bd 0ce2 0cbf
000001b0: 1bd6 58bc 3853 1d3c 5b30 23be 4cc2 91bc
000001c0: d3c5 a4bd cb7e f8be 8b72 eabb f030 40bf
000001d0: 5793 14bf bea5 843b e7a8 46bf 53e6 15bf
000001e0: e9f2 00bf e2f3 f7be d081 92bd 4707 603e
000001f0: 0374 adbe c4ec 5e3d 2403 103d 1777 8cbe
00000200: 0623 70bc 58cc 123d b8d0 0dbf b7f5 06bf
00000210: b25d 7fbd a49e b5bc 641d 0bbf 97f2 383d
00000220: 3466 00bf 33d2 17bf 00c3 37bd a09e 06bc
00000230: 8331 0ebf fccb 32be a846 9bbe 1200 643d
00000240: 2857 bfbe 6220 e7be 84fe 09bf 3cb0 9dbc
00000250: 9bb1 c3bb 40e9 acba 7633 d9be c23e 0c3d
00000260: 33bc 0f3d ca52 f73c c331 28bf 3270 023d
00000270: 6bd1 0dbf ea41 05bc 6f76 3bbf 0d85 fd3c
00000280: 42ff c83b 1f3c ddbe 7de9 02bf ad80 08bf
00000290: 60ed 96bc 2f9f 0dbf bb8a 09bf 6616 cabc
000002a0: 2edb 0d3f c344 6abd 142c 33bf 9b66 ffbe
000002b0: 4b32 e3bc 50fc 26bd be8c d3bd d702 8cbf
000002c0: 46a9 253d 7299 56be c091 e33c da04 f43c
000002d0: 96c3 f63a 7eb6 d6be 38c8 0ebd c7b4 0abc
000002e0: 2887 8abf eea0 7dbd 8336 27be 1f1c 373f
000002f0: 4661 233d 3f4d 00bf fad9 dbbc d78d 04bf
00000300: bc41 96bd 20b6 1abd dcad 8ebf e4ad 9c3c
00000310: f44d a7bd a7f1 0bbf b450 37be 7bbc 5dbd
00000320: 3f7b 173d bf80 dabe efbe 0a3d cca8 02bf
00000330: f647 e0be b4f0 a2be 7364 0ebf 2e57 e4be
00000340: b072 a8bc bec6 5abf 4cc2 bcbd cc01 0abe
00000350: 1390 10bf 77b8 24bf 9a95 d03b fcce 96bb
00000360: 10fe bcbc 1090 30bc 48fa 35bd cb5b 23bf
00000370: aae8 f9bc 6a7d ebbb fa99 433d a447 0fbf
00000380: a862 483e 76a1 403c fb06 1bbd 4bd1 c9be
00000390: 949f f33c cad5 e7be e74d febe 6ed3 47bd
000003a0: 2f39 94be ab92 cdba bb30 36ba 1412 afbe
000003b0: 2e72 d33c 4a03 c2bb 2208 313d 2b99 ddbd
000003c0: 4896 30bd 7784 7bbc c039 05bf b6c2 ebbe
000003d0: 06a3 05bf 6ade c1be 09c3 01bd ec95 adbe
000003e0: 2838 57bc ef51 a23c cc3b aa3c 77c8 6e3c
000003f0: ab02 90be b6fe 0cbd 88c5 963c 6b99 36bf

q.4.bias f4 [10]
6.9709883 5.4506574 3.708684 11.902376 4.617959 5.2194476 5.9252405 7.984721
16.86641 13.625214
00000000: 5612 df40 c96b ae40 145b 6d40 2270 3e41
00000010: 52c6 9340 b705 a740 929b bd40 d682 ff40
00000020: 68ee 8641 e000 5a41
